course3-rnns/lab2/model.pt (torch, 542535 bytes, 24 tensors)

weight f4 [2125, 20]
-0.4664013 -0.69164693 0.6858445 0.019524956 -1.9724498 0.36971405 0.4466855 -0.6280793
1.1162026 -0.85888475 0.2858354 0.6518044 -0.110295095 -1.5300246 -0.30790386 0.86839247
-1.8264751 -1.0642735 0.73856753 -0.33777273 0.5508867 2.7893033 -0.109747715 -0.20609389
-0.22543913 1.1812906 1.5289677 1.3222518 0.63321745 0.8779903 -0.7751636 -0.7131484
-0.45432675 1.3851374 -1.2095124 -0.5844874 -1.8392177 0.6452514 0.43157807 0.32378796
-0.33785555 2.169055 -2.1196883 -0.16572638 -0.56542814 1.0328109 0.27455938 1.9869665
0.20215379 0.6614248 -1.9444189 0.09082601 0.24378227 1.1396222 0.07276599 0.016270572
-0.27137378 -0.3560832 1.9760652 0.27774996 0.23824778 -0.26723656 1.9051892 -0.6162759
0.63389355 -1.3565413 2.331378 -2.1147573 1.1872613 -1.6569681 1.5503167 -0.030079005
1.5772743 -0.18681134 0.107644506 -0.5605148 0.5647024 0.3503592 -0.7085573 1.2889652
-2.0078564 -0.6598922 0.10005368 -0.4603554 -0.33089688 0.0961841 2.5384612 -0.81229526
1.71399 0.83509195 -1.8502811 -0.015536732 -0.24763964 0.5273206 0.30716982 0.06042034
-0.62893075 -0.48636436 -0.7691796 0.9031592 -1.3136036 1.2226129 -1.0343432 0.35718176
0.16695914 -1.544484 -0.25877625 -0.47188616 0.19422224 -0.094659425 -0.03726748 -0.44273308
0.29210493 -0.43081456 -0.70509624 -0.1957661 -1.8834891 2.0064878 -2.20316 -0.005524029
0.9418934 0.56247616 -1.5736527 0.4571534 0.6838121 0.397211 -0.2788981 0.5296689
-0.298817 -0.592697 0.036694277 -0.57016075 1.0696045 -0.48482728 -0.34080538 -0.034285925
-0.18125409 0.21473876 0.4006269 0.10798614 -1.617268 -2.0704684 0.024100136 0.67314386
1.0290161 0.75633276 -0.052413654 1.3335831 -1.2938081 0.033781238 -2.2735665 -0.0057217167
-1.1904616 0.93643236 1.0330038 0.73241127 2.786125 -0.17932688 1.370911 0.5698557
0.06288237 0.3867878 -0.90727353 0.12865064 -0.34346196 0.49337015 1.2994659 0.012139631
0.12151024 -0.6830909 0.54887646 -0.8267454 0.21815175 1.0416676 -0.46827424 0.24458987
-0.5681471 1.692532 0.4796516 -0.28517264 0.9130942 0.16615961 1.8474215 -2.6912374
1.7400408 0.99490535 -0.86038613 -0.857695 0.17740451 -1.2911849 1.3145007 0.6759204
1.7654648 -1.2259865 0.25559422 0.19678755 0.35821337 -1.6057036 -0.3776524 -0.60268354
-1.8656234 -0.3806591 0.4726781 1.2662165 -1.319154 0.38929576 0.6625108 0.35108778
-1.0586835 1.2144604 0.14177452 1.3093767 -1.0016108 -2.4139688 1.5610993 -0.03875482
0.13148516 0.69774866 0.15133214 -1.5979235 0.35297474 -1.0638219 0.45915106 -0.67696965
0.72791296 1.3414822 1.66844 0.24335174 1.2171235 -0.59035313 0.6678673 -1.8831483
-0.44567737 0.20237342 -0.7625479 -0.0072307372 1.8933678 -0.41039994 -0.6539275 0.926672
-0.5826407 -1.3059375 -0.11189721 -0.33032423 -0.5758546 0.6121429 2.7306345 0.15496004
-0.022573134 -0.4994352 -1.4286861 1.7544173 -2.5384905 -1.2787923 0.8343037 -0.62375075
00000000: 27cc eebe c60f 31bf 8193 2f3f cdf2 9f3c
00000010: 3c79 fcbf 294b bd3e f6b3 e43e cec9 20bf
00000020: badf 8e3f dfdf 5bbf 0459 923e a7dc 263f
00000030: 65e2 e1bd d9d7 c3bf 93a5 9dbe f84e 5e3f
00000040: f0c9 e9bf 1d3a 88bf c312 3d3f 8cf0 acbe
00000050: e906 0d3f f283 3240 69c3 e0bd 470a 53be
00000060: 84d9 66be 8834 973f 37b5 c33f 8c3f a93f
00000070: 8a1a 223f f9c3 603f 1f71 46bf e590 36bf
00000080: 849d e8be 2f4c b13f 4dd1 9abf f7a0 15bf
00000090: 7c6b ebbf 322f 253f cdf7 dc3e 89c7 a53e
000000a0: 67fb acbe ccd1 0a40 f9a8 07c0 2db4 29be
000000b0: e6bf 10bf 2633 843f 0c93 8c3e eb54 fe3f
000000c0: 6701 4f3e 2353 293f b8e2 f8bf fd02 ba3d
000000d0: 0fa2 793e 24df 913f 5606 953d dd49 853c
000000e0: 81f1 8abe 8a50 b6be b4ef fc3f 3e35 8e3e
000000f0: 3af7 733e 3bd3 88be 3ddd f33f 42c4 1dbf
00000100: d946 223f 25a3 adbf 4c35 1540 2f58 07c0
00000110: 2ef8 973f 8817 d4bf c770 c63f 3f68 f6bc
00000120: 20e4 c93f 794b 3fbe b974 dc3d e67d 0fbf
00000130: 5690 103f 4862 b33e 0364 35bf d0fc a43f
00000140: b880 00c0 b2ee 28bf f2e8 cc3d b4b3 ebbe
00000150: 516b a9be 2bfc c43d 2676 2240 95f2 4fbf
00000160: 0664 db3f 96c8 553f 03d6 ecbf c78d 7ebc
00000170: 3f95 7dbe 7cfe 063f 5d45 9d3e 527b 773d
00000180: 9b01 21bf c004 f9be f4e8 44bf 7135 673f
00000190: 2a24 a8bf 947e 9c3f 5c65 84bf 87e0 b63e
000001a0: 56f7 2a3e a7b1 c5bf 527e 84be 109b f1be
000001b0: 32e2 463e cddc c1bd c9a5 18bd e9ad e2be
000001c0: c78e 953e ba93 dcbe 3081 34bf e976 48be
000001d0: 2c16 f1bf 4c6a 0040 9300 0dc0 ea02 b5bb
000001e0: ed1f 713f 70fe 0f3f 746d c9bf 0310 ea3e
000001f0: 4f0e 2f3f 3d5f cb3e bbcb 8ebe 6298 073f
00000200: 8bfe 98be feba 17bf bd4c 163d 0ef6 11bf
00000210: cde8 883f 483b f8be 0b7e aebe 666f 0cbd
00000220: ac9a 39be 7ae4 5b3e f81e cd3e d627 dd3d
00000230: a302 cfbf 8e82 04c0 a66d c53c 2853 2c3f
00000240: cdb6 833f 069f 413f b3af 56bd dab2 aa3f
00000250: 819b a5bf 325e 0a3d 1d82 11c0 3d7d bbbb
00000260: 0c61 98bf 08ba 6f3f 7839 843f 4e7f 3b3f
00000270: df4f 3240 77a1 37be 037a af3f 10e2 113f
00000280: 79c8 803d 0d09 c63e 1443 68bf febc 033e
00000290: 3fda afbe 039b fc3e e654 a63f 4ee5 463c
000002a0: 5cda f83d 0cdf 2ebf 2b83 0c3f 96a5 53bf
000002b0: 2c63 5f3e 5d55 853f a4c1 efbe c475 7a3e
000002c0: 1772 11bf e3a4 d83f e594 f53e 2602 92be
000002d0: 8bc0 693f bf25 2a3e 4f78 ec3f 3c3d 2cc0
000002e0: a8b9 de3f 1eb2 7e3f 4442 5cbf e691 5bbf
000002f0: 87a9 353e 8c45 a5bf 8f41 a83f 1f09 2d3f
00000300: c0fa e13f 20ed 9cbf 3fdd 823e ad82 493e
00000310: be67 b73e b287 cdbf a85b c1be 7849 1abf
00000320: bfcc eebf c0e5 c2be dd02 f23e 6213 a23f
00000330: 0ada a8bf c651 c73e 4f9a 293f c7c1 b33e
00000340: f182 87bf 7073 9b3f 572d 113e a899 a73f
00000350: c834 80bf 777e 1ac0 1ad2 c73f 60bd 1ebd
00000360: 0ca4 063e a89f 323f d0f6 1a3e c288 ccbf
00000370: 1bb9 b43e 512b 88bf d915 eb3e e24d 2dbf
00000380: 8158 3a3f b0b5 ab3f 718f d53f 3331 793e
00000390: b4ca 9b3f 6221 17bf 5af9 2a3f 010b f1bf
000003a0: d32f e4be fa3a 4f3e 5736 43bf d2ef ecbb
000003b0: e059 f23f f11f d2be cb67 27bf 603a 6d3f
000003c0: f127 15bf f628 a7bf 5d2a e5bd 4220 a9be
000003d0: 356b 13bf 66b5 1c3f b7c2 2e40 d8ad 1e3e
000003e0: 4beb b8bc f8b5 ffbe 30df b6bf bf90 e03f
000003f0: a176 22c0 77af a3bf ed94 553f 21ae 1fbf

weight f4 [1370, 20]
-1.1190296 0.91136336 -0.7022308 0.32962164 0.27944738 0.41400498 0.3552886 -0.15738487
-0.4776193 -0.6079259 0.67009383 0.93513846 0.08734827 0.80170673 0.11517709 -0.4851342
-0.09638359 -0.8704608 0.08426086 -0.15248865 -0.3722491 0.62693745 0.10630556 0.85599476
0.4783161 -0.5264642 -0.8942122 0.25606364 -0.41891098 -0.1548627 -1.52497 0.7151666
-0.013361552 0.64614546 -0.25902325 0.16251828 0.7010958 -0.46766347 0.44562945 -0.015656214
0.063313976 -0.77261305 -0.33526975 1.0183877 0.48658422 0.113370314 -0.35962164 -0.6248391
-0.5215429 -0.11508096 -0.18068473 1.472791 0.025537217 0.9195528 0.75119853 0.9195919
0.75107056 -1.6331141 -1.1985136 0.6226471 -1.1081834 -1.3747367 0.45518434 0.8969017
-2.6174035 0.1295825 -0.36940095 -0.15250503 -0.007747504 1.4603769 0.13600215 0.38094595
-0.083943896 1.1250429 2.4233103 -0.020360298 -0.23689912 1.0832806 0.45247993 -0.009760808
0.73462087 -0.018894998 0.514 -0.19741532 -0.797766 0.62110597 0.61828035 -0.65199715
-0.4540112 -0.40603888 -0.2694571 -0.13725911 -0.7277838 0.79890466 0.67972153 1.6309947
-0.8479034 1.0308124 -0.16585408 -0.5066168 -1.54508 0.39422628 0.27640426 0.20738025
-0.18643308 -0.47588634 0.5159947 0.14160307 0.0016850568 0.61267596 0.31447712 -0.41909784
-0.02012263 0.002518942 -0.020958446 0.018118314 -0.42788416 -0.16285495 0.18975715 2.172235
-0.45964634 -0.06252318 -1.288965 -0.9782161 0.73391724 -0.39265573 0.8188257 -0.9831743
0.50322604 0.0969284 0.34511817 2.793367 0.12355141 1.3637706 0.040917568 0.34748152
0.21083096 0.8708814 -0.6794563 1.5952799 -0.9596012 -2.1612442 0.68971604 -0.0349972
-0.28512818 -0.30420354 0.7866526 0.39641386 -0.26625752 0.24940641 -0.20806757 1.353602
-0.14996883 0.3934569 0.352098 0.31823388 -1.1044117 -0.18286867 0.19733046 -1.2783383
-0.381273 -0.25838256 -1.1710155 1.3518691 0.305174 -0.6367804 -0.5743377 -0.6639673
0.58347696 -0.52097416 -0.15141965 0.008651192 1.5317992 0.48624745 0.5992134 0.38113293
-0.6155839 0.3468757 -0.47883898 -0.60206157 0.26733178 1.0494087 1.0865952 -1.0824177
-1.9349117 -0.4407572 -0.46587813 -0.57354087 -0.3451525 -0.47014084 -0.11227751 -0.5559149
-0.54396516 1.6936748 0.06690462 0.2080451 2.0196314 -1.8356061 0.022130094 -0.2663437
0.47222835 0.56081444 0.59284484 0.09755367 0.85770106 -0.93315554 0.33964896 0.7299829
0.77115947 -0.8617542 -1.002805 0.49411684 0.06272566 2.5263808 1.5371714 -0.89916325
-0.5640601 0.7056121 -1.0621809 0.49550802 0.23206696 -0.9187538 -0.070020035 -0.68639594
1.9214338 0.900377 0.556506 -0.20750242 -0.35056752 -1.3773443 0.37038434 0.9577637
-0.56643957 0.71913844 0.8683865 0.22172472 -0.79303586 0.3865167 0.7155104 0.596786
0.11512132 -0.9708883 0.6526017 -0.46942577 -1.436579 -1.2603769 1.1807051 -1.0384518
-0.7130782 -1.1023747 0.466419 -0.6930278 0.2833739 1.0596488 0.46059018 -0.026326338
00000000: 5d3c 8fbf 1c4f 693f 66c5 33bf 2bc4 a83e
00000010: ba13 8f3e 76f8 d33e 63e8 b53e 8029 21be
00000020: 848a f4be 08a1 1bbf 458b 2b3f 3c65 6f3f
00000030: a6e3 b23d a73c 4d3f f7e1 eb3d 8363 f8be
00000040: c264 c5bd 85d6 5ebf f590 ac3d fc25 1cbe
00000050: 6f97 bebe f97e 203f bbb6 d93d 7922 5b3f
00000060: d9e5 f43e 5cc6 06bf 17eb 64bf c61a 833e
00000070: 807b d6be 5494 1ebe 3832 c3bf 2915 373f
00000080: 69ea 5abc ca69 253f b29e 84be 316b 263e
00000090: 047b 333f 9671 efbe 8b29 e43e 7641 80bc
000000a0: c2aa 813d f8c9 45bf 7aa8 abbe 875a 823f
000000b0: 9121 f93e b22e e83d 5420 b8be 75f5 1fbf
000000c0: d683 05bf 91af ebbd 6b05 39be 6a84 bc3f
000000d0: 6d33 d13c d067 6b3f 8c4e 403f 606a 6b3f
000000e0: 2946 403f e209 d1bf e568 99bf cd65 1f3f
000000f0: f4d8 8dbf 5ff7 afbf ec0d e93e 5a9b 653f
00000100: 8a83 27c0 46b1 043e 1f22 bdbe 472a 1cbe
00000110: c6de fdbb a1ed ba3f 2644 0b3e 590b c33e
00000120: c7ea abbd 6801 903f 8417 1b40 a4ca a6bc
00000130: af95 72be f0a8 8a3f 73ab e73e cceb 1fbc
00000140: 1d10 3c3f afc9 9abc 8195 033f 3e27 4abe
00000150: 643a 4cbf cd00 1f3f 9f47 1e3f 49e9 26bf
00000160: 2874 e8be 54e4 cfbe 48f6 89be a78d 0cbe
00000170: 0a50 3abf 0485 4c3f 3b02 2e3f 6fc4 d03f
00000180: 3210 59bf a9f1 833f a7d5 29be a3b1 01bf
00000190: 2ec5 c5bf 07d8 c93e dc84 8d3e 7d5b 543e
000001a0: 50e8 3ebe 60a7 f3be 3b18 043f 6500 113e
000001b0: 20dd dc3a 55d8 1c3f 2503 a13e fe93 d6be
000001c0: 37d8 a4bc d614 253b 0cb1 abbc dc6c 943c
000001d0: a213 dbbe 73c3 26be b34f 423e e605 0b40
000001e0: c456 ebbe 270c 80bd cefc a4bf 5f6c 7abf
000001f0: 00e2 3b3f 2c0a c9be 909e 513f 50b1 7bbf
00000200: 6cd3 003f 6682 c63d 54b3 b03e 86c6 3240
00000210: 8608 fd3d 0990 ae3f 2e99 273d 19e9 b13e
00000220: 12e4 573e 15f2 5e3f d9f0 2dbf 2232 cc3f
00000230: 6da8 75bf d351 0ac0 3b91 303f 3959 0fbd
00000240: 52fc 91be 91c0 9bbe 1162 493f c2f6 ca3e
00000250: e852 88be 6564 7f3e aa0f 55be d542 ad3f
00000260: 6e91 19be 2f73 c93e 3046 b43e 8def a23e
00000270: 5d5d 8dbf ed41 3bbe ff10 4a3e 97a0 a3bf
00000280: 3736 c3be b84a 84be d6e3 95bf 0c0a ad3f
00000290: c43f 9c3e 0a04 23bf cc07 13bf c3f9 29bf
000002a0: bf5e 153f 905e 05bf c10d 1bbe bbbd 0d3c
000002b0: ff11 c43f 6df5 f83e 0d66 193f db23 c33e
000002c0: e896 1dbf b199 b13e 622a f5be b520 1abf
000002d0: b6df 883e 0653 863f 8d15 8b3f aa8c 8abf
000002e0: 30ab f7bf edaa e1be 9487 eebe 93d3 12bf
000002f0: d4b7 b0be 4db6 f0be c0f1 e5bd 7050 0ebf
00000300: 4d41 0bbf 56ca d83f 4a05 893d c609 553e
00000310: a441 0140 24f5 eabf 2c4a b53c 345e 88be
00000320: eac7 f13e 8991 0f3f aec4 173f 38ca c73d
00000330: 4c92 5b3f 48e3 6ebf 78e6 ad3e 29e0 3a3f
00000340: b56a 453f ec9b 5cbf ea5b 80bf e2fc fc3e
00000350: 5076 803d 39b0 2140 08c2 c43f 902f 66bf
00000360: 3e66 10bf ffa2 343f 8bf5 87bf 3ab3 fd3e
00000370: f6a2 6d3e 7333 6bbf aa66 8fbd a5b7 2fbf
00000380: 8bf1 f53f 1b7f 663f 2d77 0e3f 847b 54be
00000390: 967d b3be d14c b0bf 04a3 bd3e 0030 753f
000003a0: 2f02 11bf 7519 383f 944e 5e3f ce0b 633e
000003b0: 6604 4bbf 84e5 c53e b12b 373f f8c6 183f
000003c0: bac4 eb3d 238c 78bf e810 273f 9358 f0be
000003d0: d2e1 b7bf 0854 a1bf 5821 973f fdeb 84bf
000003e0: 4b8c 36bf 9d1a 8dbf 79ce ee3e 456a 31bf
000003f0: 6216 913e 92a2 873f 7ad2 eb3e 55aa d7bc

weight_ih_l0 f4 [60, 20]
-0.077310674 -0.74662596 0.11329853 0.16065761 0.74491763 -0.4716663 -0.063723356 0.69127995
-0.5811906 0.24470434 -0.2569468 -1.5054102 -1.3570335 -0.40864938 0.07697478 -0.2972665
0.16242276 -0.21383087 -0.7058088 0.6217725 0.039877526 0.7498867 -0.19942048 0.054200295
0.044994716 0.54021966 1.2693971 -0.67348224 0.940799 -0.18433155 -0.0070260004 0.2749068
0.99293715 0.7092916 -0.3765464 -0.45668417 0.70651996 0.6248 -0.32342422 -0.1818243
-0.49531767 -0.7464713 0.54342324 0.48264048 0.032122843 0.74540764 0.60699034 0.58862793
-0.3307382 0.4638886 -0.18942349 -0.28457516 -0.33720142 -0.3480238 0.4264211 0.15867856
0.091565765 -0.20168297 -0.37521863 1.6176703 -0.7243542 0.88539493 -0.1925664 -0.33702356
-0.86553735 1.5635507 -0.7896233 0.46687177 1.3554281 0.72371674 0.56728524 -0.5208254
0.70750093 -0.6779198 0.2638043 1.1648879 0.5786303 0.18238991 0.21573377 0.36129078
0.86975914 -0.18811508 0.7383549 -1.0167985 -0.17819092 1.028815 -0.15960504 0.23508032
-1.1727623 -0.39567807 -0.050849456 0.4303799 0.45018455 1.8456302 -0.935975 0.43080974
0.15453996 -0.5787287 0.2982748 -0.06968338 -1.0406979 -0.13989785 0.514577 -1.0487665
-0.05752024 0.6099258 0.7377549 -0.81284684 0.2737066 -0.5691285 -0.1488279 -0.5545103
0.07197216 1.5098393 -0.16458316 -0.5012692 0.98850894 -0.28786522 -0.44401288 0.89738524
1.0169759 -0.589154 -0.12830535 -1.4783016 -0.065050445 -0.2670333 0.77877706 -0.8874981
0.25482878 1.5560228 0.14239201 0.01986808 0.19275424 -0.7675533 0.6054147 0.8670847
0.5909238 -0.2681626 -0.20768473 -0.040274844 -0.47071785 -0.5034474 -0.37767583 0.7212066
0.08280235 0.9294375 0.6117738 -0.12240134 -0.034003884 1.4769847 -0.9393994 0.12750325
1.4893508 -0.5557441 1.8591154 0.19803846 0.03589453 -0.040682837 -0.268099 0.73195815
-0.25778362 0.30289835 -0.12064765 0.18945108 -1.7405546 -0.64014035 0.2164281 -0.020873638
-0.366777 -0.32642564 0.37176684 0.05123203 -0.26638752 -0.5241623 -0.058026426 -1.137484
0.50499505 0.88859206 -0.4470033 0.96114624 0.61466223 -0.75130165 -0.55067116 -1.1290607
-0.04126427 0.6171534 -0.9628419 1.1855017 -0.107930616 -0.47745582 -0.8689964 0.36674157
-0.22317423 0.94073826 0.23594685 0.15111366 0.03621108 -1.115824 0.13632087 -0.8429372
-0.3667634 -0.399837 1.0409967 -0.23386554 -0.4561146 -1.3251749 -0.47135082 -0.39611623
0.18872005 0.45416522 -0.99555933 -1.007026 -0.42505503 -0.13066709 0.28167495 0.5274886
1.4502771 -0.35502857 1.0524951 -0.86661536 1.1107496 -0.84656423 -0.47292984 -0.006806178
-0.06515699 -0.35493997 0.41525453 0.8769803 1.0974387 0.3345378 0.19530274 -1.1235973
-1.0332446 -0.50030977 0.8908879 -0.4316886 1.2014384 -0.5318084 1.0209527 0.9100098
-0.87647295 0.65472496 -0.36786506 -0.5552978 0.94156563 -0.58068174 0.34059992 -0.5617377
0.2098865 0.77475065 -1.0875309 0.4301123 -0.15776013 0.7449068 -0.19238602 -0.300403
00000000: 0f55 9ebd e122 3fbf 0f09 e83d 6e83 243e
00000010: ecb2 3e3f 3f7e f1be 6481 82bd b9f7 303f
00000020: e8c8 14bf c693 7a3e 888e 83be 48b1 c0bf
00000030: 46b3 adbf 7e3a d1be f4a4 9d3d 5133 98be
00000040: 2752 263e 7bf6 5abe e3af 34bf 7c2c 1f3f
00000050: 9e56 233d 93f8 3f3f e234 4cbe 2101 5e3d
00000060: 614c 383d d64b 0a3f 9b7b a23f 5569 2cbf
00000070: 34d8 703f 69c1 3cbe 5d3a e6bb 96c0 8c3e
00000080: 2131 7e3f 2294 353f b1ca c0be 82d2 e9be
00000090: 7ede 343f e5f2 1f3f dc97 a5be 2630 3abe
000000a0: 479a fdbe be18 3fbf c91d 0b3f a71c f73e
000000b0: 3e93 033d 09d3 3e3f b863 1b3f 52b0 163f
000000c0: 8456 a9be ce82 ed3e 3bf8 41be d6b3 91be
000000d0: aaa5 acbe 2d30 b2be de53 da3e a27c 223e
000000e0: d586 bb3d fb85 4ebe a81c c0be d20f cf3f
000000f0: 476f 39bf 3ea9 623f 2030 45be 5a8e acbe
00000100: db93 5dbf 6e22 c83f c124 4abf d109 ef3e
00000110: ab7e ad3f 8045 393f 9b39 113f d054 05bf
00000120: c81e 353f 278c 2dbf 5b11 873e 0c1b 953f
00000130: 1e21 143f 6cc4 3a3e 50e9 5c3e 1bfb b83e
00000140: 89a8 5e3f 3da1 40be d404 3d3f 7426 82bf
00000150: ae77 36be 36b0 833f 816f 23be e5b8 703e
00000160: 131d 96bf 5196 cabe 8547 50bd c15a dc3e
00000170: 977e e63e 9c3d ec3f 0f9c 6fbf 1893 dc3e
00000180: b93f 1e3e 9027 14bf 79b7 983e 29b6 8ebd
00000190: 9735 85bf 6241 0fbe 51bb 033f fb3d 86bf
000001a0: 589a 6bbd 1924 1c3f 81dd 3c3f bb16 50bf
000001b0: 4523 8c3e 68b2 11bf 5766 18be 63f4 0dbf
000001c0: 2466 933d 6a42 c13f 7d88 28be 2e53 00bf
000001d0: ec0e 7d3f 1263 93be a855 e3be 0abb 653f
000001e0: 442c 823f ccd2 16bf 7a62 03be fd38 bdbf
000001f0: 2b39 85bd 97b8 88be ef5d 473f 1333 63bf
00000200: eb78 823e c12b c73f 36cf 113e 62c2 a23c
00000210: 5e61 453e 607e 44bf 75fc 1a3f 43f9 5d3f
00000220: c846 173f 9c4c 89be 4eab 54be 3cf7 24bd
00000230: ee01 f1be eee1 00bf ba5e c1be ffa0 383f
00000240: 4794 a93d 9eef 6d3f 359d 1c3f 8ead fabd
00000250: a847 0bbd d60d bd3f 7b7c 70bf 3690 023e
00000260: 0ca3 be3f 3f45 0ebf 7ef7 ed3f 98ca 4a3e
00000270: 2506 133d 0ca3 26bd 4644 89be 9c61 3b3f
00000280: 37fc 83be 7e15 9b3e 1d16 f7bd 77ff 413e
00000290: 7eca debf 3de0 23bf 549f 5d3e 31ff aabc
000002a0: 32ca bbbe 4321 a7be 3958 be3e add8 513d
000002b0: f263 88be 802f 06bf 1ead 6dbd 1399 91bf
000002c0: 5b47 013f c57a 633f 9edd e4be ae0d 763f
000002d0: 815a 1d3f 4e55 40bf c9f8 0cbf 1085 90bf
000002e0: b904 29bd c4fd 1d3f cf7c 76bf 85be 973f
000002f0: ba0a ddbd 1775 f4be 8c76 5ebf 8dc5 bb3e
00000300: c987 64be 39d4 703f 0d9c 713e 8abd 1a3e
00000310: 1252 143d 52d3 8ebf b397 0b3e bbca 57bf
00000320: 6ac8 bbbe 6fb7 ccbe 613f 853f 737a 6fbe
00000330: da87 e9be 559f a9bf e554 f1be bfcf cabe
00000340: d43f 413e 5888 e83e fadc 7ebf 3ae6 80bf
00000350: d0a0 d9be 98cd 05be b337 903e 7e09 073f
00000360: aea2 b93f 4ec6 b5be 29b8 863f 81da 5dbf
00000370: 0b2d 8e3f 6fb8 58bf dc23 f2be 5c06 dfbb
00000380: 0771 85bd b1ba b5be 3e9c d43e c881 603f
00000390: df78 8c3f 8a48 ab3e 71fd 473e 09d2 8fbf
000003a0: 5c41 84bf 4d14 00bf 3b11 643f 4a06 ddbe
000003b0: bcc8 993f 9824 08bf 94ae 823f 67f6 683f
000003c0: 8860 60bf 0e9c 273f cf58 bcbe ff27 0ebf
000003d0: 720a 713f 8fa7 14bf 1d63 ae3e 0bce 0fbf
000003e0: 7dec 563e 0f56 463f 3634 8bbf ae37 dc3e
000003f0: df8b 21be 36b2 3e3f d700 45be 6cce 99be

weight_hh_l0 f4 [60, 20]
0.4252166 0.49957722 -0.32983577 0.4676689 0.38173553 -0.63930106 0.6646453 -0.28481108
0.40742227 0.43046224 0.2846914 -0.0039971075 0.019788286 -0.81215566 -1.1148168 -1.2928208
-0.08334587 -0.59387827 -0.17073055 0.57862383 -0.45899528 -0.2590144 1.5228972 -0.093546756
-0.45557 0.4773539 -0.9625341 0.8314115 0.24752319 -0.58463854 -0.38856128 -0.8680564
0.5939317 0.33260685 0.2926118 1.1734413 -0.14217788 0.112015285 0.6073592 -0.10097483
-0.3568875 -0.90967673 -0.53278744 -1.3797913 0.4686266 -0.7164771 1.0054147 0.27729887
-0.06757782 -0.8714651 0.060222752 0.5392191 0.34873125 -0.7339785 -0.16794778 -0.9287065
0.74840117 -0.823171 -1.0001355 0.6712523 -0.4344458 -0.100619785 -0.49203408 1.5490096
0.06876037 -0.8084504 -0.30162373 -0.14448811 -0.75400716 0.6727524 0.0023273656 0.29598898
0.042755477 0.008888953 -0.01147681 -0.5502099 2.146382 -0.07410973 -0.60872614 1.1441962
-0.49556375 0.0554207 1.0964563 -1.0878334 -0.12791078 0.38260177 -0.4625403 -0.14167932
1.3977838 -0.5744226 0.41688 -0.318288 0.15685068 -0.38655934 0.92959106 0.5826172
-0.54222727 -1.205569 0.73638344 0.032834426 1.1006169 0.13605769 0.3197434 0.6175633
-0.32907677 1.2158697 0.12310878 0.16346352 -0.9324366 -1.2316571 0.34233657 0.19292103
0.64101833 0.03284686 0.4826618 0.3673344 0.5898016 -0.3863435 0.93552506 0.44480434
0.3708155 -0.6499824 0.58287114 0.7860508 0.38947517 0.08781392 0.09079794 0.8023489
0.41076452 -0.63796777 0.41999328 0.5986821 0.73827285 -0.63371813 1.3135226 0.28349602
-0.08787263 -0.4967409 -0.5964335 -0.029783629 -0.15303074 0.5785806 0.10343915 -0.18795708
0.3513991 0.16482688 -0.0640948 0.23892298 0.078308366 0.9936777 -1.3920708 0.09196831
-0.8925296 -0.5534217 -0.25713712 -0.24799068 -0.051758792 0.9448159 0.07587824 -0.80010647
0.3571774 -0.4769613 0.018219264 -0.66319436 -0.22425893 -0.92840964 -0.29287782 0.04345426
0.3362901 0.08735801 0.8132249 0.6533948 0.7833608 0.11772661 -0.26698416 -0.90252674
0.48683468 -1.0249977 -0.69283944 1.7316542 -0.13701966 -0.61165786 -0.47982764 -0.004794864
-0.31486395 -1.178506 -0.0965583 0.24767812 -0.05168914 0.41541523 -0.417303 -0.73595256
-0.691944 0.35627994 0.39442733 -0.19551681 -0.44069448 0.52508515 -1.2107768 -0.19858563
-1.2850386 -0.29247165 -0.65242046 -0.066715896 -0.12579212 0.011084445 -1.1374738 -0.36540875
0.27179962 -0.2740773 -1.1740432 -0.67162097 -0.42937264 -0.5225433 0.1591567 -0.6638052
1.6794487 0.4776005 -0.6957742 0.7733306 -0.24012212 0.49900755 -0.17139792 -0.82384795
0.34555754 0.102075435 0.5250201 -0.07156076 -0.28465185 -0.70507133 -0.15587972 0.30449802
-0.3155319 -0.155668 -0.47632962 -0.10877771 -0.28107178 -1.2622995 -0.08829337 -0.6018043
0.059493568 -0.13568488 0.30915126 -0.20128874 -0.33633903 0.5680833 -0.0006233165 -0.39164004
0.50363624 0.21714357 -0.025756426 -0.4821666 0.47592112 -0.55023646 0.25613287 0.017736863
00000000: fdb5 d93e 96c8 ff3e 3ce0 a8be 4c72 ef3e
00000010: d772 c33e 3ca9 23bf 3226 2a3f c2d2 91be
00000020: a799 d03e 8c65 dc3e 12c3 913e 2bfa 82bb
00000030: 0b1b a23c 6fe9 4fbf 51b2 8ebf 277b a5bf
00000040: 3db1 aabd 6808 18bf fdd3 2ebe b120 143f
00000050: 6e01 ebbe 899d 84be 4cee c23f 7195 bfbd
00000060: 7940 e9be bb67 f43e a368 76bf 62d7 543f
00000070: b876 7d3e dfaa 15bf 81f1 c6be f238 5ebf
00000080: e80b 183f 724b aa3e 37d1 953e 5333 963f
00000090: 1497 11be 4568 e53d e47b 1b3f e4cb cebd
000000a0: f5b9 b6be 93e0 68bf c264 08bf 009d b0bf
000000b0: d3ef ef3e 0b6b 37bf 6eb1 803f 1efa 8d3e
000000c0: 3d66 8abd 5618 5fbf 22ac 763d 430a 0a3f
000000d0: e78c b23e 04e6 3bbf 81fa 2bbe b6bf 6dbf
000000e0: 3897 3f3f 56bb 52bf 7104 80bf 31d7 2b3f
000000f0: ae6f debe bf11 cebd e4eb fbbe f245 c63f
00000100: 3dd2 8c3d 9bf6 4ebf 6d6e 9abe b1f4 13be
00000110: 9d06 41bf 8039 2c3f b786 183b de8b 973e
00000120: 5e20 2f3d f9a2 113c 3b09 3cbc 8eda 0cbf
00000130: 535e 0940 d8c6 97bd 7ad5 1bbf 0575 923f
00000140: 88ba fdbe d100 633d ae58 8c3f 203e 8bbf
00000150: 0bfb 02be 61e4 c33e 15d2 ecbe 6214 11be
00000160: 94ea b23f 5c0d 13bf 4c71 d53e a5f6 a2be
00000170: 779d 203e 1beb c5be aef9 6d3f 6726 153f
00000180: 68cf 0abf 1650 9abf a083 3c3f 647d 063d
00000190: 04e1 8c3f b552 0b3e 68b5 a33e a118 1e3f
000001a0: c07c a8be 9ea1 9b3f 7520 fc3d fb62 273e
000001b0: 2ab4 6ebf f1a6 9dbf bd46 af3e 178d 453e
000001c0: c719 243f 6e8a 063d 731f f73e 4113 bc3e
000001d0: 3dfd 163f d1ce c5be 927e 6f3f 65bd e33e
000001e0: 87db bd3e 3f65 26bf 0b37 153f a03a 493f
000001f0: 4a69 c73e c9d7 b33d 45f4 b93d bd66 4d3f
00000200: ba4f d23e db51 23bf 5c09 d73e 3b43 193f
00000210: 73ff 3c3f 5a3b 22bf 8221 a83f 6426 913e
00000220: 91f6 b3bd d354 febe deaf 18bf ccfc f3bc
00000230: 17b4 1cbe dc1d 143f e8d7 d33d d277 40be
00000240: 95ea b33e 61c8 283e 2244 83bd 3aa8 743e
00000250: 2360 a03d a961 7e3f 602f b2bf e259 bc3d
00000260: d27c 64bf 0bad 0dbf 7aa7 83be 45f1 7dbe
00000270: 0701 54bd 74df 713f 0d66 9b3d c7d3 4cbf
00000280: f5df b63e 4634 f4be 9140 953c 1bc7 29bf
00000290: 22a4 65be 41ac 6dbf 15f4 95be 18fd 313d
000002a0: 372e ac3e c2e8 b23d 822f 503f e244 273f
000002b0: 558a 483f a61a f13d 26b2 88be fe0b 67bf
000002c0: 6542 f93e 2033 83bf ed5d 31bf d8a6 dd3f
000002d0: e24e 0cbe 9c95 1cbf f8ab f5be 3c1e 9dbb
000002e0: d935 a1be 49d9 96bf 5cc0 c5bd 559f 7d3e
000002f0: feb7 53bd 4eb1 d43e bda8 d5be 6367 3cbf
00000300: 3e23 31bf 536a b63e 61f2 c93e 8f35 48be
00000310: b5a2 e1be fb6b 063f bcfa 9abf 085a 4bbe
00000320: 257c a4bf d8be 95be 0705 27bf 58a2 88bd
00000330: a6cf 00be 889b 353c be98 91bf db16 bbbe
00000340: 5229 8b3e dc53 8cbe 0c47 96bf 5aef 2bbf
00000350: bbd6 dbbe 66c5 05bf f9f9 223e 23ef 29bf
00000360: 2df8 d63f 0e88 f43e 421e 32bf fff8 453f
00000370: 93e2 75be eb7d ff3e f082 2fbe b3e7 52bf
00000380: ebec b03e ed0c d13d b867 063f 738e 92bd
00000390: e3bd 91be 8e7f 34bf ef9e 1fbe 2ae7 9b3e
000003a0: 668d a1be 6f67 1fbe 7ae1 f3be d9c6 debd
000003b0: a4e8 8fbe 0893 a1bf 28d3 b4bd d90f 1abf
000003c0: 87af 733d faf0 0abe 1349 9e3e a31e 4ebe
000003d0: a134 acbe e86d 113f 1066 23ba 0b85 c8be
000003e0: 4eee 003f e25a 5e3e 24ff d2bc 8ade f6be
000003f0: efab f33e 4cdc 0cbf d923 833e e64c 913c

bias_ih_l0 f4 [60]
0.12092625 -0.26439914 0.38746735 -0.3741593 0.5193311 -0.14765124 0.23930208 0.19459553
0.26323754 0.3033594 -0.37328333 0.85057014 -0.2752222 0.06337306 0.26359785 0.5476654
-0.46951297 -0.41319284 -0.13954014 0.6100814 -0.5192059 -0.18538891 -0.2521851 -1.1717516
0.46865907 0.49326152 0.0007274002 -0.2540113 -0.16722141 -0.451092 0.14280832 -0.42440596
0.1492528 -0.17571718 0.2703833 -0.34664828 -0.13513519 -0.68901575 0.526561 -0.6763292
-0.033663627 0.29446825 0.0699971 -0.2905381 -0.0990076 0.11309668 0.025980996 -0.45955434
-0.2551811 0.6697687 0.5821447 0.32451543 0.13883556 0.20300354 -0.038202908 0.080448665
0.18824896 0.6495689 0.10255527 -0.11728825
00000000: 2fa8 f73d 535f 87be 1f62 c63e cf91 bfbe
00000010: e2f2 043f e331 17be 9b0b 753e 0d44 473e
00000020: 12c7 863e ec51 9b3e fe1e bfbe f7be 593f
00000030: ede9 8cbe bcc9 813d 4cf6 863e cd33 0c3f
00000040: 0164 f0be 038e d3be 9ce3 0ebe 4b2e 1c3f
00000050: aeea 04bf 97d6 3dbe 681e 81be f5fb 95bf
00000060: 15f4 ef3e c68c fc3e 00af 3e3a c50d 82be
00000070: 173c 2bbe 88f5 e6be 583c 123e bd4b d9be
00000080: bad5 183e 34ef 33be ae6f 8a3e e27b b1be
00000090: e160 0abe 5663 30bf b4cc 063f e923 2dbf
000000a0: dfe2 09bd 8bc4 963e a45a 8f3d 69c1 94be
000000b0: 7fc4 cabd 3b9f e73d 19d6 d43c b54a ebbe
000000c0: 19a7 82be f675 2b3f 6f07 153f e326 a63e
000000d0: e92a 0e3e 29e0 4f3e a77a 1cbd 45c2 a43d
000000e0: 56c4 403e 264a 263f 7f08 d23d d234 f0bd

bias_hh_l0 f4 [60]
-0.08380802 -0.22574878 0.17932436 -0.2009641 0.2721989 0.12842669 -0.1734436 0.051282346
0.27274957 0.21571591 -0.67578065 0.5119013 -0.03408486 0.13342112 0.025343336 0.5107442
-0.48150668 -0.23994517 -0.428652 0.80005306 -0.43463013 -0.41729894 0.114329696 -1.3165957
0.09009428 0.64504445 0.26553345 -0.066798046 0.11686161 -0.6748182 0.040858936 -0.24656723
0.27741218 -0.27867275 0.2837966 -0.6092918 0.1358276 -0.63367015 0.6952474 -0.7546107
-0.48782918 0.42919582 -0.16929026 -0.40711907 -0.20630968 -0.242394 0.36109036 0.027640522
-0.095509596 0.39171022 0.422461 0.4538405 0.17011033 0.29123777 -0.25327563 0.24582915
-0.068354204 0.5319204 0.1207596 0.015176487
00000000: 8aa3 abbd b02a 67be cea0 373e 88c9 4dbe
00000010: a75d 8b3e 4982 033e 339b 31be 700d 523d
00000020: d5a5 8b3e a2e4 5c3e f6ff 2cbf f70b 033f
00000030: 919c 0bbd 8c9f 083e d49c cf3c 22c0 023f
00000040: 0b88 f6be 30b4 75be 4678 dbbe 47d0 4c3f
00000050: d787 debe 35a8 d5be b025 ea3d 3586 a8bf
00000060: 5a83 b83d a221 253f 00f4 873e 6acd 88bd
00000070: 2455 ef3d e3c0 2cbf b35b 273d 1f7c 7cbe
00000080: f808 8e3e 32ae 8ebe ca4d 913e 8cfa 1bbf
00000090: 6416 0b3e 3538 22bf bcfb 313f 2b2e 41bf
000000a0: bfc4 f9be 8ebf db3e 6d5a 2dbe e971 d0be
000000b0: d842 53be 2236 78be d6e0 b83e 606e e23c
000000c0: 899a c3bd 3e8e c83e cf4c d83e c85d e83e
000000d0: 6731 2e3e 1e1d 953e 58ad 81be a3ba 7b3e
000000e0: 4afd 8bbd ef2b 083f cf50 f73d cda6 783c

weight_ih_l1 f4 [60, 20]
0.42236504 -0.57074404 -0.2673426 0.93118554 -0.07438279 0.42476198 -0.14991558 0.018619973
0.7086892 -0.7706954 0.024359293 -0.3172943 0.3904531 0.42092663 2.10234 0.46359885
0.372346 0.11666678 0.0703334 -0.004789614 -0.14936285 0.17475788 -0.51961565 -0.7287174
0.3889828 -0.27503252 0.38344818 -0.22473934 -0.7483972 0.6617928 -0.883485 0.08629144
-0.29175875 1.3809582 -1.2305975 -0.6656584 1.264105 0.19003668 0.14513856 -0.23120679
1.0456313 0.6617979 -0.17147304 0.26407486 -0.0057374905 -0.8885305 0.31119418 -0.23226024
-0.5594016 0.67381495 1.4097319 -0.7005509 0.4401275 0.15254572 0.4127322 -0.8997147
0.7039317 -0.11516754 0.26351267 1.0659691 0.3393316 1.2549264 -0.65943545 -0.50495696
0.3173751 -0.19259731 1.0474207 0.5787268 -1.0023376 -0.15479581 0.042447604 0.65349454
-0.9174061 -0.6359736 0.09417854 0.18990375 -0.107857354 0.6241713 0.24971421 -0.6998067
0.66510016 1.2616711 0.81300586 0.13949841 -1.3398684 0.77355534 1.6989281 -0.051948674
-1.1268042 0.23871833 -0.47100726 -0.6589167 0.14822325 -0.33955377 0.3736517 0.7902031
-0.091528155 0.13359426 0.16959572 -0.5445955 -0.08745612 -0.07861383 -0.26980543 -1.3865163
0.13505587 -1.7304759 -0.38412935 -1.4256591 0.37420177 0.13493854 0.940638 0.65000707
0.7809098 0.53486943 1.5729644 -0.24388485 0.31661418 -0.34185186 0.33349898 0.11707999
0.28902966 0.8198967 0.825048 0.13174537 0.49624154 0.7391833 0.8241039 -0.9899532
0.19643965 0.7248817 -0.24986663 1.6154727 0.33996275 0.4112162 0.5074848 -0.066406
-1.465061 0.1617655 -0.38872877 0.76421803 1.3660313 0.38171017 -0.89752656 -0.071478
0.40147987 -0.31416965 0.5707168 -0.019119231 -1.365096 -0.8638846 -0.24680397 -0.14513138
-0.046469335 -0.97904634 0.7249717 0.42674357 1.2614553 1.0183002 -1.0314618 0.18499283
0.15745093 0.8743507 -0.7751083 0.98660547 -0.060307756 0.7064773 1.1461545 -0.29812557
-0.76095796 1.0854573 -0.67531663 -0.54408485 -0.02985945 0.580945 -0.59289336 0.909721
-0.57463497 1.512382 0.1832338 -0.040183973 0.90303564 -0.11640386 0.34360892 1.1145242
1.2894785 -0.930574 1.1162877 -0.36376053 0.815999 -0.370821 -1.4932466 -0.6441535
-0.48561782 0.69126844 1.0932612 0.57563156 0.5944334 0.045905728 -1.39291 1.7568192
-0.09638371 -0.18436655 0.46008506 0.06850233 0.49610257 0.5879467 0.40126356 1.0298733
0.213478 0.48862702 0.40368858 0.073777795 -0.80917895 0.28671375 -0.7404202 0.1409668
-0.69092304 0.5219922 1.6553897 0.3826058 0.7646931 0.13350818 0.9986865 -0.48617586
-0.52195626 -1.0300437 1.820323 0.43495628 0.053073388 -0.15947707 -0.69674516 -0.11509203
0.09440033 -1.3034073 0.64972234 -0.79903084 0.48826304 -0.114411645 -0.20081452 -0.8366363
0.5091718 0.62230986 -0.49159038 -0.1064455 -0.9204853 -0.003028999 -0.36067802 1.5089624
0.75296694 -0.21324797 -0.1017047 0.3225596 -0.058289487 0.1974285 -0.30768636 0.08402249
00000000: 3b40 d83e 481c 12bf 21e1 88be 2d62 6e3f
00000010: 0156 98bd 677a d93e 7883 19be ea88 983c
00000020: a86c 353f 4b4c 45bf 248d c73c 6674 a2be
00000030: 78e9 c73e b283 d73e bd8c 0640 d45c ed3e
00000040: 23a4 be3e feee ee3d f50a 903d 32f2 9cbb
00000050: 93f2 18be bbf3 323e 8805 05bf 398d 3abf
00000060: c128 c73e 10d1 8cbe 5253 c43e 1222 66be
00000070: f596 3fbf 416b 293f 132c 62bf 91b9 b03d
00000080: 6761 95be 3dc3 b03f 3884 9dbf 9768 2abf
00000090: 31ce a13f fa98 423e 349f 143e 79c1 6cbe
000000a0: 3fd7 853f 966b 293f a196 2fbe d234 873e
000000b0: 8f01 bcbb bc76 63bf d854 9f3e a1d5 6dbe
000000c0: f134 0fbf 237f 2c3f 1872 b43f 4e57 33bf
000000d0: 6458 e13e f234 1c3e a351 d33e b453 66bf
000000e0: de34 343f f6dc ebbd 22eb 863e ad71 883f
000000f0: dfbc ad3e 6ea1 a03f c3d0 28bf dc44 01bf
00000100: fd7e a23e 3b38 45be e211 863f 7127 143f
00000110: 994c 80bf cb82 1ebe 8add 2d3d 6b4b 273f
00000120: 20db 6abf 2acf 22bf aee0 c03d 2176 423e
00000130: 51e4 dcbd b1c9 1f3f 15b5 7f3e 8826 33bf
00000140: 0144 2a3f 707e a13f 2721 503f acd8 0e3e
00000150: cf80 abbf b907 463f 7a76 d93f 22c8 54bd
00000160: 1f3b 90bf 9472 743e dd27 f1be c4ae 28bf
00000170: d6c7 173e fed9 adbe 474f bf3e c04a 4a3f
00000180: 1d73 bbbd efcc 083e 80aa 2d3e 9c6a 0bbf
00000190: 321c b3bd 4a00 a1bd f023 8abe 5e79 b1bf
000001a0: 164c 0a3e 3c80 ddbf 9aac c4be ff7b b6bf
000001b0: 6097 bf3e 542d 0a3e a7cd 703f dd66 263f
000001c0: b4e9 473f 34ed 083f e656 c93f f3bc 79be
000001d0: 411b a23e 3507 afbe 61c0 aa3e a2c7 ef3d
000001e0: b2fb 933e c0e4 513f 5936 533f 42e8 063e
000001f0: 5f13 fe3e 1e3b 3d3f 79f8 523f 936d 7dbf
00000200: 7a27 493e d991 393f 0add 7fbe cfc7 ce3f
00000210: 990f ae3e ee8a d23e 86ea 013f deff 87bd
00000220: 1e87 bbbf dba5 253e 7507 c7be cba3 433f
00000230: 1dda ae3f 846f c33e 4dc4 65bf 0f63 92bd
00000240: c58e cd3e d8da a0be 7f1a 123f ef9f 9cbc
00000250: 77bb aebf 8b27 5dbf 2eba 7cbe 529d 14be
00000260: a156 3ebd c8a2 7abf bf97 393f 227e da3e
00000270: 5e77 a13f a957 823f f106 84bf c36e 3d3e
00000280: d13a 213e 73d5 5f3f 7f6d 46bf 2d92 7c3f
00000290: 4405 77bd b2db 343f 31b5 923f eaa3 98be
000002a0: 24ce 42bf 44f0 8a3f 8de1 2cbf 2549 0bbf
000002b0: ce9b f4bc d0b8 143f dcc7 17bf 7ae3 683f
000002c0: 471b 13bf bc95 c13f a4a1 3b3e f397 24bd
000002d0: 582d 673f 2665 eebd 82ed af3e bba8 8e3f
000002e0: a20d a53f 193a 6ebf 84e2 8e3f d23e babe
000002f0: 4fe5 503f 40dc bdbe b422 bfbf 3ee7 24bf
00000300: e6a2 f8be f8f6 303f fcef 8b3f 975c 133f
00000310: ca2c 183f a507 3c3d e04a b2bf 74df e03f
00000320: d364 c5bd 96ca 3cbe 4590 eb3e f34a 8c3d
00000330: 2801 fe3e ad83 163f 6b72 cd3e e3d2 833f
00000340: fa99 5a3e 522d fa3e 45b0 ce3e d018 973d
00000350: 5a26 4fbf 25cc 923e 2e8c 3dbf 9a59 103e
00000360: 55e0 30bf 48a1 053f cfe3 d33f e8e4 c33e
00000370: edc2 433f 5eb6 083e eba9 7f3f 0bec f8be
00000380: ed9e 05bf 79d8 83bf 5800 e93f 97b2 de3e
00000390: 7b63 593d f54d 23be e45d 32bf 5fb5 ebbd
000003a0: f654 c13d 0dd6 a6bf 3454 263f 498d 4cbf
000003b0: 9dfd f93e a750 eabd 52a2 4dbe cc2d 56bf
000003c0: 1559 023f b34f 1f3f bcb1 fbbe 1900 dabd
000003d0: eda4 6bbf 2c82 46bb caaa b8be ae25 c13f
000003e0: 71c2 403f ad5d 5abe 8e4a d0bd 8826 a53e
000003f0: f5c0 6ebd b22a 4a3e 1189 9dbe fc13 ac3d

weight_hh_l1 f4 [60, 20]
0.46820778 -0.84403884 0.59618485 -0.6211971 -0.2684413 -0.17293473 0.2596697 -0.15488303
-0.01928352 -0.441261 0.034441143 -0.118029445 -0.03406538 0.06314304 0.45143336 0.05951609
-0.19625299 0.39991105 0.3243667 -0.048598666 -0.11432498 0.6790776 0.33077914 0.28996664
-0.2338661 -0.33100602 0.51596427 1.5364438 0.10027035 0.85973716 0.062048316 0.47805342
0.46130037 -1.0974765 0.31294623 -0.31469768 -0.864269 0.060649782 0.412574 0.80041784
0.24471004 0.096626766 -0.17569746 0.13386595 0.5762974 0.58995456 -0.032978 0.58981484
-0.014015116 -0.40285552 -0.12506253 -0.4481478 -0.2155204 0.24873023 -0.059338454 1.1656638
-0.21772441 -0.35238463 -0.29782414 -0.0661035 1.0721394 -0.3517416 0.5944937 1.188586
0.13398597 0.11136466 0.10698822 -1.3302797 0.6144264 -0.037963625 -0.3577765 0.26861227
-1.0258371 -0.7209198 0.32286364 -0.37675887 -0.4419534 -0.7624856 0.25108784 0.5656203
1.2140529 0.7692847 0.30137482 -0.6250078 -0.46253008 -0.18926927 -1.0409464 0.10172067
0.5025894 -0.07312075 0.693086 0.1481759 1.0650107 -0.08266246 0.42074972 0.07482133
-0.064425915 1.4034966 1.1881771 1.3138847 0.08270188 0.38657725 0.35211378 0.031177815
0.46276098 -0.5436001 -0.0067417277 0.0826136 -0.27575323 -0.6213151 -0.16414742 -0.108588845
0.028512081 0.89817697 0.65713906 0.80098474 -0.4741267 -0.9398693 -0.23568146 -0.026924316
0.27050853 0.6274627 0.15326077 0.052202452 -0.060878962 -0.28636026 0.761427 -0.009022918
0.17597291 0.03816002 0.7997507 0.35673365 -1.0471207 0.59779257 -1.1303889 0.51632386
-0.7890437 -0.22571526 -0.2747298 -0.63301826 -0.1757003 0.43678576 0.82760906 -0.1259901
0.13079368 0.25145593 0.7988322 -1.7099885 0.23029767 -0.35998893 0.24276549 0.13176332
-0.3971506 -1.0330621 -0.45869932 0.73350155 0.24688815 -0.5345265 -0.4122983 -0.5771223
0.106764376 0.037390776 -0.6273171 0.026939988 -0.3822445 -0.53162855 -0.9647739 -0.49973166
0.45184878 0.06157718 1.2667402 -0.46624106 0.67924386 0.4513926 -0.08786217 -0.67108136
0.15639336 0.39660788 -0.012459027 0.43905792 -0.027674386 0.5635372 -0.022656595 -0.6784211
0.23072143 0.3559194 0.23744659 -0.26365888 -0.1053823 0.436443 -1.3311385 0.577839
0.5461525 0.19307165 -0.13881582 0.25316435 0.48512256 -0.19168721 0.18614954 -0.068471365
-0.50867254 0.40595514 -0.46611243 0.06548368 -0.37058073 0.4394638 -0.20621008 -1.329766
0.6199555 -0.13211544 0.13789777 -0.8512644 -1.0801628 -0.4061267 -0.43676627 -0.8549658
-0.6962453 0.545375 0.18100263 -0.9364766 0.88995224 -0.7568877 -0.43986934 -0.24221735
-0.21164332 -0.2652603 -0.15542081 0.052335873 1.4174933 0.21568395 0.7525412 0.078811795
0.35454473 -0.26417592 -0.6437757 0.18933146 -0.25310153 0.5170021 -0.73225266 0.21864125
0.93445134 0.58927166 -0.20510757 0.006874237 -0.87446237 0.043244243 0.48021898 -0.3882456
0.39301348 -0.26848277 -0.8036784 -0.13316415 1.7119339 0.4733158 -0.7170923 -0.61822975
00000000: eeb8 ef3e ee12 58bf 929f 183f c606 1fbf
00000010: 2371 89be cd15 31be 6df3 843e a899 1ebe
00000020: 79f8 9dbc f6ec e1be 2812 0d3d 6cb9 f1bd
00000030: 2488 0bbd 2351 813d 4622 e73e 25c7 733d
00000040: 8bf6 48be 24c1 cc3e 6413 a63e 650f 47bd
00000050: 3723 eabd 08d8 2d3f e25b a93e 8276 943e
00000060: 987a 6fbe 9f79 a9be 3c16 043f 31aa c43f
00000070: 8b5a cd3d bc17 5c3f 6026 7e3d 6bc3 f43e
00000080: 902f ec3e 1c7a 8cbf 7d3a a03e 0e20 a1be
00000090: bc40 5dbf e86b 783d e63c d33e 2fe8 4c3f
000000a0: 4595 7a3e 41e4 c53d 09ea 33be 2814 093e
000000b0: 3a88 133f 4307 173f f013 07bd 1bfe 163f
000000c0: a89f 65bc 1443 cebe 6410 00be a173 e5be
000000d0: 61b1 5cbe 23b3 7e3e e10c 73bd 7934 953f
000000e0: 26f3 5ebe c26b b4be 687c 98be 4661 87bd
000000f0: dd3b 893f 7a17 b4be bd30 183f 9623 983f
00000100: 9e33 093e 2813 e43d a41c db3d 9b46 aabf
00000110: 0c4b 1d3f bf7f 1bbd 7b2e b7be 8c87 893e
00000120: a14e 83bf 338e 38bf 624e a53e 8ae6 c0be
00000130: b747 e2be 4232 43bf 968e 803e 7ecc 103f
00000140: 1666 9b3f d8ef 443f cd4d 9a3e 8300 20bf
00000150: bed0 ecbe cecf 41be bb3d 85bf ed52 d03d
00000160: b3a9 003f 55c0 95bd 166e 313f 6cbb 173e
00000170: 4552 883f f04a a9bd 826c d73e ed3b 993d
00000180: bcf1 83bd c7a5 b33f 3016 983f 602d a83f
00000190: 9a5f a93d 74ed c53e 4248 b43e 9e68 ff3c
000001a0: 02ef ec3e 6029 0bbf b6e9 dcbb 5231 a93d
000001b0: 872f 8dbe 820e 1fbf 4316 28be d463 debd
000001c0: 2b92 e93c edee 653f 443a 283f 560d 4d3f
000001d0: bcc0 f2be 469b 70bf 7b56 71be 6290 dcbc
000001e0: 1880 8a3e 65a1 203f 64f0 1c3e 3dd2 553d
000001f0: 385c 79bd d09d 92be e1ec 423f dcd4 13bc
00000200: 3e32 343e ae4d 1c3d 76bc 4c3f cba5 b63e
00000210: 0d08 86bf ef08 193f 95b0 90bf cd2d 043f
00000220: c5fe 49bf e721 67be 62a9 8cbe 7c0d 22bf
00000230: c8ea 33be 62a2 df3e 30de 533f 8c03 01be
00000240: c7ee 053e d5be 803e 4480 4c3f e7e0 dabf
00000250: 27d3 6b3e 7850 b8be 8497 783e f7ec 063e
00000260: 5357 cbbe 613b 84bf a3da eabe c2c6 3b3f
00000270: 3fd0 7c3e bbd6 08bf c318 d3be 49be 13bf
00000280: 48a7 da3d 1227 193d da97 20bf 40b1 dc3c
00000290: 8db5 c3be cf18 08bf 6cfb 76bf d4dc ffbe
000002a0: b958 e73e 5a38 7c3d 8b24 a23f 26b7 eebe
000002b0: ede2 2d3f ee1c e73e 15f1 b3bd fdcb 2bbf
000002c0: 9525 203e 3010 cb3e f220 4cbc 33cc e03e
000002d0: 65b5 e2bc f943 103f 539a b9bc 01ad 2dbf
000002e0: 3d42 6c3e 113b b63e 3325 733e 4cfe 86be
000002f0: add2 d7bd 7575 df3e bf62 aabf 42ed 133f
00000300: a6d0 0b3f 93b4 453e bc25 0ebe c29e 813e
00000310: fc61 f83e a749 44be fc9d 3e3e b73a 8cbd
00000320: 5d38 02bf 5ad9 cf3e 4aa6 eebe 4f1c 863d
00000330: c2bc bdbe 6601 e13e bc28 53be c635 aabf
00000340: 67b5 1e3f 4549 07be 1335 0d3e 77ec 59bf
00000350: c642 8abf d7ef cfbe d49f dfbe 0adf 5abf
00000360: 223d 32bf b29d 0b3f c158 393e eebc 6fbf
00000370: e9d3 633f 64c3 41bf 8e36 e1be d307 78be
00000380: 07b9 58be 33d0 87be a226 1fbe 245e 563d
00000390: 6c70 b53f 41dc 5c3e 8aa6 403f 1468 a13d
000003a0: e386 b53e 1142 87be 7cce 24bf 1be0 413e
000003b0: 8696 81be 405a 043f e974 3bbf 7ee3 5f3e
000003c0: 3438 6f3f 82da 163f b807 52be 4841 e13b
000003d0: c4dc 5fbf e020 313d 43df f53e 21c8 c6be
000003e0: 1039 c93e 9376 89be debd 4dbf 2f5c 08be
000003f0: a620 db3f 7356 f23e 5c93 37bf 4e44 1ebf

bias_ih_l1 f4 [60]
-0.30636898 0.09427857 -0.011137032 0.38335866 0.54818696 0.20895183 0.54345816 0.0039199125
0.496762 -0.3472305 0.56538975 -0.19309384 -0.21067536 0.26289108 -0.17328721 -0.5499765
0.6359159 0.7991862 0.488587 -0.15780987 0.05690352 -0.4119736 0.35686138 -0.58895576
-0.7860437 -1.170653 -0.02186421 -0.27352446 0.3199523 -0.59403294 -0.5332865 -0.28776452
0.18103032 -0.17554238 -0.7167855 -0.78972864 -0.9744003 -1.3783535 -0.62335 -1.5367951
-0.04075175 0.7881938 0.40580615 0.89989424 -0.09982522 -0.97339386 -0.63918155 -0.027455674
0.567169 -0.048737545 0.7347224 0.04779715 -0.31726274 0.5486015 -0.40397993 -0.17912097
0.14248255 0.09595935 0.6657985 -0.011706719
00000000: 65dc 9cbe 1f15 c13d 1978 36bc 9647 c43e
00000010: fb55 0c3f 78f7 553e 1320 0b3f 9c72 803b
00000020: 9757 fe3e 32c8 b1be 62bd 103f 64ba 45be
00000030: 48bb 57be a999 863e 3472 31be 43cb 0cbf
00000040: 62cb 223f 7897 4c3f 1328 fa3e e998 21be
00000050: aa13 693d 34ee d2be 89b6 b63e cec5 16bf
00000060: 293a 49bf f5d7 95bf 921c b3bc 660b 8cbe
00000070: cad0 a33e 8b12 18bf 7785 08bf df55 93be
00000080: 0360 393e 62c1 33be 417f 37bf a82b 4abf
00000090: 4c72 79bf e36d b0bf de93 1fbf b4b5 c4bf
000000a0: 4feb 26bd 12c7 493f d3c5 cf3e 785f 663f
000000b0: 2a71 ccbd 5730 79bf 67a1 23bf b9ea e0bc
000000c0: fd31 113f 05a1 47bd c416 3c3f f2c6 433d
000000d0: 4370 a2be 2671 0c3f 75d6 cebe 7d6b 37be
000000e0: f2e6 113e 5686 c43d c571 2a3f 8acd 3fbc

bias_hh_l1 f4 [60]
-0.28844887 -0.017314617 0.24230269 0.12566024 0.595139 0.14025407 0.5601661 -0.002205264
0.8130724 -0.32747245 0.5133692 0.01923985 -0.10876457 0.21557474 -0.09535542 -0.4764934
0.53063077 0.6621938 0.16947703 0.14778362 0.09481605 -0.20433351 0.017066866 -0.66275483
-0.9165272 -1.2547476 0.2754611 -0.13540019 0.1795593 -0.6823165 -0.7322891 -0.31853
0.0010106876 -0.48815542 -0.50037897 -1.0262216 -0.9120904 -1.0815482 -0.4050333 -1.5320628
-0.023016946 0.53353924 -0.11274988 0.8614297 -0.16375968 0.068640366 -0.67682225 -0.10677414
0.42871028 -0.2019277 0.089001365 0.110976785 0.023757782 0.6810692 0.26587713 0.23694475
-0.29299942 -0.24435465 -0.0007512026 -0.38652414
00000000: 92af 93be 62d7 8dbc 321e 783e 14ad 003e
00000010: 085b 183f c39e 0f3e 0c67 0f3f 3186 10bb
00000020: 8325 503f 78aa a7be 2a6c 033f e49c 9d3c
00000030: f5bf debd a0bf 5c3e b449 c3bd f1f6 f3be
00000040: 6bd7 073f 8885 293f 638b 2d3e 9754 173e
00000050: eb2e c23d ce3c 51be d0cf 8b3c 4daa 29bf
00000060: 87a1 6abf 929b a0bf 3d09 8d3e 59a6 0abe
00000070: 65de 373e 4bac 2ebf 4c77 3bbf 5d16 a3be
00000080: 0c79 843a 82ef f9be d618 00bf 3b5b 83bf
00000090: c27e 69bf 2c70 8abf 8660 cfbe a21a c4bf
000000a0: 098e bcbc 0796 083f 69e9 e6bd a886 5c3f
000000b0: 9eb0 27be 5293 8c3d 3944 2dbf 66ac dabd
000000c0: ea7f db3e 23c6 4ebe 5946 b63d cc47 e33d
000000d0: ae9f c23c 8d5a 2e3f 0c21 883e a5a1 723e
000000e0: 0504 96be 1b38 7abe 5aec 44ba 7ee6 c5be

weight_ih_l0 f4 [60, 20]
-0.42158356 0.095605314 0.19401622 0.07559442 0.3545137 0.06905208 0.10914115 -0.032315586
-0.60932636 -0.08526816 -0.05181571 0.48482698 0.034409557 0.53328377 0.0734067 0.52064556
-0.27336523 -0.0011825477 -0.06717105 -0.08926284 -0.27549097 -0.4821071 -0.17335437 0.4565134
0.46737948 -0.15862896 -0.23806368 -0.36358407 -0.19002475 -0.0012169125 0.027606498 0.1435757
-0.4717127 -0.25822905 -0.2419538 -0.72529715 -0.14960545 -0.61015236 -0.42165023 -0.29261178
-0.36616704 0.08870356 0.20250677 -0.0018892168 0.14379787 -0.30214712 0.19135724 0.05165601
-0.08262739 0.022479648 0.20338283 0.1392169 -0.096144125 -0.05330189 -0.0039880453 -0.014101922
0.13868421 -0.4566987 -0.24164993 0.10473559 -1.003913 0.05752333 0.2480242 0.25055727
0.104407206 -0.49964485 -0.21252139 -0.1023874 -0.10727861 -0.022885334 -0.2956513 0.21225779
-0.07645484 0.4093626 -0.1264158 0.6962189 -0.32072183 -0.75765496 -0.09703654 -0.5439252
-0.035850693 0.6685249 0.22880913 0.3405019 0.5758635 -0.34528446 -0.34558228 -0.24520276
-0.58334 -0.20871796 -0.21329337 0.11787938 0.4156946 0.3109919 -0.6250374 0.5660581
0.5717225 -0.22599928 -0.25958762 0.37995976 0.042955667 -0.20747189 0.9887207 -0.030590033
0.16497098 0.33317184 -0.21557847 0.46223488 0.07656976 -0.10907714 0.41042522 -0.5268704
0.38908508 0.26645172 0.11746668 -0.035237573 -0.4102622 0.03297696 0.07263505 0.1140944
0.059210677 0.29422596 -0.61392146 -0.25942597 -0.06497994 0.3079644 0.47945902 0.4704832
-0.06907468 -0.41029775 0.4107822 0.028769013 0.2617505 0.4193671 0.08000623 -0.93608516
-0.5387356 -0.3442478 0.30913135 -0.3661844 -0.70100677 0.5046528 -0.44298834 0.03430521
0.0071824123 0.06593335 0.53869396 -0.65429133 -0.07462497 -0.5238548 0.2656104 0.38065097
-0.44386172 0.50290287 -0.15158527 0.096270226 0.14239897 -0.14975677 -0.20145018 0.21709841
-0.33219954 -0.10345638 -0.2518397 0.7102708 0.47528946 0.66249496 -0.1405236 0.7474898
-0.15278253 0.50995576 0.007635209 1.2738718 0.53343487 0.35855284 0.39835748 0.29513255
-0.87853336 0.15071188 -0.061072584 0.3696111 -0.76482403 0.16007173 -0.044594426 0.3642132
-0.06938469 -0.02272563 0.17825276 -0.4153732 -0.6215217 -0.24074045 0.3386243 0.40801942
0.2880326 0.6069622 0.32983065 0.12551838 0.10961243 -0.32987484 0.114152245 0.018539395
-0.22494154 0.19909346 0.31948128 0.35954756 0.018764444 -0.106353275 0.026804067 -0.31167468
-0.46863577 -0.25816646 0.1943974 0.22382884 0.033990912 0.3700181 0.29785076 0.1777141
0.0011332514 -0.018291533 -0.15382828 0.55997753 0.5055433 -0.052268747 -0.3287178 -0.5283922
0.46330804 0.45859456 -0.75069565 -0.53189856 -0.37065437 -0.7437592 -0.6310656 0.63068676
0.3621399 0.272284 -0.12972604 0.24858493 1.160253 0.39959407 -0.34873682 -0.83183444
-0.42368785 1.2679597 -1.5510472 0.30596933 -0.08224153 1.2981554 0.389968 -1.1304958
-0.3003266 0.22959024 0.68380946 -0.1291975 0.4323573 -0.2293463 0.08313545 0.96644187
00000000: cdd9 d7be b8cc c33d 30ac 463e 3fd1 9a3d
00000010: d282 b53e 2d6b 8d3d 6585 df3d 595d 04bd
00000020: d0fc 1bbf 13a1 aebd b63c 54bd 3e3b f83e
00000030: 09f1 0c3d 4985 083f 4056 963d 0749 053f
00000040: 87f6 8bbe b7ff 9aba fa90 89bd 70cf b6bd
00000050: 270d 8dbe bed6 f6be cf83 31be 20bc e93e
00000060: 5d4c ef3e a16f 22be f7c6 73be b127 babe
00000070: d995 42be cf80 9fba 0627 e23c 8205 133e
00000080: 5484 f1be 9936 84be bdc2 77be 13ad 39bf
00000090: 2c32 19be f232 1cbf 8ae2 d7be 36d1 95be
000000a0: 3f7a bbbe 36aa b53d ef5d 4f3e 999f f7ba
000000b0: c03f 133e 07b3 9abe 27f3 433e 4195 533d
000000c0: 8d38 a9bd 3d27 b83c 9743 503e e08e 0e3e
000000d0: 36e7 c4bd 1553 5abd 26ae 82bb bf0b 67bc
000000e0: 3c03 0e3e 69d4 e9be 1473 77be 9d7f d63d
000000f0: 3980 80bf 959d 6b3d 0efa 7d3e 0b49 803e
00000100: 72d3 d53d 73d1 ffbe 359f 59be 7cb0 d1bd
00000110: e3b4 dbbd 067a bbbc 9b5f 97be 1b5a 593e
00000120: 5b94 9cbd fa97 d13e 2573 01be 673b 323f
00000130: a735 a4be adf5 41bf 18bb c6bd af3e 0bbf
00000140: 2dd8 12bd 7324 2b3f f14c 6a3e 4456 ae3e
00000150: ca6b 133f 20c9 b0be 29f0 b0be 6f16 7bbe
00000160: c555 15bf 29ba 55be 9469 5abe bf6a f13d
00000170: ecd5 d43e 553a 9f3e 7302 20bf 2fe9 103f
00000180: 685c 123f 5b6c 67be abe8 84be 168a c23e
00000190: 48f2 2f3d 8373 54be cd1c 7d3f f397 fabc
000001a0: 27ee 283e 8095 aa3e 9ac0 5cbe 0daa ec3e
000001b0: 9bd0 9c3d d663 dfbd 4123 d23e fbe0 06bf
000001c0: 2936 c73e 5c6c 883e 5f92 f03d 4655 10bd
000001d0: e30d d2be d912 073d afc1 943d 53aa e93d
000001e0: e586 723d c9a4 963e f529 1dbf 7bd3 84be
000001f0: 3414 85bd 83ad 9d3e a77b f53e 2de3 f03e
00000200: 0777 8dbd 8c12 d2be 0b52 d23e feac eb3c
00000210: 2904 863e 49b7 d63e 4eda a33d 47a3 6fbf
00000220: 94ea 09bf 3f41 b0be 7746 9e3e 867c bbbe
00000230: 2e75 33bf ed30 013f 5ecf e2be 9f83 0c3d
00000240: 715a eb3b 1008 873d d9e7 093f a37f 27bf
00000250: fad4 98bd 591b 06bf 16fe 873e afe4 c23e
00000260: d841 e3be 3ebe 003f 2b39 1bbe 5329 c53d
00000270: 09d1 113e d759 19be f548 4ebe 0c4f 5e3e
00000280: 0f16 aabe f0e0 d3bd 22f1 80be 4fd4 353f
00000290: 2459 f33e 4599 293f 6be5 0fbe 7e5b 3f3f
000002a0: 0673 1cbe 768c 023f c630 fa3b 3b0e a33f
000002b0: 308f 083f 3d94 b73e 83f5 cb3e 9d1b 973e
000002c0: 90e7 60bf 3754 1a3e 3f27 7abd ab3d bd3e
000002d0: 82cb 43bf d8e9 233e a5a8 36bd 277a ba3e
000002e0: 8f19 8ebd 1a2b babc e487 363e ccab d4be
000002f0: 0c1c 1fbf aa84 76be 2a60 ad3e ece7 d03e
00000300: 0279 933e e061 1b3f 90df a83e e487 003e
00000310: 7b7c e03d 5be5 a8be a7c8 e93d eedf 973c
00000320: 1357 66be 28df 4b3e 0d93 a33e 9e16 b83e
00000330: e4b7 993c bfcf d9bd 3494 db3c d393 9fbe
00000340: 07f1 efbe 652e 84be 1d10 473e 6333 653e
00000350: 0e3a 0b3d 0373 bd3e e57f 983e affa 353e
00000360: 9b89 943a 20d8 95bc 2985 1dbe b05a 0f3f
00000370: 496b 013f c117 56bd b34d a8be b644 07bf
00000380: b636 ed3e e8cc ea3e 972d 40bf 812a 08bf
00000390: 69c6 bdbe 0167 3ebf 848d 21bf b074 213f
000003a0: 676a b93e cf68 8b3e e7d6 04be 0c8d 7e3e
000003b0: 2c83 943f 9897 cc3e a28d b2be 1af3 54bf
000003c0: 9ded d8be 814c a23f b788 c6bf 03a8 9c3e
000003d0: 3f6e a8bd f529 a63f e3a9 c73e 16b4 90bf
000003e0: 68c4 99be b419 6b3e 230e 2f3f 594c 04be
000003f0: f05d dd3e c2d9 6abe eb42 aa3d bc68 773f
