course3-rnns/problematique/model.pt (torch, 78846 bytes, 23 tensors)

weight f4 [29, 25]
0	0xbe1fb9fb	-0.1559829
1	0xbee4505c	-0.4459256
2	0x3f2df2b7	0.6794848
3	0x3d0e270f	0.034705218
4	0x3f483e65	0.78220206
5	0xbd886c62	-0.066612974
6	0xbd5e4084	-0.054260746
7	0xbf0a80e6	-0.54102933
8	0xbfad95ad	-1.3561302
9	0x3d8e3985	0.06944565
10	0x3c2fdd08	0.01073385
11	0xbd2ca368	-0.042148024
12	0x3df53127	0.11972266
13	0x3ea0d732	0.3141418
14	0xbf044428	-0.516665
15	0xbdb391c8	-0.0876804
16	0x3de81e46	0.11333899
17	0x3f62ef2b	0.8864619
18	0x3eded8c2	0.43524748
19	0xbf3ea4f8	-0.7447047
20	0xbd19a81b	-0.037513833
21	0x3fa6c4d3	1.3028816
22	0x3d4ef832	0.050529666
23	0xbe92e3c1	-0.28689387
24	0x3eeb17fa	0.4591673
25	0xbf1bc7ed	-0.6085194
26	0x402c4f6f	2.6923482
27	0x3f685267	0.90750736
28	0xbe358758	-0.17727411
29	0x3e8ab5b3	0.2709175
30	0xbe419536	-0.18904576
31	0x3f5909c3	0.8478052
32	0xbf86005b	-1.0468858
33	0xc00617f2	-2.0952115
34	0xbf38785a	-0.7205864
35	0xbe8108ab	-0.25201926
36	0x3e86fad5	0.26363245
37	0x3f6dc8e4	0.9288466
38	0xbff8d168	-1.9438906
39	0x3ea5dfef	0.3239741
40	0xbf906b3d	-1.1282727
41	0xbfdf2087	-1.7431802
42	0xbff66172	-1.9248488
43	0x3f5bd58a	0.8587271
44	0x3e96c036	0.2944352
45	0xbedd3e31	-0.4321151
46	0x3e69ee90	0.2284491
47	0x4015aeba	2.3387895
48	0x3e931554	0.2872721
49	0x3f8d99dd	1.106258
50	0x3efb4b8c	0.49081075
51	0x3fe77678	1.8083029
52	0x3f2f3ce6	0.684523
53	0xbd92ff35	-0.07177583
54	0x3dfed073	0.12442102
55	0x3f7788e1	0.96693236
56	0xbf3bee75	-0.7341073
57	0xbf42f2e2	-0.7615186
58	0xbffbda16	-1.967593
59	0x3f852cba	1.0404274
60	0xc01f71b5	-2.4913151
61	0xc00193c1	-2.0246432
62	0x3fd12b0f	1.6341265
63	0xbfaccd25	-1.3500105
64	0xbee7ae82	-0.45250326
65	0x3f1f2b42	0.6217538
66	0x3f11835a	0.5684105
67	0x3f1b95e0	0.60775566
68	0x40589ab3	3.384442
69	0xbffc5e55	-1.9716288
70	0xbe864dfc	-0.26231372
71	0xbf949a22	-1.1609538
72	0xbef30040	-0.47461128
73	0xbf2cbe0e	-0.674775
74	0x3effe8a0	0.49982166
75	0xbf4baab3	-0.7955734
76	0xbf769f69	-0.9633699
77	0x3d1be3ad	0.038058925
78	0x3f089497	0.5335173
79	0xbebeb62e	-0.37248367
80	0xbf959534	-1.1686158
81	0xbcf35979	-0.02970575
82	0xbedeed36	-0.43540353
83	0x3f45b7ff	0.7723388
84	0xbed80bf0	-0.42196608
85	0x3f84989d	1.0359074
86	0xbf086f96	-0.53295267
87	0xbecde761	-0.4021559
88	0x3f0a9091	0.5412684
89	0x40236402	2.552979
90	0xc038a24d	-2.884906
91	0x3f11c04b	0.5693404
92	0xbfad14f0	-1.3522015
93	0x3f3b5551	0.7317706
94	0xbfa514aa	-1.2896931
95	0x3f21494b	0.6300246
96	0xbf8de1e6	-1.1084564
97	0x3f6bd5b5	0.92122966
98	0xbf9412c8	-1.1568232
99	0x3f29c9e1	0.6632367
100	0x3e2d55dd	0.16927285
101	0x3f14d280	0.581337
102	0xbe1ce56b	-0.15321891
103	0x3fa0ad92	1.255297
104	0x3fa3367f	1.2751006
105	0x3f8fcec9	1.1234981
106	0xbf8f1be3	-1.1180385
107	0x3e97973a	0.29607564
108	0x3e087e97	0.1332954
109	0xbf0e53ca	-0.555966
110	0xc00885dc	-2.1331701
111	0x3d179651	0.037008587
112	0x3eaf3779	0.3422201
113	0xbf8d2b9b	-1.1028932
114	0xbfafc0d7	-1.3730725
115	0x3f453daa	0.77047217
116	0x3fac1ada	1.3445694
117	0x3f14e220	0.5815754
118	0x3f997814	1.198977
119	0x3f6b2f82	0.91869366
120	0x3efb1da7	0.4904606
121	0xbed7298c	-0.42023885
122	0x3f37fe42	0.7187234
123	0x3f527522	0.8220998
124	0xbe50fb42	-0.20408347
125	0x3fb857ae	1.4401758
126	0x3f165739	0.5872684
127	0x3f1d57be	0.6146201
128	0xbf912139	-1.1338264
129	0x3f4a72ba	0.7908131
130	0xbf5f6f3c	-0.87279105
131	0x4017a6b0	2.3695488
132	0xc00e81c5	-2.2266705
133	0x3ee1c1b6	0.44093102
134	0x3f90eea3	1.1322826
135	0x3d8d85c5	0.0691028
136	0x3ed77498	0.4208114
137	0x3e9ba395	0.3039824
138	0xbf2284be	-0.634838
139	0xbf1e0238	-0.61722136
140	0x3e7c5536	0.2464188
141	0xbf934a37	-1.1507024
142	0x3efec2d7	0.49758026
143	0x3f09409c	0.5361421
144	0x40302b64	2.7526484
145	0x3e85372a	0.2601865
146	0x3f6d2f93	0.9265072
147	0xbf7592bb	-0.9592702
148	0x3e554b81	0.20829584
149	0xbea89133	-0.32923278
150	0x3ef9d4dd	0.48795214
151	0x3ebf0f57	0.3731639
152	0x3ff22884	1.8918614
153	0x3b353f22	0.0027656038
154	0xbef2906a	-0.47375804
155	0xbe90d833	-0.28289947
156	0x3ea9356f	0.3304858
157	0xbe16d2a4	-0.1472879
158	0x401abc4b	2.4177425
159	0x3eeb314e	0.45936054
160	0xbebf61b8	-0.3737924
161	0xbee3e561	-0.4451094
162	0x3f5a797f	0.8534164
163	0x3d345c8b	0.04403357
164	0x3e86a057	0.26294205
165	0xbea5459e	-0.32279676
166	0xbedf6283	-0.43629846
167	0x3f298b31	0.66228014
168	0x3f2f42d9	0.68461376
169	0xbf0f85cd	-0.5606354
170	0x3f03b567	0.51448673
171	0x3f45a3db	0.7720315
172	0x3f6757be	0.9036826
173	0xbf559f5e	-0.834463
174	0x3f5c84c2	0.8614007
175	0x3e528b67	0.2056099
176	0xbf998832	-1.1994689
177	0x3f171fd1	0.59032923
178	0x3ec696d3	0.38786945
179	0xbec2e9f5	-0.3806912
180	0xbf072c55	-0.5280202
181	0x3f02f983	0.51161975
182	0xbf55cb66	-0.83513486
183	0x3fb9c6c7	1.4513787
184	0x3f612f60	0.87962914
185	0x3f7d0487	0.98835033
186	0xbe816195	-0.25269762
187	0x3e1838a3	0.14865355
188	0x4008468c	2.1293058
189	0xbf77849d	-0.96686727
190	0x3e8e5c62	0.27804857
191	0x3edd421c	0.432145
192	0xbf19ca96	-0.60074747
193	0x405b571d	3.427192
194	0x40008eff	2.0087278
195	0x3d551c62	0.05202902
196	0x3c93a30c	0.018022083
197	0xbf99bc19	-1.2010528
198	0x3e2a4fbf	0.16631983
199	0x3e12a74b	0.1432163
200	0xbf911c23	-1.1336712
201	0xbf980a32	-1.1878111
202	0xbf4d6a85	-0.8024066
203	0x3fc496e6	1.535855
204	0xbfe4fa15	-1.7888819
205	0x3e045078	0.12921321
206	0x3fdbd414	1.7174096
207	0x3e896bb5	0.26839986
208	0x3d05280d	0.0325089
209	0x3feda237	1.8565129
210	0x3ea066a2	0.31328303
211	0xbfed1cb7	-1.8524388
212	0x3f264f49	0.6496473
213	0xbe15659f	-0.14589547
214	0xbecd45b6	-0.40092248
215	0x3e1a28b3	0.15054588
216	0x3f0e1ba1	0.5551091
217	0x3f7591e3	0.9592573
218	0x3e8e2ed3	0.277701
219	0x3f99dd94	1.2020745
220	0xbf6e80fb	-0.9316556
221	0x3f7b7e82	0.9823991
222	0xbf2b34ab	-0.6687724
223	0xbfabe87b	-1.3430322
224	0xbf9d1c1c	-1.2274203
225	0xbc1a6141	-0.009422601
226	0x3fb5884a	1.4182217
227	0x3efc600b	0.49292025
228	0xbdb1ffc9	-0.08691365
229	0x401270a8	2.288126
230	0x3ece70da	0.40320474
231	0xbf0a8056	-0.54102075
232	0x3e1ffff2	0.15624979
233	0x3e748ebe	0.23882577
234	0x4006fd16	2.1091971
235	0xbf2b949a	-0.67023623
236	0x3fbfbdd2	1.4979804
237	0x3fe078dc	1.7536883
238	0xbff99091	-1.9497243
239	0xbfc3a4e3	-1.5284694
240	0xbf6cdf3a	-0.92528117
241	0xbf17b89d	-0.5926607
242	0x3fadd505	1.3580633
243	0x3f1482af	0.5801191
244	0x3edfa335	0.43679205
245	0xbff31ca0	-1.8993111
246	0x3f4e7f39	0.80662876
247	0x4043c208	3.0587177
248	0xbf6fb01f	-0.93628114
249	0x4021ad09	2.5261862
250	0xbf011218	-0.50418234
251	0x3eccb00c	0.39978063
252	0x3fae55c8	1.3619928
253	0x3ee80af1	0.45320848
254	0x3f034434	0.51275945
255	0xbf9fc302	-1.2481387

weight_ih_l0 f4 [75, 2]
0	0xbe5a34d3	-0.21309213
1	0xbcb6ef23	-0.022330826
2	0xbf1270b4	-0.5720322
3	0x3f4116e5	0.7542556
4	0xbf25103b	-0.6447789
5	0xbf231c16	-0.6371473
6	0x3ec57f07	0.38573477
7	0x3f8156e4	1.0104642
8	0x3e281b65	0.164167
9	0x3d1b1570	0.03786224
10	0xc0904085	-4.507876
11	0xbebd3c1c	-0.36959922
12	0xbce37d08	-0.02776958
13	0x3e91eb87	0.28500006
14	0xbfb576e5	-1.4176909
15	0x3e8b0a3c	0.27156246
16	0x3d4f0548	0.050542146
17	0xbd021737	-0.03176042
18	0xbf2498b6	-0.6429552
19	0x3f9fa3be	1.2471845
20	0xbf38881f	-0.72082704
21	0xbede7a59	-0.4345272
22	0xbe0fb0e5	-0.14032324
23	0x3e032e0b	0.12810533
24	0xbf50f4a0	-0.8162327
25	0xbd9d7c54	-0.07689729
26	0xbf9227f5	-1.1418444
27	0x3ec236ba	0.37932378
28	0xbfa9e445	-1.3272787
29	0x3e0eea52	0.13956574
30	0xbf2166a6	-0.63047254
31	0xbfa7e483	-1.3116611
32	0xbef26e91	-0.4734998
33	0x3f93c2ba	1.1543801
34	0xbfa5b2be	-1.2945173
35	0xbede02e6	-0.43361586
36	0xbf7b4c3d	-0.98163205
37	0x3f723b23	0.94621485
38	0x3f7491db	0.9553506
39	0xbeebbcae	-0.4604239
40	0xbe3f4262	-0.18677667
41	0x3f03b599	0.5144897
42	0xbf8284ba	-1.0196755
43	0x3d836367	0.06415444
44	0xc0c7c16f	-6.2423625
45	0xbdef3a4a	-0.1168104
46	0xbf2d3423	-0.6765768
47	0x3c8de9f0	0.017323464
48	0x3f44e6cc	0.7691467
49	0x3f8ce6c8	1.1007929
50	0xbea54bf2	-0.32284504
51	0x3f6ccb4f	0.92497724
52	0x3fa89f82	1.3173678
53	0xbf1c11fb	-0.60964936
54	0x3fd17e35	1.636664
55	0x3ed9cd24	0.42539322
56	0x3e4b970b	0.19881837
57	0xbf367ac4	-0.71281075
58	0xbf649442	-0.89288723
59	0xbff50c89	-1.914445
60	0x3de661ec	0.11249146
61	0xbdc004d5	-0.09375922
62	0x3f931111	1.1489583
63	0x3f75aba9	0.9596506
64	0xbf969f94	-1.1767449
65	0xbf5d8495	-0.8653043
66	0x3ec9cdfb	0.39414963
67	0xbfec4651	-1.8458959
68	0xbe93092c	-0.28717935
69	0x3d53d517	0.05171689
70	0xbfc15964	-1.5105405
71	0xbf0a6fb2	-0.54076684
72	0x3f5f9278	0.8733287
73	0x3cb1dac2	0.021710757
74	0x3f8d0065	1.1015745
75	0x3edf6a8e	0.43635982
76	0x3f9d16da	1.2272599
77	0xbef28638	-0.47368026
78	0xbf58d128	-0.8469415
79	0xbe9a9418	-0.30191112
80	0x3f8ffc74	1.1248918
81	0x3eb9b012	0.36267143
82	0x3f16f74f	0.5897111
83	0x3e41cfe2	0.18926957
84	0x3e64cd4a	0.22343937
85	0xbf4bdf57	-0.79637665
86	0xbfb788c6	-1.4338615
87	0x3fad5f4a	1.3544705
88	0x3e273fc1	0.16332914
89	0x3f7674d8	0.9627204
90	0x3d380d81	0.044934753
91	0xbd90bc76	-0.07067196
92	0xbfa0de60	-1.2567863
93	0xbf68d0e2	-0.9094373
94	0xbed2f0c1	-0.41199306
95	0xbf267bbd	-0.6503256
96	0xbef3fc28	-0.47653317
97	0x3cffdc94	0.03123311
98	0x3f6d744c	0.9275558
99	0x3f8bd12d	1.092321
100	0xbc573843	-0.013135972
101	0xbf82080a	-1.0158703
102	0x3f4950bd	0.7863882
103	0x3e21f5da	0.15816441
104	0xbf1c1ef6	-0.6098474
105	0x3e95fd8f	0.29295012
106	0x3edfc49f	0.43704697
107	0xbd65213a	-0.05593989
108	0xbf14493f	-0.57924265
109	0x3f74cee6	0.956282
110	0xbf0baf3e	-0.54564273
111	0x3de65f76	0.112486765
112	0xbc8457bb	-0.016155114
113	0xbda0947b	-0.078408204
114	0x3f5d9f61	0.8657132
115	0x3deb4b8b	0.11489018
116	0x3edd64c2	0.43240935
117	0x3ed04628	0.40678525
118	0x3dca97a7	0.09892207
119	0xbe81ced0	-0.25353098
120	0x3e9dad6b	0.3079637
121	0x3ee1bb00	0.44087982
122	0xbeb2f4fb	-0.3495253
123	0x3d25199a	0.04030762
124	0x3f1e0b01	0.6173554
125	0x3dacc366	0.08435707
126	0xbf82ad23	-1.0209087
127	0x3e7d22ca	0.24720302
128	0xbfacced4	-1.3500619
129	0xbe95507b	-0.29162964
130	0xbf249edd	-0.64304906
131	0x3e21c2d7	0.15796982
132	0x3ea4f176	0.3221547
133	0xbedd77fd	-0.43255606
134	0xbed00fd0	-0.40637064
135	0x3e930b4f	0.28719565
136	0x3e80eb39	0.2517946
137	0x3f853e82	1.0409701
138	0xbf159d1c	-0.58442855
139	0x3f959a4f	1.1687716
140	0xbf0b0cdd	-0.543165
141	0x3f124b5b	0.57146233
142	0x3fa1bd08	1.2635813
143	0xbcf73c10	-0.030180007
144	0xbf2d13da	-0.67608416
145	0xbcc5f35a	-0.02416389
146	0xbf155c7d	-0.5834425
147	0xbefa1d3e	-0.48850435
148	0xbd837c52	-0.064201966
149	0x3f38d166	0.72194517

weight_hh_l0 f4 [75, 25]
0	0xbf8bd96f	-1.092573
1	0x3f95d2bb	1.1704935
2	0xbf4fb819	-0.81140286
3	0x3fd6588a	1.674577
4	0xbef52c1d	-0.47885218
5	0xbf137914	-0.57606626
6	0x3e25013b	0.1611375
7	0x3f0c2a7a	0.54752314
8	0x3f49159e	0.7854861
9	0xbf4121b9	-0.7544208
10	0x3f02ab26	0.510424
11	0xbef32af0	-0.47493696
12	0x3e438ebe	0.1909742
13	0xbf8bff60	-1.0937309
14	0xbf790975	-0.97280055
15	0xbeff78c9	-0.4989684
16	0xbf3d8fe6	-0.74047697
17	0xbf80c00a	-1.0058606
18	0x3f1aee40	0.6051979
19	0xbf3643bc	-0.71197104
20	0xbf211888	-0.62928057
21	0x3f3df4f8	0.7420192
22	0xbef6a2a0	-0.48170948
23	0xbf19bc59	-0.6005302
24	0x3d19189e	0.037376992
25	0xbe9d895e	-0.30768865
26	0x3fdbfb4b	1.7186064
27	0xbf3d18bc	-0.73865867
28	0x3f4c610b	0.79835576
29	0xbf21ab4b	-0.63152
30	0xbf0b3fd2	-0.5439426
31	0xbf34f372	-0.7068397
32	0xbf395b16	-0.7240461
33	0xbdbcd064	-0.09219435
34	0x3f50604a	0.81396925
35	0xbeec715f	-0.46180245
36	0x3f0b7b7c	0.544853
37	0x3f8b9bb5	1.0906893
38	0xbe3e4e76	-0.18584618
39	0x3e3eac93	0.1862052
40	0xbf9e5a5f	-1.2371329
41	0xbf0f06dd	-0.5586985
42	0xbf8fc9f5	-1.1233507
43	0x3edf7061	0.43640426
44	0xbeabe57d	-0.33573523
45	0xbe760b25	-0.24027689
46	0x3fa2de14	1.2724023
47	0xbf27d3b9	-0.6555744
48	0xbf1a7286	-0.60331
49	0x3d35e3b3	0.044406604
50	0x3eccb6a1	0.39983085
51	0x3ebbf58b	0.36710772
52	0xbe9a9701	-0.30193332
53	0xbe76cddd	-0.24101968
54	0xbe955551	-0.29166654
55	0x3e06cc90	0.13163972
56	0xbc1b0011	-0.009460465
57	0xbf0ee3a8	-0.55816126
58	0xbea190a4	-0.31555665
59	0x3f4356f1	0.7630454
60	0xbc42f4eb	-0.011899213
61	0xbf9acbf7	-1.2093495
62	0xbf2b3027	-0.6687035
63	0x3eb67b0c	0.35640752
64	0x3eafa775	0.34307447
65	0x3f35846c	0.70905185
66	0xbfb59fca	-1.4189389
67	0xbe3337ec	-0.17501801
68	0xbee53789	-0.44768932
69	0x3d69e95a	0.057107307
70	0x3d8dbebe	0.06921147
71	0xbb85bfa7	-0.0040816846
72	0x3f1989ac	0.59975696
73	0x3ce838fc	0.028347485
74	0x3f953098	1.1655455
75	0xbe78fbec	-0.2431485
76	0x3f10699d	0.56411153
77	0x3fa46b5a	1.2845261
78	0xbfafbe9d	-1.3730046
79	0x3f1d6780	0.61486053
80	0xbe333e57	-0.1750425
81	0x3f5cc1a2	0.8623296
82	0x3f803fae	1.0019433
83	0x3e001bc1	0.12510587
84	0xbed61caa	-0.41818744
85	0x3e1a7470	0.1508348
86	0xbff0ef99	-1.8823119
87	0x3f182725	0.5943473
88	0x3fb30188	1.3984842
89	0xbfce5a05	-1.6121222
90	0x3e8ad5f7	0.27116367
91	0xbfb09073	-1.3794082
92	0x3cfe5c40	0.031049848
93	0x3f65de76	0.89792573
94	0x3ed9eb09	0.4256213
95	0x3ef99e32	0.48753506
96	0xbdb0aa15	-0.086261906
97	0xbd02c94a	-0.031930245
98	0x3eae0768	0.33990026
99	0x3e8c5dbf	0.27415273
100	0xbde628ee	-0.112382755
101	0x3f212dcd	0.6296051
102	0x3f551785	0.8323901
103	0x3f35dab9	0.7103687
104	0x3f657d93	0.89644736
105	0xbe82bb22	-0.25533396
106	0xbf18b420	-0.5964985
107	0xbd4559ff	-0.04818153
108	0x3f1e861d	0.6192339
109	0xbf391b7a	-0.7230755
110	0x3e186ebc	0.14885992
111	0xbe8b4787	-0.2720301
112	0x3e9bef9d	0.30456248
113	0x3edc6d40	0.430521
114	0xbe67d287	-0.22638904
115	0xbe0541be	-0.1301336
116	0x3f1d6fc9	0.61498696
117	0x3f108b12	0.56462204
118	0x3ed0520d	0.406876
119	0x3f7f9a52	0.9984485
120	0x3e6cd154	0.23126727
121	0xbf1f577b	-0.6224286
122	0xbeaf2538	-0.34208083
123	0xbee8afae	-0.45446533
124	0x3ea05097	0.31311485
125	0x3e642c98	0.22282636
126	0xbe9b426e	-0.3032412
127	0x3f0e3694	0.5555203
128	0xbe9e9aaf	-0.3097739
129	0x3e967a7d	0.29390326
130	0x3f1c4b37	0.6105227
131	0xbe0d40d5	-0.13794263
132	0x3c8534b7	0.016260488
133	0xbec5c0a2	-0.3862353
134	0x3cd91433	0.02649889
135	0xbd9c9520	-0.07645631
136	0x3e372f82	0.17889217
137	0x3e57fa98	0.21091688
138	0x3dfdd122	0.123934045
139	0x3f5faafb	0.8737027
140	0x3fa29c02	1.270386
141	0xbeabe110	-0.33570147
142	0xbe9dbce7	-0.30808184
143	0x3ef03686	0.46916598
144	0x3e4f997f	0.20273398
145	0x3f03b4af	0.51447576
146	0xbea8145b	-0.3282803
147	0x3f542c5b	0.8288018
148	0x3eb32c05	0.34994522
149	0x3e7adab4	0.24497491
150	0xbd631cce	-0.055447392
151	0xbf67f632	-0.9061004
152	0xbf091c09	-0.53558403
153	0x3e68c269	0.22730412
154	0x3ed66ef9	0.4188154
155	0x3ebc4e19	0.36778334
156	0x3f890540	1.0704727
157	0x3f9ee43a	1.2413399
158	0xbf52c5e7	-0.82333225
159	0x3d6262e1	0.05527008
160	0x3fafd2ac	1.3736167
161	0xbec72b13	-0.3890005
162	0x3f013879	0.50476795
163	0x3ee00f21	0.43761542
164	0xbfb14ae7	-1.3850983
165	0xbe648a03	-0.22318272
166	0xbfa39174	-1.2778764
167	0x3fd04f40	1.6274185
168	0x3e4a912e	0.19781944
169	0xbfe3ccec	-1.7796912
170	0x3eaff181	0.3436394
171	0x3f723b96	0.9462217
172	0x3f420781	0.757927
173	0x3ef8e81b	0.48614582
174	0x3f5c99cf	0.86172193
175	0x3e65537c	0.22395128
176	0xbf354193	-0.70803183
177	0xbeddd98f	-0.43330047
178	0x3e35a347	0.17738067
179	0x3dad1853	0.08451905
180	0x3f3af91b	0.73036355
181	0xbf956cd8	-1.1673841
182	0xbe218dda	-0.15776768
183	0xbeb96226	-0.36207694
184	0x3ebf8b6f	0.37411067
185	0x3dee8995	0.116473354
186	0x3e3ecfef	0.18634008
187	0xbe37c233	-0.17945175
188	0x3fa59218	1.2935209
189	0x3ed520e7	0.41626665
190	0x3ee87c77	0.4540746
191	0xbf212092	-0.62940323
192	0x3f117251	0.5681506
193	0xbe8d91a1	-0.2765017
194	0x3eb3482e	0.35016006
195	0x3f4a63f2	0.79058754
196	0xbe2c2b30	-0.1681335
197	0x3f5883a1	0.8457585
198	0x3f1ffe91	0.6249781
199	0x3f3da5de	0.7408122
200	0x3f6ce3cc	0.9253509
201	0x3f790c29	0.9728418
202	0x3fb05af1	1.3777753
203	0x3f69d734	0.91344
204	0xbf96d918	-1.1785002
205	0x3e997ebc	0.29979503
206	0x3f29b6e3	0.6629469
207	0xbef7e3e0	-0.48416042
208	0x3e91b191	0.28455785
209	0x3f8256a9	1.0182697
210	0xbe5627d4	-0.2091363
211	0x3e6cfbe6	0.23142967
212	0x3fa6b2f2	1.302336
213	0xbda2b294	-0.07944217
214	0xbeda52ea	-0.42641383
215	0x3f7b2177	0.9809794
216	0x3f21ff68	0.63280344
217	0xbf1c063b	-0.60947007
218	0x3cd46897	0.025928779
219	0xbe89da21	-0.26924232
220	0xbeca78c4	-0.39545262
221	0x3faa4487	1.3302163
222	0xbd9430f3	-0.07235899
223	0xbf22dda9	-0.63619477
224	0xbe257a25	-0.16159876
225	0xbfa171f1	-1.2612897
226	0xbf3827da	-0.7193581
227	0x3f6a3559	0.9148765
228	0xbf78346b	-0.96954983
229	0x3fb82f70	1.4389477
230	0xbe2e0c84	-0.16996962
231	0xbea79652	-0.32731873
232	0xbf9b3a44	-1.2127156
233	0x3d73dd9b	0.05953751
234	0xbfd3c697	-1.654498
235	0x3e5d1e0f	0.21593498
236	0xbea3bc03	-0.3197938
237	0x3eda864a	0.4268058
238	0x3e931506	0.28726977
239	0xbea42f8e	-0.3206753
240	0xbef24253	-0.47316226
241	0xbffba816	-1.9660671
242	0xbd915f92	-0.07098307
243	0x3ead8cf3	0.33896598
244	0xbfaa1fb9	-1.3290931
245	0x3f917495	1.1363703
246	0xbff39052	-1.9028418
247	0x3e75509d	0.23956533
248	0xbf2cc35d	-0.674856
249	0xbf4bb1ea	-0.7956835
250	0x3ed55e56	0.41673535
251	0xbfc5cf2a	-1.5453846
252	0xbe2c1212	-0.16803768
253	0xbfa10464	-1.2579465
254	0xbe7184ff	-0.2358589
255	0x3ee29dfb	0.44261155

bias_ih_l0 f4 [75]
0	0xbed1e3d1	-0.40994123
1	0xbf5f23b8	-0.8716388
2	0x3d34cd38	0.044141024
3	0xbe373f39	-0.17895211
4	0xbefeb15a	-0.49744684
5	0xbf6f1a18	-0.9339919
6	0x3d3b31ab	0.045701664
7	0xbee43aa9	-0.44576004
8	0xbf0cdda9	-0.55025727
9	0x3f07662f	0.52890295
10	0x3f05128d	0.5198143
11	0xbeaecf17	-0.34142372
12	0xbf1b9408	-0.6077275
13	0xbf1d8c6a	-0.6154238
14	0xbe243732	-0.1603668
15	0xbf29dc13	-0.6635143
16	0xbe865af7	-0.26241276
17	0xbf2ed7d8	-0.682981
18	0xbf1f4216	-0.62210214
19	0xbf3968e2	-0.72425663
20	0xbe85789e	-0.26068586
21	0x3e9122de	0.28346914
22	0xbf8c45bd	-1.0958782
23	0xbeb1c039	-0.34716967
24	0xbe1b344b	-0.15156667
25	0x3f45b159	0.77223736
26	0x3ebaa3a9	0.36452988
27	0x3fb4b348	1.4117212
28	0x3f845cd3	1.0340828
29	0xbf0f215c	-0.5591028
30	0xbdaae948	-0.08345276
31	0x3fb728db	1.4309343
32	0xbfe7a2cf	-1.809656
33	0xbf26828d	-0.65042955
34	0xbf58f9a1	-0.84755903
35	0xbf85a38f	-1.0440539
36	0x3f8cf3a6	1.1011856
37	0x3ef0bffd	0.47021475
38	0x3f97178d	1.1804062
39	0xbf7c9582	-0.9866563
40	0x3eefe61c	0.46855247
41	0x3fafa3f8	1.3721914
42	0x3f9b5b4e	1.2137239
43	0xbecb7c75	-0.3974339
44	0xbf0017a1	-0.50036055
45	0x3e66fa0e	0.22556326
46	0xbe8e1c08	-0.2775576
47	0xbef17cae	-0.47165436
48	0xbe36360e	-0.17794058
49	0x3f9c78d0	1.2224369
50	0x3e49e929	0.1971785
51	0xbe8ffda8	-0.28123212
52	0xbd7fcbf3	-0.06245036
53	0xbefeecfb	-0.49790177
54	0x3da51fe4	0.08062723
55	0x3e0d8ec5	0.13823994
56	0xbeb139ef	-0.34614512
57	0xbf0671fb	-0.5251767
58	0xbebd01d8	-0.3691547
59	0xbd31bdf1	-0.043394033
60	0xbcc7578e	-0.024333742
61	0xbe03ded6	-0.12877974
62	0xbe23ef73	-0.16009311
63	0x3e172f7a	0.14764205
64	0x3e84249a	0.25809175
65	0x3e311849	0.1729442
66	0xbe7dfcbe	-0.24803445
67	0x3dea25aa	0.11432965
68	0xbe8331c8	-0.25623918
69	0x3d8a9315	0.06766335
70	0x3ec1b8c2	0.37836272
71	0xbe072ff0	-0.1320188
72	0x3e807132	0.2508636
73	0x3e8c68f4	0.27423823
74	0xbd84aa28	-0.06477767

bias_hh_l0 f4 [75]
0	0xbddfbd3e	-0.10924767
1	0xbf6279c7	-0.8846707
2	0x3e0ed547	0.13948546
3	0xbd8bc3e8	-0.068244755
4	0xbf28bff0	-0.65917873
5	0xbf44fc5b	-0.76947564
6	0x3dca4196	0.09875791
7	0xbf050496	-0.5196012
8	0xbf2d36b4	-0.67661595
9	0x3ed88545	0.42289177
10	0x3e925a61	0.2858458
11	0xbedec5ff	-0.43510434
12	0xbf366cc5	-0.7125972
13	0xbf0ba516	-0.54548776
14	0xbdfaab1e	-0.12239669
15	0xbf4a8e48	-0.79123354
16	0xbcfc3d1c	-0.030790858
17	0xbf2cbeb3	-0.67478484
18	0xbf2b2227	-0.6684899
19	0xbedbfe62	-0.42967516
20	0xbe8ef46d	-0.27920857
21	0x3dbaf5c4	0.09128907
22	0xbf9aa4e4	-1.2081571
23	0xbe843c0e	-0.25827068
24	0xbd660e24	-0.05616583
25	0x3efd3256	0.49452466
26	0x3ea57bc8	0.32321
27	0x3facba44	1.3494344
28	0x3f7ce5c8	0.9878812
29	0xbf10a3f9	-0.565002
30	0xbd815296	-0.0631458
31	0x3fdcbca4	1.7245069
32	0xbfd41903	-1.6570133
33	0xbf032225	-0.51223975
34	0xbf3c1744	-0.73473
35	0xbf87efe1	-1.062008
36	0x3fa8f328	1.3199205
37	0x3f0a04b8	0.5391345
38	0x3fae0fe7	1.3598603
39	0xbf6c4d8e	-0.9230584
40	0x3f0b40ff	0.5439605
41	0x3f91a1bb	1.1377481
42	0x3f8c0adb	1.0940813
43	0xbedacab3	-0.42732772
44	0xbf209d85	-0.62740356
45	0x3ef0f036	0.47058266
46	0xbe31d599	-0.17366637
47	0xbe80c667	-0.2515137
48	0xbe49c148	-0.19702637
49	0x3f8615ef	1.0475444
50	0xbdbf06a4	-0.093274385
51	0xbed2dd91	-0.41184667
52	0x3ea7be22	0.32762247
53	0xbea499e6	-0.32148665
54	0xbbedb3b9	-0.0072540906
55	0x3dc74551	0.09730018
56	0x3eab9464	0.3351165
57	0xbe94ba97	-0.29048607
58	0x3df954e0	0.12174392
59	0x3d869e7a	0.06573196
60	0xbea87a58	-0.3290584
61	0xba84ac6e	-0.0010122189
62	0xbed0525e	-0.4068784
63	0x3e6afcf3	0.22948055
64	0x3f87475a	1.056865
65	0x3ea06427	0.3132641
66	0xbe6d6cf0	-0.23186088
67	0xbe03b732	-0.12862852
68	0xbdd06613	-0.10175719
69	0xbe9c8d3c	-0.30576503
70	0x3d455203	0.048173916
71	0xbf364733	-0.7120239
72	0x3ebcd5af	0.36881778
73	0x3e917ba0	0.2841463
74	0xbe91f601	-0.28508

weight_ih_l1 f4 [75, 25]
0	0x3d681b71	0.056666795
1	0xbfa05ae5	-1.2527739
2	0x3e9b26a7	0.30302927
3	0xbe830d45	-0.2559606
4	0x3fa35d0f	1.2762774
5	0x4010a174	2.2598543
6	0xbf4a42f1	-0.79008394
7	0xbd724b0d	-0.059153605
8	0xbfd27136	-1.6440799
9	0xbf4c2b72	-0.7975379
10	0x3fbbb53c	1.4664683
11	0x3f3f3537	0.74690574
12	0xbf2a1797	-0.66442245
13	0x3f700589	0.93758446
14	0x3fa0f8a2	1.2575877
15	0x4002b0f6	2.0420508
16	0xbfce5436	-1.6119449
17	0x3f28541e	0.6575335
18	0x3ec0c771	0.37652162
19	0x3fccbe23	1.5995525
20	0xbf5f7336	-0.8728517
21	0xc00010b2	-2.001019
22	0x4001a928	2.0259495
23	0x3f066864	0.5250304
24	0x3f839bcd	1.0281922
25	0xbed75013	-0.4205328
26	0x3f85a085	1.0439612
27	0x3f476bf7	0.77899116
28	0x3ded6152	0.11590828
29	0x3f264938	0.6495547
30	0xbea2c744	-0.31792653
31	0x3e95a575	0.29227796
32	0x3f84e6f4	1.0382981
33	0x3f2041ad	0.62600213
34	0xbe20de54	-0.15709811
35	0x3e2e119b	0.16998903
36	0x3e8f33ff	0.27969357
37	0x3f4af9b9	0.79287297
38	0xbe9efb95	-0.31051317
39	0x3e39225e	0.18079516
40	0xbe95b350	-0.29238367
41	0x3f4dd6d0	0.804059
42	0x3e550c5c	0.20805496
43	0x3f05cfd9	0.52270275
44	0x3f49489d	0.78626424
45	0xbed3260d	-0.41239968
46	0x3d91461d	0.07093451
47	0xbf3aa45c	-0.7290704
48	0xbf9c52a8	-1.2212725
49	0x3e283f6b	0.16430442
50	0x3f22577f	0.6341476
51	0xbf7ec189	-0.9951406
52	0xbef98329	-0.4873288
53	0x3f0ae401	0.54254156
54	0x3f6e137c	0.9299848
55	0x3f566c36	0.83758867
56	0xbe11a336	-0.14222416
57	0x3e9523e6	0.2912895
58	0xbfc5ee36	-1.5463321
59	0xbe1e0355	-0.15430959
60	0x3f842cce	1.0326173
61	0x3eb79a84	0.35860074
62	0x3f5b4c40	0.85663223
63	0x3f9ace4a	1.2094204
64	0xbef674bd	-0.4813594
65	0x3eafe193	0.34351787
66	0xbefff5df	-0.49992272
67	0x3ebc83c9	0.36819294
68	0x3f7e38d8	0.99305487
69	0x3f59c46f	0.8506536
70	0x3ef74749	0.48296574
71	0xbfabeb22	-1.3431132
72	0x3f44d176	0.7688211
73	0x3f59b657	0.85043854
74	0xbe9c8012	-0.3056646
75	0xbea9020a	-0.33009368
76	0xbef73f53	-0.482905
77	0x3f8dd191	1.107958
78	0x3fc22c32	1.5169737
79	0x3f50ae18	0.81515646
80	0x3f21406d	0.6298893
81	0xbf4d490e	-0.801896
82	0xbf67b483	-0.90509814
83	0xbf9d8043	-1.2304767
84	0xbe55d698	-0.20882642
85	0x3eb4a6b9	0.3528345
86	0x3ee2c0c2	0.44287688
87	0x3f54d6a7	0.83140033
88	0x3f06db6b	0.52678555
89	0x3eeaedb7	0.45884487
90	0x3eeb0e2e	0.45909256
91	0xbe8f5327	-0.27993128
92	0x3f116d5b	0.5680749
93	0x3f374e46	0.7160381
94	0xbe99692a	-0.29963046
95	0xbfabbceb	-1.3417028
96	0xc00dee57	-2.217672
97	0x3f478a7c	0.77945685
98	0x3f10a222	0.56497395
99	0x3ebeb3e4	0.3724662
100	0xbf8f4a67	-1.1194581
101	0x3e5ccab2	0.21561697
102	0x3f1611a7	0.58620685
103	0x3f864133	1.0488647
104	0x3ea68ffa	0.3253172
105	0x3fd25541	1.6432267
106	0xbfab5132	-1.3384154
107	0x40165a10	2.349247
108	0xbe9ac45c	-0.30227935
109	0x3e6c91f9	0.23102559
110	0x3eda5cfb	0.42649063
111	0x3f1108a6	0.5665382
112	0xbf907c9d	-1.1288029
113	0x3f37d4c8	0.71809053
114	0x3d97ec0d	0.0741807
115	0x3f00585a	0.50134814
116	0x3e4a499e	0.19754645
117	0x3e1d1186	0.15338716
118	0x3e4cb06d	0.19989176
119	0x3eb62a12	0.35578972
120	0xbd9e8c97	-0.07741659
121	0xbffa5a1b	-1.9558748
122	0x3f93a16a	1.1533635
123	0x3cd58b8f	0.026067523
124	0x3e37327e	0.17890355
125	0xbf6f1166	-0.9338592
126	0xbbaef0dd	-0.0053387717
127	0x3e0bbfd8	0.13647401
128	0xbf9caf24	-1.2240949
129	0xbf17b26f	-0.59256643
130	0xbeb2687c	-0.3484534
131	0x3e360bbf	0.17777918
132	0xbc88565e	-0.016642746
133	0xbeb153a7	-0.34634134
134	0xbdaf1e8a	-0.08550747
135	0xbf4d1bdb	-0.8012063
136	0xbcac877a	-0.021060694
137	0xbde66080	-0.11248875
138	0xbe6dcd9c	-0.23222965
139	0x3f7875b9	0.9705463
140	0xbec9f029	-0.3944104
141	0x3e63e52b	0.2225539
142	0xbf7b56d2	-0.9817935
143	0xbe3d1d19	-0.18468131
144	0xbf09b897	-0.53797287
145	0x3e02a973	0.12759952
146	0xbe8a97c9	-0.27068928
147	0xbdfb1592	-0.122599736
148	0x3d84d7a6	0.06486444
149	0xbec5d87e	-0.38641733
150	0xbf0d7c58	-0.5526786
151	0xbe1adaf2	-0.15122584
152	0x3ea63338	0.32460952
153	0x3fbe15ba	1.485038
154	0xbf2901f7	-0.66018623
155	0x3efcd62d	0.49382153
156	0x3f52b39a	0.823053
157	0x3fad15e5	1.3522307
158	0x3e5c28f0	0.21499991
159	0x3f8119d4	1.0086007
160	0x3f4f01cc	0.80862117
161	0x3f17eda2	0.59346974
162	0x3f9e8033	1.2382873
163	0xbedca7ba	-0.43096715
164	0xbf1f68cf	-0.622693
165	0x3ec7ab45	0.38997856
166	0x3eaf2b51	0.34212735
167	0xbe36d63d	-0.17855163
168	0x3ead0be9	0.3379815
169	0xbf0fa69c	-0.561136
170	0xbf8bdab1	-1.0926114
171	0xbe8cd5e4	-0.27506936
172	0x3f04483b	0.51672715
173	0xbd57128e	-0.05250793
174	0xbf528e3f	-0.822483
175	0xbee1d08a	-0.44104415
176	0x3f8541f1	1.0410749
177	0xbd8a65a4	-0.06757668
178	0x3f12991b	0.5726487
179	0x3cc75b56	0.024335545
180	0xbd3a2fe0	-0.045455813
181	0xbf831e54	-1.024363
182	0x3ed44b95	0.41463915
183	0xbd6bd00f	-0.057571467
184	0xbdaf8193	-0.08569636
185	0x3ee10e45	0.439562
186	0x3e3a614d	0.1820118
187	0xbef74815	-0.48297182
188	0x3d09366b	0.033499163
189	0x3e586adb	0.21134512
190	0x3e905ade	0.28194326
191	0xbe91471b	-0.28374562
192	0x3e9dc217	0.3081214
193	0x3e90fe65	0.28319088
194	0xbf2ac0b5	-0.667003
195	0xbe668212	-0.22510555
196	0xbef92e87	-0.4866831
197	0xbe5ffdd1	-0.21874167
198	0xbf8e563d	-1.1120068
199	0x3da6c460	0.08142924
200	0x3e252cef	0.16130422
201	0xbf1c094e	-0.609517
202	0x3eddef0d	0.43346444
203	0x3de6e9b0	0.11275041
204	0x3ef052fc	0.46938312
205	0x402082b9	2.5079787
206	0xbf4dfb55	-0.8046163
207	0x3fd80a78	1.6878195
208	0xbf83df52	-1.0302527
209	0x3df3ac34	0.118980795
210	0x3f1e465e	0.6182612
211	0x3ede0cd4	0.43369162
212	0xbe96be9f	-0.29442307
213	0x3f8d437c	1.103622
214	0x3ea54a71	0.32283357
215	0x3f46d2e7	0.7766556
216	0xbe156d4a	-0.14592472
217	0x3f191926	0.59804
218	0xbf3f7160	-0.7478237
219	0xbe4484ac	-0.19191235
220	0x3f61364e	0.8797349
221	0xbf561ff1	-0.8364249
222	0x40111e86	2.267488
223	0xbdc3185c	-0.095261306
224	0xbdc4a989	-0.09602649
225	0xbf5a456e	-0.8526219
226	0x3ee64faa	0.44982654
227	0xbd5dbf02	-0.054137237
228	0xbf72f54b	-0.9490554
229	0x3fce8114	1.6133142
230	0x3f20d934	0.62831426
231	0xbfb24e7f	-1.3930205
232	0xbe0a58c9	-0.13510431
233	0xbf684c63	-0.90741557
234	0xbf93aaa2	-1.1536448
235	0x3fab82ae	1.3399255
236	0x3f6ee23d	0.9331396
237	0xbdfaf993	-0.12254634
238	0x3f8fb8db	1.1228288
239	0x3fd1533b	1.6353525
240	0xbf796f6a	-0.9743563
241	0xbfb97676	-1.4489276
242	0x3f6e865e	0.9317378
243	0x3f21af04	0.6315768
244	0x3f4a75b4	0.7908585
245	0xbfa59168	-1.2935
246	0xbfe90855	-1.8205668
247	0x3e87b9e3	0.26509008
248	0x3e928b59	0.2862194
249	0x3fa87cb5	1.3163058
250	0xbec63359	-0.3871105
251	0x3f2b6525	0.6695121
252	0x3c5a4e63	0.013324353
253	0x3e52f602	0.20601657
254	0xbfbbd3c5	-1.4674002
255	0xbe9055bc	-0.2819041

weight_hh_l1 f4 [75, 25]
0	0x3f277775	0.6541665
1	0xbf85bf51	-1.044901
2	0x3f6b93ff	0.920227
3	0xbec47020	-0.38366795
4	0xbe91d367	-0.284816
5	0xbf82a6a5	-1.0207106
6	0xbe87b764	-0.26507103
7	0xbe620496	-0.22072062
8	0xbee24cd2	-0.44199234
9	0x3f308648	0.68954897
10	0xbf1bf421	-0.60919386
11	0x3f6eef4f	0.93333906
12	0xbdb3a6c4	-0.087720424
13	0xbefebc65	-0.4975311
14	0xbf29e675	-0.66367275
15	0x3f5f4f75	0.87230617
16	0xbe8fdbda	-0.2809742
17	0x3eede3cb	0.46462855
18	0xbf24dd88	-0.6440053
19	0x3f7c9b6e	0.98674667
20	0xbf8fdfd9	-1.1240188
21	0x3f41503f	0.7551307
22	0xbef16e8f	-0.47154662
23	0xbe942d04	-0.28940594
24	0xbc9eeaae	-0.019399013
25	0xbe38af68	-0.18035662
26	0x3fe96848	1.8234949
27	0xbea3f924	-0.32026017
28	0x3e056aec	0.13029069
29	0xbf0a1062	-0.5393125
30	0xbf1686b9	-0.5879932
31	0xbf43aa8a	-0.76432097
32	0x3eef4e68	0.46739507
33	0xbe57dbe7	-0.2107998
34	0x3e413326	0.18867168
35	0x3f9d55aa	1.2291768
36	0xbd9cb73c	-0.07652137
37	0xbe2b5505	-0.16731651
38	0xbe18a431	-0.14906384
39	0xbfc6e794	-1.5539422
40	0x3ee89157	0.45423386
41	0xbef07522	-0.46964365
42	0xbf59c2d0	-0.85062885
43	0xbdb63f9b	-0.088988505
44	0x3ee2fdc2	0.44334227
45	0x3ec5fff0	0.38671827
46	0xbc9967f4	-0.018726327
47	0x3e885232	0.2662521
48	0x3e2a8897	0.16653667
49	0x3f6c9669	0.9241701
50	0xbfdf3d6f	-1.7440623
51	0x3f73b85f	0.952032
52	0xbf2ab853	-0.66687506
53	0x3e80a504	0.25125897
54	0xbd25661a	-0.040380575
55	0x3de66e9d	0.112515666
56	0x3daadb3e	0.083425984
57	0x3ea6aa65	0.32551876
58	0xbecc84a6	-0.39944953
59	0xbeec8a5d	-0.46199313
60	0xbf6ba4e6	-0.9204849
61	0x3f017016	0.50561655
62	0xbec02082	-0.37524801
63	0xbb9bc2c4	-0.0047534425
64	0xbf0828cb	-0.53187245
65	0x3ebb7a16	0.36616582
66	0x3e9392b3	0.2882286
67	0xbf421e69	-0.7582765
68	0xbf51051f	-0.8164844
69	0xbea8ed02	-0.32993323
70	0x3f502a36	0.8131441
71	0xbf4a0079	-0.7890697
72	0xbeed310f	-0.4632649
73	0xbe82eff4	-0.25573695
74	0x3d522d49	0.05131272
75	0xbfa5a199	-1.2939941
76	0x3e2acdde	0.16680095
77	0x3ec37c61	0.3818083
78	0xbefb003a	-0.4902361
79	0x3c97ae19	0.018515633
80	0xbf2d7bfe	-0.6776732
81	0xbf45fcbf	-0.77338785
82	0x3f1fbf75	0.62401515
83	0xbe537549	-0.2065021
84	0xbf63466e	-0.8877934
85	0x3e7fcc98	0.2498039
86	0x3c081b04	0.008307222
87	0xbf789cc4	-0.97114205
88	0x3f588063	0.845709
89	0x3f127329	0.5720697
90	0xbe8492dc	-0.25893295
91	0x3e81929d	0.2530717
92	0x3ef9eafa	0.48812085
93	0xbe699cd2	-0.22813728
94	0x3eb149f5	0.34626737
95	0xbf1f347a	-0.6218945
96	0x3f81a2f3	1.0127853
97	0xbf611e31	-0.87936693
98	0x3e82768e	0.25481075
99	0xbf4a604b	-0.7905318
100	0x3f090b88	0.5353322
101	0x3d6be392	0.057590075
102	0x3eb237a6	0.3480808
103	0x3dc2048a	0.09473522
104	0xbf7c861e	-0.98642147
105	0xbe78ce51	-0.24297453
106	0x3e0e5022	0.13897756
107	0xbac8041d	-0.0015260015
108	0xbc37ac7c	-0.011210557
109	0x3f92918d	1.1450669
110	0x3f107820	0.56433296
111	0x3fa7fc51	1.3123876
112	0x3e8b2400	0.27175903
113	0xbf4965d4	-0.78671
114	0xbea68a46	-0.3252737
115	0x3f10f67a	0.56626093
116	0xbe95038d	-0.29104272
117	0xbf6eb95e	-0.932516
118	0x3f861838	1.0476141
119	0xbef779be	-0.4833507
120	0x3ebfc10e	0.37451977
121	0x3ee4a362	0.446559
122	0xbe93ead1	-0.28890088
123	0xbe1bd638	-0.15218437
124	0x3f23d184	0.6399157
125	0x3f0d5329	0.5520502
126	0x3f02c74a	0.5108534
127	0xbecb0981	-0.39655688
128	0xbfd2969a	-1.645221
129	0x3ecbb5f9	0.39787272
130	0x3f60c9e1	0.8780804
131	0x3e0b2b0c	0.1359064
132	0xbf33a587	-0.7017445
133	0x3f354608	0.70809984
134	0x3f2f678c	0.68517375
135	0x3ece6995	0.40314928
136	0xbe7ad9a3	-0.24497084
137	0x3f2a6d83	0.6657335
138	0xbe3b79a7	-0.18308125
139	0xbe9eaf97	-0.3099334
140	0xbf3d4fd3	-0.7394993
141	0xbee9f2e0	-0.4569311
142	0xbded625b	-0.115910254
143	0x3dd2c78f	0.10291969
144	0xbf0ee434	-0.5581696
145	0xbecab80f	-0.3959355
146	0xbf845b27	-1.0340317
147	0x3f04880a	0.5177008
148	0xbefc7dc2	-0.49314696
149	0x3f7749c0	0.9659691
150	0xbf47ba51	-0.7801867
151	0x3ec2dc41	0.38058665
152	0x3dd4c3d8	0.10388917
153	0xbea73f80	-0.32665634
154	0x3f55fcfc	0.8358915
155	0x3f3c460b	0.7354438
156	0x3f25a57a	0.6470562
157	0xbe066481	-0.13124277
158	0x3db2872d	0.08717189
159	0xbe75e1f4	-0.24011976
160	0xbf680f45	-0.906483
161	0x3fb70aff	1.4300231
162	0xbf23bbbe	-0.63958347
163	0x3dfa609f	0.1222546
164	0xbe073e6a	-0.13207403
165	0x4030360b	2.7532985
166	0xbf853fe9	-1.0410129
167	0x3eb08fa3	0.34484586
168	0xbeb6cde0	-0.35703945
169	0xbe0d5961	-0.13803627
170	0x3f80b922	1.0056498
171	0x3d79c9f2	0.060983606
172	0x3e97bfd6	0.29638547
173	0x3f8b7e97	1.0898007
174	0x3e985e0e	0.29759258
175	0xbfa9d4b4	-1.3268037
176	0xbdfc4ce3	-0.123193525
177	0x3da10fcc	0.07864341
178	0x3f9573ae	1.1675928
179	0xbfdaa2d2	-1.7080939
180	0xbf782fb9	-0.9694782
181	0xbe29397b	-0.16525833
182	0x3f8731c8	1.0562067
183	0xbea4018f	-0.3203244
184	0x3efb29a4	0.49055207
185	0xbf90deb9	-1.131797
186	0xbe4eac50	-0.2018292
187	0xbef4e23c	-0.47828853
188	0x3e64f927	0.22360669
189	0xbf0e0b15	-0.5548566
190	0xbe9e74a5	-0.30948368
191	0xbe80df36	-0.25170296
192	0x3e2a1370	0.16608977
193	0xbe7d8ed4	-0.24761516
194	0x3f90be92	1.1308157
195	0x3f672c63	0.90302104
196	0x3f267af0	0.6503134
197	0xbe67153d	-0.22566696
198	0x3f2019b7	0.6253924
199	0x3f75bd5c	0.95992064
200	0xbe564fed	-0.20928927
201	0x3f54e60d	0.8316353
202	0xbe02da2b	-0.12778537
203	0x3eb256ba	0.34831792
204	0x3e9cb276	0.30604905
205	0xbd6134b5	-0.054981906
206	0x3f6763cd	0.9038666
207	0x3f097057	0.5368704
208	0x3f5084b8	0.8145251
209	0x3eb191c5	0.34681526
210	0x3f5be73a	0.858997
211	0x3f12fee1	0.57420164
212	0x3f4d8edb	0.80296105
213	0xbed21467	-0.4103119
214	0xbf400e4b	-0.7502181
215	0x3eda7521	0.42667487
216	0x3f181876	0.59412324
217	0xbedf243b	-0.4358233
218	0x3fbecf2f	1.4906977
219	0xbee7ba27	-0.4525921
220	0x3ea9fe68	0.3320191
221	0x3e9cb3cf	0.30605933
222	0xbec3c4c4	-0.38236058
223	0xbf8bc082	-1.0918124
224	0xbd82206c	-0.0635384
225	0xbf62b564	-0.8855803
226	0xbf9f1926	-1.242955
227	0x3ea73da9	0.3266423
228	0xbdf606f0	-0.12013042
229	0xbfa46a40	-1.2844925
230	0xbf37842d	-0.7168606
231	0x3e5ed4c3	0.2176085
232	0x3f828942	1.0198138
233	0xbf2fbdd8	-0.68649054
234	0x3f5d658d	0.8648308
235	0x3d92920e	0.07156764
236	0x3f15656b	0.58357877
237	0xbf99357d	-1.1969448
238	0xbedef4c2	-0.4354611
239	0xbf3838e5	-0.71961814
240	0x3f5b5a56	0.85684717
241	0x3f4a934c	0.7913101
242	0xbf4c6778	-0.7984538
243	0xbe111f51	-0.14172103
244	0xbed1e97a	-0.4099844
245	0x3f74bed0	0.95603657
246	0xbe9db3c4	-0.30801213
247	0xbf56410c	-0.83693004
248	0x3f246cde	0.6422862
249	0xbdc70bd2	-0.097190514
250	0x3c4c7ef2	0.012481438
251	0x3e888dad	0.2667059
252	0x3e17ec24	0.14836174
253	0x3ea8ab63	0.32943258
254	0x3d89da83	0.06731131
255	0xbe3937cc	-0.18087691

bias_ih_l1 f4 [75]
0	0xbec9d89b	-0.3942307
1	0xbebd8d1e	-0.37021726
2	0xbf6acafb	-0.91715974
3	0xbd66baea	-0.0563306
4	0xbf4dc3ab	-0.8037669
5	0x3e0a5337	0.13508306
6	0xbf578bec	-0.8419788
7	0xbedf5c9b	-0.4362534
8	0xbf5743dc	-0.8408792
9	0xbed0105f	-0.4063749
10	0xbe5c7023	-0.21527152
11	0xbf89752f	-1.0738887
12	0x3ebe7477	0.3719823
13	0x3bf4fd71	0.0074765016
14	0xbe1b3212	-0.15155819
15	0xbd859577	-0.06522649
16	0xbf54fa9e	-0.8319491
17	0x3e229612	0.1587756
18	0x3ead02e5	0.3379127
19	0xbf22c27f	-0.6357803
20	0xbf0269d1	-0.50942713
21	0xbf305343	-0.6887705
22	0xbf91b039	-1.1381904
23	0x3edf4001	0.4360352
24	0xbebd0a0b	-0.36921725
25	0xbc8c81ce	-0.01715174
26	0x3fbccbb6	1.4749668
27	0x3e17a038	0.14807212
28	0x3f97852e	1.1837518
29	0x3f7858d6	0.9701055
30	0x3f8d08a8	1.1018267
31	0x3ebe5bbe	0.3717937
32	0x3f8d4ba9	1.1038715
33	0x3f88e943	1.0696186
34	0xbe41ed59	-0.18938197
35	0x3f247795	0.6424497
36	0x3c91ac67	0.017782403
37	0xbe3995cf	-0.18123554
38	0x3ef0bdaf	0.47019717
39	0x3fa26695	1.2687556
40	0x3e6a330b	0.22871034
41	0x3f4f2049	0.8090864
42	0x3ed942f2	0.42433888
43	0xbcd44ee4	-0.025916524
44	0x3f01e08c	0.50733256
45	0xbd9c70e9	-0.076387234
46	0x3db5d550	0.08878577
47	0x3f356a3b	0.7086522
48	0x3e6e3778	0.23263347
49	0x3f181c7b	0.5941846
50	0x3e560e5d	0.20903917
51	0x3e8666f6	0.26250428
52	0x3e115680	0.14193153
53	0xbd2e986f	-0.04262584
54	0x3be248d0	0.0069056526
55	0xbe02fe4f	-0.12792324
56	0x3d981732	0.07426299
57	0x3c1413cb	0.009037922
58	0x3ec09607	0.37614462
59	0xbdf936a5	-0.12168626
60	0x3d976972	0.07393159
61	0xbe074e20	-0.13213396
62	0x3f64d71d	0.89390737
63	0x3e9df802	0.30853277
64	0xbeaf1c17	-0.34201118
65	0xbe8c9996	-0.27460927
66	0xbe34f96c	-0.17673272
67	0x3ed3ef39	0.4139345
68	0xbe101536	-0.14070591
69	0x3b96a428	0.0045972057
70	0xbf3e2b4a	-0.74284804
71	0xbc631866	-0.0138607975
72	0xbde0d66d	-0.109783985
73	0xbe3e1a81	-0.18564798
74	0x3e2b4599	0.16725768

bias_hh_l1 f4 [75]
0	0xbed4d3d3	-0.4156786
1	0xbecea308	-0.40358758
2	0xbf8e5a9a	-1.1121399
3	0x3d505fad	0.050872494
4	0xbf7f69ed	-0.99771005
5	0xbdd5b621	-0.10435129
6	0xbf72dd0e	-0.9486855
7	0xbeb94f02	-0.3619309
8	0xbf623885	-0.8836749
9	0xbf0b56f6	-0.54429567
10	0xbebf1971	-0.37324098
11	0xbf75ca37	-0.9601168
12	0x3ec9f4ea	0.39444667
13	0xbe39a785	-0.1813031
14	0xbe68c4af	-0.22731279
15	0xbdc137a6	-0.09434442
16	0xbf62cb07	-0.88591045
17	0x3e8b38a7	0.2719166
18	0x3e916d1c	0.28403556
19	0xbf1a84c4	-0.60358834
20	0xbf21b004	-0.63159204
21	0xbed4f53f	-0.41593358
22	0xbf7a84eb	-0.97859067
23	0x3ecef804	0.40423596
24	0xbe314ae9	-0.17313732
25	0x3dbb1bec	0.09136185
26	0x3fe5b6cc	1.794641
27	0x3e01ddea	0.1268231
28	0x3faaa30f	1.3331012
29	0x3fa497e4	1.2858853
30	0x3fb23baa	1.3924458
31	0x3ef63591	0.48087743
32	0x3f7bc5e4	0.9834883
33	0x3f856d7a	1.0424035
34	0x3d5c7dc2	0.05383087
35	0x3f2defe9	0.679442
36	0x3d786a6c	0.060648367
37	0xbe61d413	-0.22053556
38	0x3e8bbe66	0.272937
39	0x3fa90fb9	1.3207923
40	0x3ea4b027	0.32165644
41	0x3f828213	1.0195946
42	0x3ec8388b	0.3910564
43	0x3cc5e43b	0.02415668
44	0x3f3a1469	0.72687393
45	0x3d2e5c8b	0.042568725
46	0x3e129eb4	0.14318353
47	0x3ee925cc	0.4553665
48	0x3deb1b13	0.11479773
49	0x3e89b9fb	0.26899704
50	0x3d3ca313	0.046053957
51	0xbd8bf565	-0.06833915
52	0xbd72e39b	-0.059299093
53	0x3e57eddd	0.21086831
54	0x3df56229	0.11981613
55	0xbbbe68df	-0.0058108415
56	0xbf21c75a	-0.6319481
57	0xbe1c92bd	-0.15290351
58	0x3eb5a6d6	0.35478848
59	0xbe21c5ef	-0.15798162
60	0xbec54436	-0.38528603
61	0xbea4bcf7	-0.3217542
62	0x3f2ba837	0.6705355
63	0x3f0091c4	0.5022242
64	0xbd61b104	-0.055100456
65	0xbf619ef3	-0.8813316
66	0x3e2aa356	0.1666387
67	0x3e60a566	0.21938094
68	0xbcd8e7d8	-0.02647774
69	0x3c19e328	0.009392537
70	0xbf0f3bf3	-0.5595085
71	0x3e041fc0	0.12902737
72	0x3d34ed1c	0.044171438
73	0xbeb66ee1	-0.3563147
74	0xbebaecd9	-0.36508825

weight_ih_l0 f4 [75, 25]
0	0xbf32a4c9	-0.6978269
1	0xbcd11f6e	-0.025527682
2	0x3ef347a2	0.4751559
3	0x3e646f2d	0.22308035
4	0xbf0d9444	-0.5530436
5	0xbf2b7b66	-0.66985166
6	0x3b72e681	0.003706366
7	0xbd64965a	-0.05580745
8	0x3e99d1fb	0.30043015
9	0x3f085adb	0.53263634
10	0xbf1c8715	-0.6114362
11	0x3ee230cf	0.44177863
12	0xbe8e2c25	-0.27768055
13	0xbee94b27	-0.4556515
14	0xbf04d9f6	-0.5189508
15	0x3d5343a9	0.051578198
16	0x3ef42f30	0.4769225
17	0x3ea5b290	0.32362795
18	0x3d8659d8	0.06560105
19	0x3fa0bed7	1.255824
20	0xbec44cc2	-0.38339812
21	0x3f0caee1	0.54954344
22	0xbe5422b6	-0.20716366
23	0xbee38f09	-0.44445065
24	0xbdcfe2e7	-0.101507
25	0x3e4ef8e9	0.20212139
26	0xbe7e2ee9	-0.24822582
27	0x3eb82805	0.35968032
28	0x3f5f9e68	0.87351084
29	0x3f1e86b7	0.6192431
30	0x3f164373	0.5869667
31	0x3e31e2ac	0.17371625
32	0xbead22ab	-0.33815512
33	0xbe8bd576	-0.27311295
34	0xbf5a68c8	-0.85316133
35	0xbe898c80	-0.26865005
36	0xbe1c16fd	-0.15243144
37	0x3f699d48	0.9125562
38	0xbe84a233	-0.25904998
39	0xbf2a0213	-0.66409415
40	0xbd394ac4	-0.045237318
41	0xbebb4a3f	-0.36580083
42	0x3e639e4d	0.22228356
43	0x3f3d1baa	0.73870337
44	0xbe051e75	-0.129999
45	0x3f8f4f87	1.1196145
46	0x3f80d3ab	1.0064596
47	0xbebbeb51	-0.3670297
48	0xbef07e13	-0.46971187
49	0xbe11bd0f	-0.14232276
50	0xbf019024	-0.50610566
51	0xbed63922	-0.41840464
52	0xbdfdf760	-0.12400699
53	0xbdd70398	-0.10498732
54	0x3e841106	0.25794238
55	0xbf21148c	-0.6292198
56	0xbf1ddc21	-0.61664015
57	0xbcfee0f0	-0.031113118
58	0x3e293286	0.1652318
59	0xbda09450	-0.07840788
60	0xbd0a5c62	-0.03377951
61	0x3fb09237	1.3794621
62	0xbe8d2158	-0.27564502
63	0x3f0a2047	0.539555
64	0xbf99276f	-1.1965159
65	0x3e5566b6	0.20839962
66	0x3d89da54	0.06731096
67	0x3eb6bbd5	0.3569018
68	0x3e89d2b2	0.2691856
69	0xbdddbe87	-0.10827356
70	0xbf121e1d	-0.570772
71	0x3e936faa	0.2879613
72	0x3d05a068	0.03262368
73	0x3e8cb9ba	0.27485448
74	0xbe09efcf	-0.13470386
75	0x3e9a32ee	0.3011698
76	0xbec2c092	-0.38037544
77	0xbdd71ef2	-0.10503949
78	0x3e0dce60	0.13848257
79	0xbf1ab5e6	-0.60433805
80	0xbe11d5e8	-0.14241755
81	0xbd8d273f	-0.06892251
82	0xbe30f237	-0.17279898
83	0xbd0c3bad	-0.0342366
84	0x3f3e31f0	0.7429495
85	0xbe87db95	-0.26534715
86	0xbd147a5e	-0.03624951
87	0x3ef489b0	0.47761297
88	0xbe07f642	-0.13277534
89	0xbe806f40	-0.25084877
90	0xbd967c51	-0.0734793
91	0x3e1ef50b	0.15523164
92	0x3e9631f3	0.29334983
93	0x3dcd10a6	0.10012941
94	0x3f52f4c1	0.82404715
95	0x3e57a84e	0.21060297
96	0x3e841839	0.2579973
97	0xbecda336	-0.40163583
98	0xbf1285b7	-0.5723528
99	0x3e592e9b	0.21209185
100	0xbe0cd882	-0.13754466
101	0xbf0909d6	-0.53530633
102	0xbc554464	-0.013016794
103	0x3f38997d	0.72109205
104	0xbec2a4cc	-0.38016355
105	0x3f4beae4	0.7965529
106	0x3e9a9e2c	0.301988
107	0x3e2f18c0	0.17099285
108	0xbd24055b	-0.04004417
109	0x3f2c7480	0.67365265
110	0xbf081cb8	-0.5316882
111	0xbeee427a	-0.46535093
112	0x3f2d4ef7	0.67698616
113	0x3c8bc792	0.017062936
114	0xbed825fc	-0.4221648
115	0x3e4b482a	0.19851747
116	0x3e65ef52	0.22454575
117	0x3f879220	1.0591469
118	0x3f3516a6	0.70737684
119	0xbe472ee4	-0.19451481
120	0xbe8603ab	-0.26174673
121	0x3e8cea5f	0.2752256
122	0x3f9a42f6	1.2051685
123	0xbefcb0d7	-0.49353668
124	0x3f313d6d	0.69234353
125	0xbe932490	-0.28738832
126	0xbe9a9612	-0.3019262
127	0x3e12408b	0.14282434
128	0xbed9faa3	-0.42574033
129	0xbf46b2ac	-0.7761638
130	0x3e26a545	0.16273983
131	0x3f5f201b	0.87158364
132	0xbec34e59	-0.38145712
133	0xbe30fd86	-0.17284212
134	0x3ec47121	0.3836756
135	0x3f3a9938	0.72890043
136	0xbee53264	-0.44765007
137	0xbf1c187b	-0.60974854
138	0x3f396a30	0.72427654
139	0xbf51e395	-0.8198789
140	0xbef4ff5f	-0.47851083
141	0xbe4652f7	-0.19367586
142	0xbf96e6b9	-1.1789161
143	0xbf4dfda0	-0.80465126
144	0x3fb1e80b	1.3898939
145	0xbf1cea96	-0.6129545
146	0xbe97a49c	-0.29617774
147	0xbefd437e	-0.49465555
148	0x3f707cd3	0.93940467
149	0xbd90d1e0	-0.070712805
150	0xbf8810d1	-1.0630132
151	0xbec79804	-0.38983166
152	0x3e90501b	0.28186116
153	0x3e8bf74f	0.2733712
154	0x3f156b00	0.58366394
155	0xbf1eb1a8	-0.6198983
156	0xbe99d113	-0.30042323
157	0xbf84d23a	-1.0376656
158	0xbec2d3a7	-0.38052103
159	0xbe54eb56	-0.20792899
160	0x3e2d3428	0.16914427
161	0x3db60997	0.08888548
162	0xbf40608f	-0.75147337
163	0x3d8f052b	0.069834076
164	0xbf8b16bb	-1.0866312
165	0xbe3d7ce8	-0.18504679
166	0x3f8962e9	1.073331
167	0xbf44a3b0	-0.7681227
168	0x3ebabc97	0.36472008
169	0x3ecb4576	0.39701432
170	0xbe9553ac	-0.291654
171	0x3e7bc238	0.24585807
172	0xbfc337c3	-1.5251392
173	0x3f893e82	1.0722201
174	0xbf84153a	-1.0318978
175	0xbe43291a	-0.19058648
176	0x3e7e9a6c	0.24863595
177	0x3edff054	0.43738043
178	0x3eeed5bc	0.4664744
179	0x3e6c3087	0.23065387
180	0xbe37a3dc	-0.17933601
181	0x3dfec560	0.1243999
182	0x3e9d90a7	0.30774423
183	0x3e273390	0.16328263
184	0x3e78ff61	0.2431617
185	0x3ee65fc9	0.44994953
186	0x3dfa0008	0.12207037
187	0x3e5dbbd4	0.21653682
188	0xbe1820c5	-0.1485625
189	0x3d68bf31	0.05682296
190	0xbe379141	-0.17926504
191	0x3b5b9063	0.003350281
192	0xbe84296b	-0.2581285
193	0x3e7747c9	0.24148478
194	0x3dbaaa8c	0.091145605
195	0x3e3fe84e	0.18740961
196	0x3e503daf	0.2033603
197	0xbe0dc5c2	-0.1384497
198	0xbe95d7d0	-0.29266214
199	0x3d0e821f	0.034792062
200	0xbeca4779	-0.39507654
201	0xbcacb562	-0.021082584
202	0x3e089fa0	0.13342142
203	0x3e5d921f	0.21637772
204	0x3e2127e3	0.15737872
205	0x3ee4052a	0.4453519
206	0xbeb6357c	-0.3558768
207	0xbe80c0b3	-0.25147018
208	0xbe77bbc2	-0.24192718
209	0xbcacb9eb	-0.021084746
210	0xbf55f825	-0.83581764
211	0xbe00535c	-0.12531799
212	0x3f24a31a	0.64311373
213	0xbf062edd	-0.5241526
214	0xbbbf2c2c	-0.005834123
215	0x3eb4de3d	0.35325804
216	0x3ef615ca	0.480635
217	0x3f2bd3ce	0.67120063
218	0x3db43e0b	0.08800896
219	0xbee51ebd	-0.44750014
220	0x3f1a8fdc	0.6037576
221	0x3cef4408	0.029207245
222	0x3f24a643	0.64316195
223	0xbea3bf6c	-0.3198198
224	0xbe90e19a	-0.2829712
225	0x3dc1b599	0.09458465
226	0x3e7b16d5	0.24520428
227	0x3e1e657e	0.15468404
228	0x3e3c5a44	0.18393809
229	0x3f264a12	0.6495677
230	0xbd8381c0	-0.06421232
231	0xbd80e534	-0.06293717
232	0x3f069e46	0.52585256
233	0xbe016a72	-0.12638262
234	0xbe89b3a3	-0.26894864
235	0xbe192b6a	-0.14957967
236	0x3f238cd2	0.6388675
237	0x3d67f90c	0.056633994
238	0xbede4ef5	-0.43419614
239	0xbdef5e01	-0.11687852
240	0xbd9b0072	-0.07568444
241	0xbf338a53	-0.7013294
242	0x3e5ec92c	0.21756428
243	0xbec61458	-0.38687396
244	0x3ee36177	0.44410297
245	0x3e94b4ca	0.2904418
246	0xbe021611	-0.1270373
247	0x3ec8e197	0.3923461
248	0xbdbb3be8	-0.091422856
249	0x3ec81e69	0.390857
250	0xbf27c308	-0.6553197
251	0x3eab8a35	0.3350388
252	0x3eb9bc78	0.36276603
253	0x3fbb23bc	1.462028
254	0x3f7b0af7	0.98063606
255	0xbebffce0	-0.37497616
