course3-rnns/problematique/model.pt (torch, 77568 bytes, 23 tensors)

weight f4 [29, 25]
000000 2e 9e ad bc 89 5f 93 bf c7 7d 88 3f 7b ea b8 3e
       -0.02119359 -1.151353 1.0663384 0.36116394
000010 a2 da 00 40 14 ac 80 be 3f 58 f1 be 91 e6 2a bf
       2.0133443 -0.25131285 -0.4713764 -0.66758066
000020 4c c1 be bf a4 2f b9 bd 8b 64 b9 be df 20 ad 3c
       -1.490274 -0.0904229 -0.3620952 0.021133838
000030 af 02 fd 3d 36 87 3f 3f 5f d6 28 bf df 0c 3b bf
       0.123540275 0.7481569 -0.65952104 -0.73066515
000040 c3 18 7a 3f 00 23 11 40 1b 09 3c 3e 96 c1 ed bf
       0.97694033 2.2677612 0.18362848 -1.8574703
000050 17 89 81 3f da 36 d4 3f f2 77 99 bf 5d 0f 9c bf
       1.0119962 1.6579239 -1.198973 -1.2192189
000060 32 82 48 3f 14 b5 3e 3e 27 11 c6 3f c8 8d 13 3f
       0.7832366 0.18623763 1.5473984 0.57638216
000070 a6 d3 94 bf 8e 4a d8 3f 66 bf 4a bf 14 5e 72 be
       -1.162709 1.6897752 -0.791983 -0.236687
000080 d3 31 e5 bf c9 27 10 c0 0b 20 83 be 02 44 77 3f
       -1.790583 -2.2524283 -0.25610384 0.96588147
000090 b5 1b 2b 3f 9e 56 fb 3e f7 a9 d4 bf 1a 49 94 3d
       0.6683915 0.4908952 -1.6614369 0.072405055
0000a0 1e 9f 2e be 69 7b ba bf c4 bb d4 bf 35 0f 39 3f
       -0.17052886 -1.4568912 -1.6619802 0.7228883
0000b0 da b1 af 3f b1 5b 51 3e ed 98 35 be 50 ef 99 3f
       1.3726151 0.20445134 -0.17734118 1.2026157
0000c0 94 e5 9e 3f 2d a0 f4 3f ff dc 9e 3f aa fc c3 3f
       1.2413812 1.9111382 1.2411193 1.5311482
0000d0 86 30 25 3f 67 c0 e1 3e 45 d6 65 bf 60 d9 a5 bd
       0.64527166 0.44092104 -0.89780074 -0.080981016
0000e0 71 be 5e bf 3c c8 13 be 5f 07 bb bf b7 62 84 3f
       -0.8700934 -0.14431852 -1.4611624 1.0342625
0000f0 19 98 3b bf 11 2e a1 bf bc 06 29 3f 66 b8 81 bf
       -0.7327896 -1.2592183 0.660259 -1.0134399
000100 11 8c 2e 3f a0 45 8a be 11 9c 1e 3f 6f 18 8e be
       0.68182474 -0.27006245 0.6195689 -0.27753016
000110 bb eb dd 3f 48 0c 37 bf ae 2a a2 bd 84 a5 25 c0
       1.7337564 -0.71503115 -0.07918297 -2.5882273
000120 cc ad 89 bf 5a e0 03 bf 4d 7c 46 3e d7 36 d3 be
       -1.0756164 -0.5151421 0.19383354 -0.41252777
000130 ac 60 5b 3e 24 79 ec 3d 0e 4f 9d bd 4c 62 fe be
       0.21423596 0.11546543 -0.07681094 -0.4968437
000140 b1 a0 6c bf 30 9e 81 3e 00 f5 13 bf cd e3 a0 3f
       -0.92432696 0.25316 -0.57795715 1.2569519
000150 24 2f 13 3e ef b8 3f 3c ee 1d f7 3e f1 6d 57 3e
       0.14373451 0.011701806 0.48265022 0.21038033
000160 7f 53 3f be e5 43 cc 3f c9 a2 11 c0 26 c4 ab be
       -0.18684195 1.595822 -2.2755606 -0.33548087
000170 ed c1 43 bf 0e 66 e2 bd 81 2d 33 bf a6 a2 30 3f
       -0.7646778 -0.11054622 -0.6999131 0.6899818
000180 82 b4 6b bf 39 0b 92 3f 2e c5 99 bf f0 f6 72 3f
       -0.9207231 1.1409675 -1.20133 0.94908047
000190 52 c6 96 3e f3 75 a7 3f e0 c4 3f be f6 2d b7 3f
       0.2944818 1.308287 -0.18727446 1.4310901
0001a0 b6 c7 5b 3f 28 bf 40 3f 51 c4 22 bf f6 24 20 bf
       0.8585161 0.7529168 -0.63580805 -0.625564
0001b0 2d f0 28 be 3c 22 07 bf 65 21 cb bf 5a 38 1e 3e
       -0.1649787 -0.5278661 -1.5869566 0.15451184
0001c0 05 53 04 40 0e 08 e6 bf 57 e9 c5 bf 95 8d 62 3d
       2.067567 -1.7971208 -1.5461835 0.055310804
0001d0 fa 53 bb 3f 1f 16 e7 be 22 5a ff 3f 8c 50 88 3f
       1.4635003 -0.45134065 1.9949381 1.0649581
0001e0 28 91 8d 3f 6e 70 57 bf a1 51 3b 3f e9 96 50 3f
       1.1059923 -0.8415593 0.7317143 0.8148027
0001f0 d2 78 a4 3d fb 4d b3 3d 27 b9 63 bf 65 a0 97 bf
       0.08030857 0.08755108 -0.88954395 -1.1845824
000200 95 45 b3 be 5f 07 19 3f c7 9c 47 be 37 9f c1 3f
       -0.35014024 0.5977687 -0.194934 1.5126714
000210 cb 33 fe bf bb a6 a6 3e 53 62 87 3e b8 14 ff be
       -1.9859556 0.3254908 0.26442203 -0.49820495
000220 ed 02 be 3e 21 7b e1 3e 69 7e ec be 49 cc 59 3f
       0.37111607 0.44039252 -0.46190193 0.8507734
000230 00 8f a6 be a3 f2 b5 3e 1d 08 be 3f 1b 7f f6 3e
       -0.32530975 0.3553668 1.4846226 0.4814385
000240 d1 58 11 40 50 a3 65 3c d2 e6 2b 3f b2 34 eb bf
       2.271046 0.0140159875 0.6714908 -1.8375456
000250 f1 8b 0a bf 74 75 f5 3e 8c c9 1f 3e 16 33 7e 3f
       -0.54119784 0.47941172 0.15604228 0.992967
000260 0d 85 a9 3f 0f c2 90 3e bb e3 84 bf c6 ff 13 3f
       1.3243729 0.28273055 -1.0381998 0.57812154
000270 f8 5d 03 3f f3 fb df bd 1d e7 2b 40 7a d1 83 3d
       0.5131526 -0.109367274 2.685981 0.06436439
000280 62 d2 91 bf fa 2c be 3d 88 ad 50 3f 66 55 b1 bd
       -1.1392329 0.09285922 0.8151479 -0.086588666
000290 d1 2a 45 bf 47 eb 2e bf fb c9 28 3e 53 c4 aa 3f
       -0.7701846 -0.68327755 0.164833 1.3341163
0002a0 63 be 65 3f 12 af b3 bd b3 02 8d 3f fb 16 1e 3f
       0.8974363 -0.087736264 1.1016449 0.61753815
0002b0 27 19 57 3f c4 d1 1c bf 03 8e 6a 3f d0 f8 8a be
       0.84022754 -0.61257577 0.9162294 -0.27142954
0002c0 d0 3d ec be 12 f0 81 3e 6b 37 ad be 1c 47 3a 3f
       -0.4614091 0.25378472 -0.33831343 0.72764754
0002d0 aa d3 2c be 0b 8d 3d 3f 78 24 79 be 08 9f e0 3e
       -0.16877618 0.7404334 -0.24330318 0.4387133
0002e0 8e 70 4e 3e de 4c bc 3e d7 89 11 bf 6e 27 86 bd
       0.20160124 0.36777395 -0.5685095 -0.06550489
0002f0 46 3c 7e 3f bd f3 08 be 3f 95 93 bf 7d a8 85 bf
       0.9931072 -0.13374229 -1.1529921 -1.0442044
000300 2b 57 37 bf 92 77 b7 3f 95 e9 4c 3f 55 8f 49 3e
       -0.7161738 1.4333365 0.8004392 0.19683583
000310 ef 59 3a 3d 25 95 84 bc b4 cf d1 3e 6d 32 5c 3f
       0.045495924 -0.016184399 0.40978777 0.86014444
000320 c0 90 1c bd 25 1a 87 3f fa 17 d1 bd b8 b2 30 40
       -0.03822398 1.0554854 -0.10209651 2.7609081
000330 b2 68 bd bf 13 3c 53 3d 49 d9 14 3f d2 4a 8e 3e
       -1.4797575 0.051570963 0.5814405 0.27791458
000340 6d e4 f2 3e 14 70 84 3f 45 36 0b 40 64 70 46 c0
       0.474399 1.0346704 2.1751873 -3.1006098
000350 05 16 7e 3d 7e 0d 3a bf cc 72 cb bf 67 e5 5c 3e
       0.06203272 -0.7267684 -1.5894408 0.21571885
000360 3d 0a dc 3f 2e 68 36 3e 38 06 af 3f 32 fe 3f 3f
       1.7190624 0.17813179 1.3673773 0.74997246
000370 49 3f 82 bf 00 31 4d 3f aa a1 37 3f a7 0b 53 bf
       -1.0175563 0.80152893 0.71731055 -0.82439655
000380 42 e1 54 bf b0 bd 02 be 30 ff 28 3e b3 e5 34 3f
       -0.83156216 -0.12767673 0.16503596 0.70662993
000390 b9 77 32 3f ca ce c4 3e b4 24 f5 3f d7 d9 a5 be
       0.6971393 0.38439018 1.9151826 -0.3239276
0003a0 a8 ac b3 bd fc 5c d8 3d 30 1f d8 3f 18 e1 a9 3b
       -0.08773166 0.1056461 1.6884518 0.005184304
0003b0 06 de 33 3f 3f 20 ea 3e 60 6f ff bf 77 91 0f c0
       0.70260656 0.45727727 -1.9955864 -2.2432535
0003c0 a6 1c e9 3d 32 22 e4 3e c3 be 45 3e c6 e9 8a 3d
       0.113824174 0.4455734 0.19311051 0.0678287
0003d0 6b 2c 33 bf 6b 4e fb bf c8 c6 c7 3e 85 b5 d3 3f
       -0.6998965 -1.9633306 0.39018846 1.653977
0003e0 4f 15 20 3f e4 69 2a 3f 78 ff a3 3d 5c c6 5f 3f
       0.62532514 0.66567826 0.08007711 0.8741205
0003f0 69 b4 64 3f a2 a1 a4 be 9f 9a 90 be 80 07 f9 bf
       0.89337784 -0.32154566 -0.28242967 -1.9455414

weight_ih_l0 f4 [75, 2]
000000 1c f3 42 bf ca c8 87 3f 2b a0 d2 be 2d 6b 2f 3f
       -0.76152205 1.0608151 -0.41137823 0.6852291
000010 42 1c 8b bf 7f 8f 59 3f 43 70 34 be 7a 6b 5d bf
       -1.0867999 0.8498458 -0.1762095 -0.8649212
000020 2a ea c5 bf ad 7e 3d 3f bf 57 fa be de 6b 0b c0
       -1.5462086 0.74021417 -0.4889507 -2.1784587
000030 02 2f 44 bf f6 51 72 3f 3f ed 09 bf ee 36 88 be
       -0.7663423 0.9465631 -0.53877634 -0.26604408
000040 f9 00 35 bf 9a a6 eb be a5 30 81 be 7d 36 63 be
       -0.7070461 -0.46025544 -0.25232425 -0.22188754
000050 5c 5d 74 bf 2b b2 13 bf 80 55 21 3d 34 43 31 3f
       -0.95454955 -0.5769374 0.03938818 0.6924317
000060 8a 2c 2e bf 33 ca 82 bd 88 d8 72 c0 c1 7f 82 3f
       -0.6803671 -0.06386223 -3.794466 1.0195237
000070 ee c8 80 bf 56 92 9a 3d 57 6d 05 c0 e0 02 d8 bd
       -1.0061319 0.075474426 -2.0847986 -0.10547423
000080 28 9e 09 bf 7f bc c3 3f 96 23 ba c0 58 a1 81 be
       -0.5375695 1.52919 -5.816844 -0.25318408
000090 db fb a6 be 3b 82 30 40 88 c4 4e bf cc 9a 0e 40
       -0.32614025 2.7579486 -0.8076863 2.228198
0000a0 5c a0 02 c0 c7 f5 67 bd 0b bb 99 be 7b 03 73 3f
       -2.0410376 -0.056630876 -0.30025515 0.94927186
0000b0 73 66 a0 bf b2 43 ce 3e 94 e2 c0 bf 25 73 d8 be
       -1.2531265 0.40286022 -1.5069146 -0.42275348
0000c0 e8 c2 3d bf 79 df b1 3e ab f3 8b be 89 5c 6b 3f
       -0.7412553 0.3474081 -0.2733434 0.9193807
0000d0 3f 71 a7 3f 82 de 40 be 9a 02 34 3f 44 30 80 3e
       1.3081435 -0.1883488 0.7031647 0.25036824
0000e0 be 11 74 3f c6 e0 17 bf 97 10 17 c0 f0 f8 a8 bf
       0.9533957 -0.5932735 -2.3603876 -1.320097
0000f0 41 0a 3b bf f7 ed ba bf 37 f6 08 bf 63 47 01 bf
       -0.7306252 -1.4603871 -0.53500694 -0.5049955
000100 88 28 39 bf 54 ae 1c 3f 4d 04 97 3e d1 c1 dc bf
       -0.7232747 0.61203504 0.2949547 -1.7246648
000110 01 c7 1a bf b2 e0 41 bf 2b 8b 9a 3f ee c8 92 bf
       -0.60459906 -0.7573348 1.2073721 -1.1467569
000120 c8 7d 6a 3f 36 a0 4c 3e 50 5f 7f 3f df 70 44 3e
       0.91598177 0.1998299 0.9975481 0.19183682
000130 fa 89 01 c0 54 c0 5e bf 60 a6 1b bf 9d 8d 9b bf
       -2.0240464 -0.8701222 -0.60800743 -1.2152592
000140 a3 be 6b bf 8b b2 b8 3d 99 51 df be 2d 60 12 3f
       -0.92087764 0.09018429 -0.43616942 0.57178
000150 f1 c9 ed 3f 2d ed a1 bc 95 d8 3f bf e4 d4 b4 3f
       1.8577253 -0.019766415 -0.7493985 1.4127469
000160 98 bb 9f 3e 09 ac 6d bf a2 fb d6 3f 27 01 25 bf
       0.3119781 -0.9284063 1.6795542 -0.64454883
000170 f6 00 bd 3f 99 18 6a be e2 99 4b 3f d3 6a a2 be
       1.4765918 -0.22860946 0.7953168 -0.31722125
000180 2f 35 ab bf bf f2 21 bd 33 fd d5 3f dc 86 3a 3e
       -1.3375605 -0.03953814 1.6717895 0.18215507
000190 9c 72 03 bf 13 e7 2e be 39 86 68 3c 24 18 e8 3e
       -0.51346755 -0.17080335 0.014192157 0.45330918
0001a0 4c d4 99 bf 8a 65 44 be 0e 99 89 bf 59 cd a0 bd
       -1.2017913 -0.19179359 -1.0749834 -0.07851667
0001b0 b4 21 3f bf 53 65 13 3f ef 6e ac be 0d 4e 00 bf
       -0.746608 0.57576483 -0.33678386 -0.50119096
0001c0 b1 8f 8c 3f 40 3a 00 bf ff ca 36 3f 9d cb 00 3f
       1.0981351 -0.5008888 0.714035 0.5031069
0001d0 43 bc 2a 3f 42 8c 99 3e 44 ad 00 be 3e 61 8c bf
       0.66693515 0.2998982 -0.12566096 -1.0967176
0001e0 f4 51 2d 3f 76 45 84 3f c8 6b 24 bf 39 90 b9 be
       0.67703176 1.0333698 -0.6422696 -0.36242846
0001f0 3e ad 61 3f 60 e0 42 be ec 44 dc be e1 f6 97 3e
       0.8815497 -0.19030905 -0.43021333 0.2968054
000200 77 2a 01 3b 11 99 6f 3e 04 40 90 bf d9 81 51 be
       0.001970915 0.23398234 -1.1269536 -0.20459689
000210 dc 04 55 bb b7 f5 ac bf 88 e5 78 3f 0a 6d a4 be
       -0.0032504117 -1.3512486 0.97225237 -0.3211444
000220 bc 81 93 3d bc 12 92 3f 64 f3 3c be d5 fc 3f 3e
       0.07202479 1.1411967 -0.18452221 0.18748792
000230 de 9f a1 be 11 14 78 bf 8b da 13 3f 26 9b dc bc
       -0.3156728 -0.9690562 0.57755345 -0.02692945
000240 10 18 3c bf aa 8c 11 be 74 25 5b bf 63 68 0b be
       -0.73474216 -0.14213815 -0.85604024 -0.13614039
000250 1f 68 26 bf a9 48 67 3e
       -0.65002626 0.22586311

weight_hh_l0 f4 [75, 25]
000000 5c a6 ee bf 59 92 6b 3f 5f 7d 3a 3f ad 9b bc 3e
       -1.8644519 0.92020184 0.7284755 0.3683752
000010 65 77 59 3f 9f ec 32 bf 6a de 6f bf 59 d5 fc 3f
       0.84947807 -0.69892305 -0.9369875 1.9752609
000020 e8 e9 51 3f 3b 97 09 bf 37 b5 de 3e d8 72 08 c0
       0.8199754 -0.53746384 0.4349763 -2.1320095
000030 fb 07 1a 3d 20 c6 ba 3e e6 6e 6c bf c2 6f 1a bf
       0.037605267 0.36479282 -0.9235672 -0.6032678
000040 56 b0 2b c0 a7 52 30 bf 33 02 63 3f 63 7d 8a be
       -2.6826377 -0.6887612 0.8867523 -0.27048787
000050 82 05 4d 3e 67 ff bc 3e c0 96 1f bf 80 4a 5c bd
       0.20021632 0.36913607 -0.623394 -0.053781986
000060 7d 8a 43 be 78 49 51 be 55 ff 0c 40 6d 62 50 bd
       -0.19095798 -0.20438182 2.2030842 -0.050875116
000070 f5 9c 93 3f f2 ce c5 3e 6f f5 15 bf d9 f7 70 bf
       1.1532274 0.3863445 -0.58577627 -0.94128186
000080 a0 b6 92 3f 49 d8 b4 be ab 24 7c 3f 98 79 82 3f
       1.1461983 -0.35321262 0.9849345 1.0193357
000090 64 79 a2 3f 07 e5 5b bf f5 08 66 be 4c aa 0c bf
       1.2693295 -0.85896343 -0.22464354 -0.5494735
0000a0 40 05 62 3b 88 8e 8a bf 4f ad c2 bd 1f 96 80 3f
       0.0034487993 -1.0824747 -0.09505712 1.0045813
0000b0 97 37 66 bf 11 6f 3a bf 16 f6 19 be f5 b9 15 bf
       -0.89928573 -0.72825724 -0.1503528 -0.5848687
0000c0 ea e1 bc 3e 28 17 5e 3f 85 88 33 3e 13 d0 0e 3f
       0.3689111 0.86754084 0.17532547 0.55786246
0000d0 ed 54 6d bf 06 8e e1 3d ae 70 97 3f 23 1f fb bf
       -0.9270771 0.11013417 1.1831262 -1.9618877
0000e0 82 5c aa bf 96 0c 2c 3f 5e 92 d3 3e f2 d2 be 3d
       -1.3309481 0.67206705 0.41322607 0.093175784
0000f0 b4 8e 61 be 43 16 38 3e 44 de 8e 3f 4e c1 13 3e
       -0.22027093 0.17977242 1.116158 0.14429209
000100 a5 12 c5 3e b8 2a 9a 3c 2a 2c 13 bf 6c 01 09 40
       0.38490787 0.018819198 -0.57489264 2.1407118
000110 e4 b7 20 3f 91 73 03 bf be 01 11 bf cf a3 ee 3d
       0.62780595 -0.51348215 -0.56643283 0.11652338
000120 09 59 d1 be c0 3a 4a be ea eb b5 3f 2f 9c 21 be
       -0.4088824 -0.19748974 1.421262 -0.15782236
000130 2a e1 15 bf b0 12 e6 be ef b3 29 c0 2c 2a 9b bf
       -0.585467 -0.44936132 -2.6516073 -1.2122245
000140 1b 6f 77 3f af 74 b0 3f d1 a4 ce 3e 77 bf 80 3d
       0.9665391 1.3785609 0.4036012 0.06286519
000150 8f c9 91 3f 50 88 67 bf b7 40 54 3e 94 d0 dd 3f
       1.1389636 -0.9044237 0.20727812 1.7329278
000160 cd 3e dd bf 2f c6 e3 3e 01 f3 87 be 64 42 c5 3e
       -1.728479 0.4448714 -0.26552585 0.38527215
000170 86 df 34 3e 82 1e 0d bf 27 10 8c bf 39 30 42 be
       0.17663392 -0.55124676 -1.0942429 -0.18963708
000180 99 71 a7 3f f7 ff 8a 3f 2e 7f de be 61 35 d2 3d
       1.3081542 1.0859364 -0.43456405 0.102640875
000190 4b 3b 1e 3f 43 fb 68 be 67 61 9a 3e 21 95 80 3e
       0.61809224 -0.22752099 0.30152437 0.25113776
0001a0 cf c7 81 bd 66 04 ed 3e b2 40 7d 3e c8 2c 25 3f
       -0.063369386 0.46292418 0.2473171 0.64521456
0001b0 27 c9 99 be da 48 c3 3f 35 54 60 3d 16 95 d7 be
       -0.3003628 1.5256608 0.054767806 -0.4210593
0001c0 8f e4 18 be 00 c1 9b be c9 f0 a1 3f 1c 5a 0c bf
       -0.14930938 -0.30420685 1.2651607 -0.54824996
0001d0 d9 1f 43 3d f4 ee 1a 3f 38 67 3d bf 0c 8d 5d be
       0.047637794 0.60520864 -0.73985624 -0.21635836
0001e0 3e 07 1a 3f f5 b8 4d 3e f3 1f 09 3e ca 8b b4 3e
       0.601673 0.20090087 0.13391094 0.352629
0001f0 d8 94 d4 3f 2c 64 1d 3f 5c 67 96 bf 67 94 54 3f
       1.6607924 0.61480975 -1.1750293 0.83038944
000200 06 c4 7e 3e 10 b6 77 bf 02 b2 13 3f d6 c9 ab 3f
       0.24879465 -0.9676218 0.57693493 1.342097
000210 0e 96 b3 be a1 86 a6 bd 69 a6 3f 3e 64 38 37 bf
       -0.3507542 -0.08131147 0.18715824 -0.7157042
000220 9f 25 ac 3f 92 70 06 bf e0 84 63 bf 1b 7f 1d be
       1.3448981 -0.5251552 -0.88874626 -0.15380518
000230 45 f2 54 3f 8a 8b 0c 3f 8d d9 c7 3e 37 41 f1 be
       0.83182174 0.5490042 0.39033166 -0.47120067
000240 27 f5 24 be 78 7a f9 bf 2d 47 19 bf ba b5 a6 be
       -0.16109143 -1.94905 -0.5987423 -0.3256052
000250 e9 fa d8 3e 6a 85 0d be 7a fc 62 3d 3f 2f 21 3f
       0.4237893 -0.13820425 0.05541656 0.62962717
000260 66 3a 5c be 37 b4 ba be 56 5a 8d 3f d2 9f 2d bf
       -0.21506652 -0.36465618 1.1043193 -0.6782199
000270 02 bb 80 3e 63 87 02 3f 53 eb 39 be 98 08 d1 3e
       0.25142676 0.50987834 -0.18156175 0.4082687
000280 16 aa 6d bf fb b6 7c bf 3c 89 9f 3f 98 7c 4c bf
       -0.92837656 -0.98716706 1.2463756 -0.79877615
000290 a7 02 4b 3f c2 93 08 3e dd 76 2a be 10 65 c3 3f
       0.7930092 0.13337615 -0.16646905 1.5265217
0002a0 aa 6a 2d bc ed 4d 06 be 49 2a 96 3e d1 f5 81 bf
       -0.010584513 -0.13115664 0.29329136 -1.0153142
0002b0 eb 8b 43 3f 3d 64 cc bd 3a 2c df 3e 5a 17 1d 3e
       0.7638537 -0.099800564 0.4358843 0.15340939
0002c0 10 35 c4 be c3 31 65 be 7b 24 bf bd 1e 1e 72 bf
       -0.38321733 -0.22382264 -0.0933313 -0.94577205
0002d0 0e d0 1a 3f 73 dd 47 3f 52 36 51 3f f3 69 df 3d
       0.60473716 0.7807228 0.8172351 0.1090888
0002e0 ab da b3 3c d9 a5 2a bf 47 de 85 3f c1 f6 84 3e
       0.021954855 -0.66659313 1.0458459 0.25969508
0002f0 77 eb d0 be b5 e8 16 bf 3e fd cf be a0 9f 4d 3f
       -0.40804645 -0.5894883 -0.40622896 0.80321693
000300 04 1b c3 3f 3a aa 6d bf 4f 55 2d 3e 2d 76 76 bf
       1.524262 -0.9283787 0.16927074 -0.9627407
000310 b5 25 b7 bf 79 b6 19 bf e2 10 84 3c ea 01 ac bf
       -1.4308382 -0.60044056 0.016121332 -1.3438084
000320 31 e0 cf 3d 71 66 2c 3e c4 b7 92 be c9 62 b3 be
       0.10150183 0.16835953 -0.28655827 -0.35036305
000330 11 13 4d bc d6 87 e3 be 98 44 39 3f c8 20 e7 be
       -0.012516753 -0.44439572 0.7237029 -0.45142198
000340 06 bc bd bf f4 32 05 be a2 d6 5e 3f 11 cf 57 3e
       -1.4823005 -0.13007718 0.87046254 0.21075083
000350 02 45 24 be 7d 8f e1 be 16 47 03 be 21 0c 8f be
       -0.1604195 -0.44054785 -0.12820086 -0.2793894
000360 0e 55 53 3e 33 4c 94 be 8a c6 c7 3e 21 df 9c be
       0.20637915 -0.28964385 0.3901866 -0.30638984
000370 11 b1 9a 3f 85 48 d2 3d be c0 75 bf 57 0e 4f 3e
       1.2085286 0.10267738 -0.95997226 0.20220314
000380 76 b3 c5 3e 0b 8b 4c bf 30 d4 9a bf 7b f8 66 bf
       0.3861348 -0.7989966 -1.2096004 -0.902229
000390 a7 05 12 c0 6e b6 1b 3e 8c 88 2c bf 42 98 6b 3f
       -2.281595 0.1520631 -0.67395854 0.920292
0003a0 7b b6 9d be 25 59 94 3e af 6c c9 bf 19 58 12 c0
       -0.30803284 0.28974262 -1.5736293 -2.286627
0003b0 8e 7a 2e 3f 5e 4a 35 bf 70 bc 1e bf dd 87 a2 3f
       0.68155754 -0.708166 -0.6200628 1.2697712
0003c0 d6 10 d0 3e 37 57 20 3d 2f fe e0 bc f3 c5 9a 3f
       0.40637845 0.039145675 -0.027464954 1.2091659
0003d0 2f 65 8b bf 40 73 c4 3d 41 44 d3 bf e3 35 8c 3f
       -1.0890254 0.09592295 -1.6505204 1.0953945
0003e0 41 a5 b2 be 63 10 e3 bf 0f 35 4f 3e 57 4b 48 3e
       -0.34891704 -1.7739376 0.20235084 0.1955999
0003f0 e7 bb e9 bc ef bc a4 3e d6 88 03 3f 62 ad 96 3f
       -0.028531982 0.32175395 0.5138067 1.1771662

bias_ih_l0 f4 [75]
000000 06 12 14 bf 86 06 0b bf e9 b6 d0 be 59 24 f3 be
       -0.5784 -0.5430683 -0.4076455 -0.4748867
000010 b1 85 c1 bf 4c 6e 8b be 6e f8 08 bf d4 75 1b bf
       -1.5118924 -0.27232587 -0.53504074 -0.60726666
000020 00 e9 26 bf ab f4 5a 3e 34 b6 92 be cc 88 17 3e
       -0.6519928 0.21382396 -0.28654635 0.14798278
000030 f7 29 79 bf 54 db da be 1a 5e a8 be 1a d0 05 bf
       -0.9732966 -0.4274546 -0.32884294 -0.5227066
000040 b6 f5 39 bf 79 7c 8d bf 22 01 fd bc 97 59 20 bf
       -0.7264055 -1.1053611 -0.03088433 -0.62636703
000050 69 63 ab bf 28 d0 78 bb 4d 37 08 bf 00 dd 52 bf
       -1.3389713 -0.0037965868 -0.5320938 -0.8236847
000060 bc eb 96 be 0c 78 a7 bd be b5 c6 3f 2c 79 7a 3d
       -0.29476726 -0.08177194 1.5524213 0.061150715
000070 09 51 7e be 73 c6 32 bf 95 60 13 bf 5f 2c 3f bf
       -0.248356 -0.6983406 -0.5756925 -0.7467708
000080 01 79 4e 3e 69 da 9f bf 5b 3d e8 3e 79 92 ad bd
       0.20163347 -1.2488528 0.4535931 -0.08475203
000090 26 3e a1 3f 42 1a 26 3f bd a5 d0 be 3d cb 51 3e
       1.2597091 0.64883816 -0.40751448 0.20487686
0000a0 f0 10 6b bf 60 0a fe 3d c8 ef f6 3f b1 a9 20 3e
       -0.9182272 0.124043226 1.9291925 0.15689732
0000b0 08 e6 ba 3f 17 29 43 3f 12 27 b2 3f 5b 90 30 bf
       1.460145 0.76234573 1.3918173 -0.6897027
0000c0 b8 e1 cf bd ff 2c 88 3f 40 2f c1 3e ab 39 41 bd
       -0.10150474 1.0638732 0.3773136 -0.047174137
0000d0 e6 1d 29 3e dc 7b af 3e 2f 4c 98 3e 92 64 19 3e
       0.16515312 0.34274185 0.29745623 0.14979771
0000e0 1f 45 36 bd fb be 6a be 6a e7 ea be f5 c1 ee 3d
       -0.044499513 -0.22924416 -0.4587968 0.11658088
0000f0 36 e1 89 be 28 15 54 be 95 36 7d be 04 e7 0f 3e
       -0.26929635 -0.20711195 -0.24727853 0.14052969
000100 0a 1c 8d 3e 2a a9 02 3f f1 56 04 3e 90 69 13 be
       0.27560455 0.51039374 0.1292379 -0.14395738
000110 2f 5c e6 be 56 1c 38 3e 5c 51 e2 3e 61 e0 23 3f
       -0.44992206 0.1797956 0.44202697 0.6401425
000120 21 5d 0b 3f af eb db 3e 74 ef 1a 3f
       0.5443898 0.4295325 0.60521626

bias_hh_l0 f4 [75]
000000 da 2f 8e be 76 5c 0e bf ca e5 9f be b8 75 ba be
       -0.27770883 -0.55609834 -0.31230003 -0.36417937
000010 4a 39 d6 bf 24 c8 dc bd 63 c6 f6 be 2c 5d 2e bf
       -1.6736233 -0.10780361 -0.48198232 -0.6811092
000020 bc 41 47 bf cc cc dc 3d 80 40 05 bf 55 6f 5e 3d
       -0.7783468 0.107812494 -0.52051544 0.054305393
000030 15 01 8a bf 7f 0c b7 be 13 ee 94 be e8 81 26 bf
       -1.078158 -0.3575172 -0.29087886 -0.6504197
000040 65 54 fd be d4 6f 8c bf 78 42 9e bd ac df a9 be
       -0.4947845 -1.0971627 -0.07727522 -0.3317846
000050 77 c2 ad bf 3f ae 48 be 81 f5 24 bf c4 1a 3c bf
       -1.3574971 -0.1959772 -0.6443711 -0.7347834
000060 e7 26 4c be fc 0d b8 be e3 6b c1 3f d0 ba 94 ba
       -0.19936715 -0.3594817 1.511105 -0.0011347178
000070 66 d0 96 be 85 48 34 bf 67 2d 0e bf 6a 09 e8 be
       -0.2945587 -0.70423156 -0.5553803 -0.45319682
000080 00 64 b5 3e 2f 2a 8e bf 2d 01 11 3f 54 59 d2 bd
       0.35427856 -1.1106623 0.5664242 -0.10270944
000090 a6 3d bd 3f 53 bf 37 3f 6e 89 69 be d0 75 89 3e
       1.4784439 0.7177631 -0.22806332 0.26847696
0000a0 1c c3 57 bf 0e 1b e2 bd 16 a0 e7 3f fa 0e 02 3e
       -0.8428209 -0.110403165 1.8095729 0.12701026
0000b0 22 a3 aa 3f 00 f1 80 3f 9d 73 bf 3f 4c 6a f0 be
       1.3331034 1.0073547 1.4957157 -0.46956098
0000c0 f5 f3 f6 bd 17 94 63 3f a1 82 e6 3a 1f ea 23 3f
       -0.1205825 0.8889784 0.0017586538 0.64029115
0000d0 d5 4a 20 3f ee 9b e0 3c 4f b0 0b 3f 1e b3 ec bd
       0.62614185 0.027418103 0.545659 -0.115576014
0000e0 02 93 3f bf c5 07 2d be 9b ac 9b 3e ea 92 c4 bd
       -0.7483369 -0.16897495 0.30405125 -0.09598334
0000f0 fc 32 30 3d 35 4c 84 3e b3 64 2c 3e 68 d2 5b 3f
       0.043017372 0.2583939 0.16835289 0.8586793
000100 90 e4 bb be d5 60 62 3f 30 49 b3 be 3d 84 ee 3e
       -0.36697817 0.88429004 -0.35016775 0.46585265
000110 7f f4 08 be 76 a5 3c bd 81 c3 04 3e 35 64 2d 3e
       -0.13374518 -0.046056233 0.12965204 0.16932757
000120 a2 13 98 3e 63 5c 2f 3f 06 57 af 3e
       0.2970248 0.68500346 0.3424608

weight_ih_l1 f4 [75, 25]
000000 7c 02 8d 3f 03 d3 67 be eb 93 1e 40 f6 18 58 be
       1.1016383 -0.22639088 2.4777782 -0.21103272
000010 bb 32 bb 3e 48 6f 55 3c 68 72 71 bf 10 d7 9e bf
       0.36562142 0.01302702 -0.94315195 -1.2409382
000020 ae 77 aa bf d5 a6 af 3f f3 1d 10 bf 8a 55 d5 3d
       -1.3317773 1.3722788 -0.562957 0.10416706
000030 da 74 99 3d 6b 92 49 3f a6 58 53 3f 28 a2 ff 3f
       0.07492991 0.7873904 0.8255714 1.9971361
000040 05 e9 1d 3f 11 e4 a5 bf f2 fe 47 bf aa 86 fb 3f
       0.61683685 -1.2960225 -0.7812339 1.9650471
000050 4d 18 c0 3f a0 a9 a6 bf eb fc 3b 3f 62 a6 03 40
       1.5007416 -1.3020515 0.734328 2.0570302
000060 2b 38 85 3f 07 24 22 3e 5e 9c c9 3e 7d a1 e5 3f
       1.0407766 0.15834056 0.3937711 1.7939907
000070 b5 31 20 be 88 a6 4f 3f 8e 2a 50 bf 1b c2 ac bf
       -0.15643962 0.8111348 -0.81314933 -1.3496736
000080 53 1b 09 3f 51 35 23 bd 8f a9 cc bf 83 bb dc bf
       0.5355732 -0.03984577 -1.5989245 -1.7244724
000090 53 d7 a9 bf fc 57 6f be 8b f4 9f 3f 19 a6 26 3f
       -1.3268837 -0.23373407 1.2496504 0.65097195
0000a0 86 12 e2 3f 9e 44 98 bf 82 75 4e bf df 51 e8 bc
       1.7661903 -1.189594 -0.8064805 -0.028359352
0000b0 9c 87 66 3f 93 1b 94 3f 9a be 88 3d 04 89 0d 40
       0.90050673 1.1570915 0.06676979 2.2114878
0000c0 fd 1b 3b 3f e8 06 de 3f 83 bf ac 3f cd 44 36 bf
       0.7308958 1.7345858 1.3495945 -0.7119873
0000d0 15 b0 71 3e 50 b7 c2 3e 09 1a b1 bf 29 18 2c 40
       0.23602326 0.3803048 -1.383607 2.6889746
0000e0 95 ef e6 3f 78 30 a4 bf 1b 65 64 bf 8d 75 bd 3f
       1.8041865 -1.2827291 -0.89216775 1.4801499
0000f0 06 e7 72 bf d6 eb f2 3d db 00 ad be 68 02 05 bf
       -0.94883764 0.118613884 -0.33789715 -0.51956797
000100 c5 c2 9f 3f 6b 45 59 be de 83 01 3e 20 b0 27 bf
       1.2481314 -0.21217887 0.1264796 -0.6550312
000110 f3 c4 c6 bf f5 c2 a7 bf b7 63 11 40 e3 50 31 3e
       -1.5528854 -1.3106371 2.271711 0.17316012
000120 f7 a3 49 be 3d 4e c6 3e 60 25 14 3f 26 96 9b bf
       -0.19691454 0.38731566 0.5786953 -1.2155197
000130 e9 d8 d7 3f 3e 0d 0e bf 78 cd 06 bf c9 96 b4 3c
       1.6863071 -0.55488956 -0.5265727 0.022044556
000140 52 6c a2 3f c0 44 9a be 2e 59 03 3f b1 1f 3a 3f
       1.2689307 -0.30130577 0.5130795 0.7270461
000150 d8 06 36 3f 94 42 cd 3f 05 ae 04 3f 76 b4 bc 3f
       0.7110419 1.6035943 0.5182803 1.4742572
000160 d7 4e d1 be 94 85 2f 3f 5d 76 ac bf 12 65 2a bf
       -0.40880463 0.685632 -1.3473622 -0.6656047
000170 53 14 9e 3e 99 82 27 3f 21 cf 3e bf ac 75 9d bf
       0.3087488 0.6543365 -0.74534804 -1.2301536
000180 0f ea 31 3d 3c ee bf be 47 68 9d bf 33 6b 88 bf
       0.043436106 -0.37486446 -1.2297448 -1.0657715
000190 26 c7 d8 be 5f fd 5c 3f f8 43 28 3e 99 7c 39 3d
       -0.42339438 0.86324114 0.16432178 0.04528484
0001a0 d6 95 87 3f 92 33 09 c0 e8 fc 2c bf 19 c5 98 3f
       1.0592601 -2.1437726 -0.67573404 1.193515
0001b0 71 9f 9d bd fa 59 10 c0 9d 31 2a 40 48 27 17 c0
       -0.07696427 -2.2554917 2.6592782 -2.3617725
0001c0 d2 44 21 bf ac 67 57 3f 60 3f 82 3e 13 1c cc 3e
       -0.62995636 0.84142566 0.25438976 0.3986517
0001d0 e3 f4 e5 be af f6 22 bf 22 ad f7 be bc ce cd bf
       -0.44913396 -0.6365766 -0.48374277 -1.6078715
0001e0 3e 89 05 3f a7 b1 b9 3c 9d 87 ce 3e aa ad 35 3f
       0.5216254 0.022667719 0.4033784 0.70968115
0001f0 91 48 8a 3e d3 4b f1 bf cf c4 0b bf 38 48 83 bf
       0.2700849 -1.8851265 -0.5459718 -1.0256414
000200 41 8e fb be b9 5c c0 bf 1e ca cc 3f aa d8 25 40
       -0.4913197 -1.5028297 1.5999181 2.5913491
000210 24 fa 94 3f 86 39 a6 3f c9 38 e5 3f 6b c5 bc bf
       1.1638837 1.2986305 1.7907954 -1.4747747
000220 7d 02 f9 3f 7b 8f 46 3f f9 3a b1 bf d5 4c 11 bf
       1.9453884 0.77562684 -1.3846122 -0.5675786
000230 6d 42 49 c0 43 7d fa 3e b5 45 5d bf de 11 c6 be
       -3.1446793 0.48923692 -0.8643449 -0.38685507
000240 02 75 44 3f fc f0 78 bf 55 8e e6 3f c0 9a 51 bf
       0.7674104 -0.9724271 1.8012186 -0.81876755
000250 f4 8b dd bf c7 09 79 3b 61 d6 a9 3f 79 8a 89 bf
       -1.7308335 0.0038000213 1.3268548 -1.0745384
000260 e7 62 2b bf 4c 46 a2 3f 24 9f 28 be de c2 ad 3f
       -0.6694779 1.2677703 -0.16466957 1.3575094
000270 d5 3b 90 3c ce 37 bb bf 0e 6b 20 c0 9b 70 40 3f
       0.017606655 -1.4626405 -2.506534 0.7517182
000280 f6 f0 c5 bf 0c f2 41 bf 06 22 d5 bf 88 b7 13 bf
       -1.546416 -0.7575996 -1.6651008 -0.5770192
000290 03 27 a9 3f c1 00 81 40 0c 6b 23 40 f6 c2 73 3e
       1.321503 4.031342 2.5534086 0.2380484
0002a0 f8 eb 9f be ee 1a 09 bf d0 fa be 3d 67 38 ad be
       -0.31234717 -0.53556716 0.093251824 -0.33832094
0002b0 5e 41 37 be 65 b2 4b 40 3c c5 87 3f aa 81 1b c0
       -0.1789603 3.1827633 1.0607066 -2.429789
0002c0 32 59 3c c0 3b c3 9f bf c6 43 d0 3f 3d f9 47 bf
       -2.942944 -1.2481455 1.6270683 -0.7811468
0002d0 e2 de f3 bd 51 04 b1 3f d9 6e bf be 7f 51 00 bf
       -0.11907746 1.3829442 -0.37389258 -0.50124353
0002e0 2a c1 46 bf 7a 9b 39 3f 6d f1 61 bf 39 49 23 3f
       -0.77638495 0.72502863 -0.8825901 0.63783604
0002f0 4c 42 b8 bf 6a c9 1b bf 64 6f 25 3d 3e e1 26 bf
       -1.4395232 -0.6085421 0.040389434 -0.6518744
000300 7e 41 83 3f 84 e1 84 3f 6c ce c6 3f 29 b0 38 3f
       1.0254362 1.0381322 1.5531745 0.721438
000310 28 3d 94 be 32 07 cf 3f cd 01 0b bf 6e 3b 47 3f
       -0.2895291 1.6174071 -0.5429962 0.7782506
000320 ce 29 69 3e 4f 71 b5 bf a0 26 91 3f af 45 dd be
       0.22769853 -1.4175204 1.1339912 -0.43217227
000330 17 ad 19 3e cd 69 13 bf cf e9 77 3f 7a aa 66 bf
       0.15007435 -0.57583314 0.9684114 -0.90103877
000340 b7 f4 3e 3e a3 04 8d 3e 50 47 c5 3f fa dd a6 3f
       0.18648039 0.275426 1.5412388 1.3036492
000350 4c 33 b8 3e 8f 84 d7 be b5 cb 79 3f 51 c7 6d be
       0.35976636 -0.42093322 0.9757646 -0.23220564
000360 91 84 36 bf 08 e7 30 bf ac 68 bc 3e 22 3f b3 3f
       -0.7129603 -0.69102526 0.36798608 1.4003642
000370 ed b9 14 bf d7 c0 bf bf b1 1e 48 bf db 53 54 bf
       -0.580962 -1.4980725 -0.7817183 -0.82940453
000380 29 1c ff bc b4 1d 9f 3e 96 1a e3 bf cb fa 0b bf
       -0.031141357 0.3107735 -1.7742488 -0.54679555
000390 2e 76 a6 3f b0 66 c7 be 68 07 a2 3f d2 d1 80 3f
       1.3004816 -0.38945532 1.265851 1.0064032
0003a0 27 a1 21 bd d1 5a df be 3a 43 a6 bf 52 b2 93 bf
       -0.039460327 -0.43623975 -1.2989266 -1.1538794
0003b0 1c 05 8f 3f a8 55 3a bf 23 00 bd be bf 0b aa 3e
       1.1173434 -0.7278695 -0.36914167 0.33212087
0003c0 c5 cc f5 3e 4f 09 a4 bf c9 7d cc be b7 55 8a 3f
       0.4800779 -1.2815341 -0.39939716 1.0807408
0003d0 63 5e 5d be 76 42 7f 3e 5f 20 4b bf 31 78 fb 3f
       -0.21618037 0.24927697 -0.7934627 1.9646055
0003e0 b6 b8 56 3f 7d 90 f2 3e 2e 9f 4f 3f e6 95 30 bf
       0.83875597 0.4737586 0.81102264 -0.68978727
0003f0 0b c7 04 40 01 9f 32 be 25 5c de 3e 74 f4 87 3f
       2.0746486 -0.17443468 0.43429676 1.0621476

weight_hh_l1 f4 [75, 25]
000000 0c f2 4c bf 21 63 21 be ed 66 fb 3e f7 02 99 3f
       -0.80056834 -0.15760471 0.49101964 1.195403
000010 38 dd 2b 3f 91 9f 4d be f1 da 2c 3e 68 5c f1 bd
       0.6713443 -0.20080401 0.16880395 -0.11785203
000020 78 5c 1d 3d b0 fc 7e 3f 9e 70 80 be 22 33 04 3f
       0.038418263 0.9960432 -0.2508592 0.5164052
000030 b2 30 e6 bf 8e 11 8c bf 06 0f 4f 3f e3 cc 8d 3e
       -1.7983611 -1.0942857 0.808823 0.2769538
000040 6a a4 e3 be ce 40 a5 be 6e 9d 57 3e 59 ec 34 3d
       -0.44461375 -0.32276005 0.21056148 0.04417071
000050 a9 c7 7a bf ae a4 b4 3f 42 dd 45 3e 1a e0 e9 3d
       -0.9796091 1.4112756 0.19322684 0.11419697
000060 13 a4 73 3e c5 ce fd 3e 5f d4 a2 3e 37 96 e0 3e
       0.23793058 0.49571815 0.3180265 0.43864605
000070 6e e4 26 3e 1d 7d c3 3d 92 d0 4c bd b0 78 b0 be
       0.16298077 0.09545348 -0.050003596 -0.34467077
000080 89 46 a6 3f 00 b9 db be a0 48 33 3e c1 bf 87 3f
       1.2990276 -0.4291458 0.17508173 1.0605394
000090 c0 8d 50 bf 74 58 e2 3d ae 35 93 be 7d b1 68 bf
       -0.81466293 0.11052027 -0.28751892 -0.90895826
0000a0 cd 3a e7 3e e2 75 a7 3e 71 4a 0b 3e 74 6a d8 be
       0.4516205 0.32707125 0.13602616 -0.42268717
0000b0 2a c2 ff bf 00 09 96 bf 8d fa 96 3f 2d 2a 8c 3f
       -1.9981129 -1.1721497 1.1795212 1.0950371
0000c0 04 f5 6a bf 0b 8f 0b be f5 a9 f9 3d 3d c3 3d bf
       -0.91780114 -0.13628785 0.1219062 -0.74126035
0000d0 b5 3a 8f 3e c9 a5 1a bf 1a c5 ac 3e 65 e0 e1 3e
       0.27974477 -0.6040922 0.33744127 0.44116512
0000e0 77 b6 3a 3e 32 42 dc 3e 46 d2 04 bf 9c 75 ca bf
       0.18233667 0.43019253 -0.5188335 -1.5817142
0000f0 da a8 59 3f c0 1a 40 3f 14 ee 23 40 80 3e 5c be
       0.8502327 0.7504082 2.5614061 -0.21508217
000100 d9 a4 c5 3e d2 5b 1b bd aa 4c 39 bf 16 f9 68 be
       0.3860233 -0.037929364 -0.72382605 -0.22751269
000110 c0 f7 44 3f 3f 96 9c bf 97 87 98 be ba 14 e7 bd
       0.76940536 -1.2233351 -0.29790947 -0.1128325
000120 89 2a 82 3b 99 61 55 bf 9f 63 9a 3f 30 0f ad 3e
       0.0039723557 -0.8335205 1.2061652 0.3380065
000130 f4 e9 c2 bf 03 46 73 3f cc 95 23 3f 59 56 a4 3f
       -1.5227647 0.95028704 0.63900447 1.2838851
000140 f6 05 35 3e 75 96 52 bf e6 11 64 bf 54 c4 a8 bf
       0.17678055 -0.8226083 -0.8908981 -1.3184915
000150 04 62 02 3e b4 8c 4c bf 80 83 05 3e 4f ce 5a bd
       0.12732702 -0.79902196 0.13038445 -0.053419407
000160 75 c9 21 3e c8 02 ae bf 6b 1d 12 be 8d 92 09 3f
       0.15799506 -1.3594599 -0.14269035 0.53739244
000170 d8 72 11 3f 59 e6 4a 3f bd 4c d0 3f 87 3d 1b 3f
       0.5681586 0.7925773 1.6273419 0.6064076
000180 4b a8 18 bf a5 43 77 3f 45 af d8 be 37 4d 90 3f
       -0.59631795 0.9658759 -0.4232122 1.1273564
000190 d1 d8 8e bf 3b 85 f9 3d 70 ac 11 3f d6 51 ea 3e
       -1.1159917 0.12183615 0.56903744 0.4576556
0001a0 c3 6a 27 c0 d0 56 2c 3f 4a cc 32 3d d9 81 b4 3d
       -2.6158912 0.67319965 0.043651856 0.08813829
0001b0 bb 5b ab bf 85 83 a3 bf a1 9a d9 3f a2 7e d2 3e
       -1.3387369 -1.2774512 1.7000314 0.41112238
0001c0 17 12 f0 bf 9f 41 86 3e 63 ed 72 be 3c 8b 05 bf
       -1.875552 0.2622194 -0.23723368 -0.5216558
0001d0 4a 0e 04 bf bf 21 e9 be d7 e6 23 bf 49 bf 87 bd
       -0.51584303 -0.4553356 -0.6402411 -0.066282816
0001e0 eb 68 2e be 37 43 8e 3e ef 18 84 3f 1e 9f bd 3f
       -0.1703221 0.27785656 1.0320109 1.4814184
0001f0 ee aa a6 3d 21 b1 7f bf 02 7d d5 3e 9c d5 fa be
       0.08138071 -0.9987965 0.41696936 -0.48991096
000200 a5 78 13 3f fe d0 38 bf 7c dc 2a 3f 4f 75 59 bf
       0.57605964 -0.72193897 0.6674268 -0.84944624
000210 d9 17 84 3e 13 5a 62 3e c0 7f 21 be 95 dc 24 bf
       0.25799444 0.22104673 -0.15771389 -0.6439908
000220 96 0f 5e be c6 c8 9a 3f 48 7b 90 3e b3 c1 d2 be
       -0.21685633 1.2092521 0.28219056 -0.41163406
000230 b8 9f ca bf fa 41 c7 3e b1 f3 ef 3e b7 bf 39 3f
       -1.5829992 0.38917524 0.4686561 0.7255816
000240 60 d9 24 bf b4 65 ac bf f3 7c 9d 3f 66 87 f2 3f
       -0.6439419 -1.3468537 1.2303756 1.894757
000250 e7 22 02 bd 07 a2 22 3f 09 c8 74 bd fe 5c 93 3f
       -0.031771567 0.63528484 -0.05976108 1.1512754
000260 66 61 e7 3e c5 12 41 3e 10 3e 42 3e 04 33 e3 be
       0.45191497 0.18854816 0.18968987 -0.4437486
000270 92 c7 01 be 02 66 73 bf 73 c4 8a 3f 0e 59 fa be
       -0.12673786 -0.95077527 1.0841202 -0.48896068
000280 14 f5 9f be 0c 2b 8e 3e 82 ac 65 3e 25 34 d3 be
       -0.31241667 0.27767217 0.22429088 -0.4125072
000290 cd 48 89 3f 52 e1 d5 be 24 0f 0f bf 33 40 91 bf
       1.0725342 -0.41773468 -0.5588248 -1.1347717
0002a0 1e 83 ac be bb c6 06 bf f2 b8 16 3f 83 6c ae bd
       -0.33693784 -0.5264699 0.58875954 -0.08516791
0002b0 48 66 6b 3d 54 4a 58 bf 9d 2e 1c bf 51 dc d2 bc
       0.05747059 -0.84488416 -0.61008626 -0.02573982
0002c0 3e 5b 77 3f fd d2 15 3f 4c 29 1f 3e 58 ee 49 c0
       0.966236 0.5852507 0.15543097 -3.1551723
0002d0 ce cc 2e 3f 6c 1d 86 bd f7 f5 9d bf 84 dd 9c 3f
       0.6828126 -0.065485805 -1.2340688 1.2255101
0002e0 c2 7e af bf 88 7c 9c be 6d c0 5d bf 25 27 da be
       -1.3710558 -0.3056376 -0.86621743 -0.4260799
0002f0 95 dd d1 3d ac e5 0d 3e 37 14 e5 be a4 78 e6 bd
       0.102473415 0.13857144 -0.44741985 -0.11253479
000300 16 1f 38 3f 5a 5b 0a 3f e5 12 9e bf 24 b5 17 3f
       0.71922433 0.5404564 -1.2349516 0.59260774
000310 2d 72 be bf a9 ee 82 bf e4 f2 09 be 66 98 86 3e
       -1.4878594 -1.0229083 -0.13471562 0.26288146
000320 d4 b9 19 bf 27 d6 b7 bf 46 7a aa be c7 93 b3 bf
       -0.60049176 -1.4362229 -0.33296412 -1.4029473
000330 c1 c5 0e c0 e2 11 44 3f 17 f6 0a 3f 40 96 5a bf
       -2.23082 0.76589787 0.54281753 -0.85385513
000340 ca bb c6 3f bd 42 57 3f 97 65 1c 3f 22 88 2a bc
       1.5526059 0.8408621 0.61092514 -0.010408433
000350 7b a5 d3 3f 76 42 8e 3e 33 21 cb be 6f 7d ab 3f
       1.6534876 0.2778508 -0.39673766 1.3397654
000360 88 b1 32 bf 1e 47 00 bf 0b d7 d0 bd 0e a4 51 3e
       -0.6980214 -0.50108516 -0.10197266 0.20472738
000370 5c 9c d3 bd ec 31 90 3f 9f 56 95 3d 66 ba 2d bf
       -0.103325576 1.1265235 0.07291912 -0.67862546
000380 c0 65 9b 3e 05 e1 92 bf e0 ec d0 3e 8a 7b a3 be
       0.30351067 -1.147492 0.4080572 -0.3193019
000390 82 26 ba bf 29 b7 72 bf 56 fa 82 3e 38 20 34 3e
       -1.4543002 -0.9481073 0.25581616 0.17590415
0003a0 d5 57 00 40 54 6b cc bd 7f 9b 92 3f 0d 42 03 3e
       2.0053608 -0.09981409 1.1453704 0.12818165
0003b0 6f 37 d2 3e 11 17 0d 3f 2f 9d 75 be f2 b9 f8 3e
       0.41057917 0.5511332 -0.23985742 0.48579365
0003c0 be 8f fa 3c 4f 5b 63 be 06 11 f1 be 97 66 e1 3d
       0.03058612 -0.222028 -0.470833 0.110058956
0003d0 16 0e 2f bf b3 3f cb bd 93 ef 1b 3e 6b 99 d8 bd
       -0.6838087 -0.09924259 0.15228109 -0.10576137
0003e0 9e 67 38 c0 3f 27 8c be 36 2c aa 3c bb d0 a6 be
       -2.8813243 -0.27373692 0.020773035 -0.32581124
0003f0 8c 8e f8 bf a6 1f d6 bd 54 bc 22 bd d2 07 54 bd
       -1.9418502 -0.10455255 -0.039730385 -0.05176527

bias_ih_l1 f4 [75]
000000 66 a3 61 be c7 b4 c7 3e a7 a2 06 bf cc 85 27 3e
       -0.22034988 0.3900511 -0.5259194 0.16359633
000010 9e 30 90 3e 85 4f 0f 3e f0 17 21 bf 6b 8f 44 be
       0.28162092 0.13995178 -0.6292715 -0.19195335
000020 35 b4 a2 be 0d 42 31 be 7f 01 94 be a2 97 71 bd
       -0.31778112 -0.17310353 -0.2890739 -0.0589825
000030 2f 47 9d be 53 14 0e 3e e5 ff 00 bc 96 83 ae be
       -0.3071837 0.1387494 -0.00787351 -0.34084767
000040 81 a0 15 3f 79 5f 94 3e 4a 1e b8 be 44 98 3c bf
       0.58448035 0.2897909 -0.3596061 -0.7366984
000050 30 e4 45 bf 88 7a 84 be 00 fb 28 bf 27 0b 15 bf
       -0.7730131 -0.25874734 -0.66007996 -0.5822014
000060 2b bd 5e bf d2 54 80 3c 62 04 cb 3e 62 e9 b5 3e
       -0.870074 0.015665445 0.3965178 0.3552962
000070 67 7f 4e 3f 75 69 bc 3b 67 a2 9f bf ca 12 c2 be
       0.8066315 0.005749876 -1.2471436 -0.3790496
000080 cc 2b 79 3f 16 0b 17 3f de ca 1d 3f 3f 36 50 be
       0.97332454 0.5900129 0.61637676 -0.20333193
000090 16 d4 0f 3f e2 dc 79 3f e9 e4 84 3c 66 b3 76 3e
       0.5618299 0.97602665 0.016222434 0.24091873
0000a0 89 53 8c bf 45 7a 15 3f db bd 88 3e d6 ad de 3e
       -1.0962993 0.58389693 0.26707348 0.43492
0000b0 cf ab 69 be f7 fa f9 3e 0a 72 9b 3e 65 93 f7 3d
       -0.22819446 0.48824283 0.30360442 0.1208866
0000c0 4b 6b 95 3f 46 38 ba 3e f1 ee 85 3c 8d c4 e8 bc
       1.1673368 0.36371058 0.016349288 -0.028414035
0000d0 ae 38 6e 3f 76 fc bb 3e c0 fa 24 bf 4d 08 e8 be
       0.93055236 0.3671605 -0.64445114 -0.45318833
0000e0 70 a8 ac bf 22 76 95 3e 3f 4c 85 be 3d 19 1d be
       -1.3488903 0.2919169 -0.26034734 -0.15341659
0000f0 3c 24 d9 be c5 5e 89 3d d2 e6 f3 3e e1 48 37 3d
       -0.42410457 0.06707529 0.4763704 0.044747237
000100 25 fd 0c 3e 99 3b 19 be e2 6e cd 3e 6f ba 7e 3e
       0.13768442 -0.14964141 0.4012366 0.24875806
000110 e7 e8 e2 3e a7 70 32 bf 1a 31 1d bf c0 72 18 bd
       0.44318315 -0.69703144 -0.6140305 -0.03721881
000120 20 73 11 3f 00 d8 20 3f 64 af b0 be
       0.5681629 0.6282959 -0.34508812

bias_hh_l1 f4 [75]
000000 29 98 77 be c9 9e b6 3e 9e 8c 38 bf a5 a5 8a 3e
       -0.24179138 0.35668018 -0.72089565 0.27079502
000010 a0 8e b3 3d f8 b7 cb bd d9 68 3c bf f4 e8 f0 bd
       0.08767438 -0.09947199 -0.73597485 -0.11763182
000020 23 9f b8 be 87 3e 9f be 1b e3 e4 be 99 69 60 3d
       -0.36058912 -0.31102392 -0.44704518 0.054788206
000030 d0 c6 91 be 08 ea 4c bd 4f 3e ab bd ec 6c bd be
       -0.28471994 -0.050027877 -0.08361494 -0.36997163
000040 57 d0 07 3f 6b 4d ce 3e 2a b4 d3 be 50 5a 34 bf
       0.53052276 0.4029344 -0.41348392 -0.70450306
000050 0b 2b 65 bf 30 c9 66 3c 65 1f 00 bf 0a 2f 1d bf
       -0.89518803 0.014086053 -0.50047904 -0.613999
000060 00 8b 2c bf 52 54 fe 3d 9a 58 37 3f ac 07 ab 3e
       -0.673996 0.124184266 0.7161957 0.3340429
000070 9b bb 74 3f 3b a0 a4 3e 3a dd 74 bf bb 37 8a be
       0.95598763 0.32153496 -0.95650065 -0.26995644
000080 da 5a 5a 3f 62 13 10 3f 53 0c 5c 3f 81 55 2a be
       0.8529488 0.56279576 0.85956305 -0.1663418
000090 2f cd 1a 3f 27 cc 6f 3f 6a 64 39 be 94 fe 95 3e
       0.60469335 0.93670887 -0.18104711 0.2929579
0000a0 21 6e 80 bf f9 5d 4b 3f de 65 6f 3e eb 4f f8 3e
       -1.0033609 0.79440266 0.23378703 0.48498473
0000b0 40 e5 0d bc 8e 71 1b 3f de 4a b7 3e 0b 8e 07 be
       -0.0086606145 0.60720146 0.35799307 -0.13237779
0000c0 5d 56 86 3f 41 d4 1d 3d f8 f0 14 bf f2 3c 7e 3e
       1.0495106 0.0385325 -0.5818019 0.24827936
0000d0 c1 89 fd be ee 1c c2 3e 57 9c 38 bf 89 d4 9a 3e
       -0.4951916 0.37912697 -0.72113556 0.30240276
0000e0 f6 7b 38 bf 2b d3 ce 3e 78 0c 9c 3e e4 06 37 3f
       -0.7206415 0.40395483 0.30478263 0.7149489
0000f0 1b 71 f0 be cc 38 1a bf 8f 2a 7a 3f bf e0 81 be
       -0.46961293 -0.60242915 0.9772119 -0.2536678
000100 42 a5 ab 3e 6e b3 75 be 87 ee b5 be 77 96 c2 3d
       0.3352452 -0.23994228 -0.35533544 0.09501355
000110 9c a6 f0 3e 35 6a 0a 3e 50 71 a7 be c0 81 df 3d
       0.47002113 0.13517077 -0.32703638 0.1091342
000120 d4 13 58 3e f9 8c d5 be b4 82 4e bf
       0.21101314 -0.41709116 -0.8066819

weight_ih_l0 f4 [75, 25]
000000 35 65 89 3f 1d 95 9f bf c7 75 ce bd 4d 53 85 3e
       1.0734011 -1.2467381 -0.10081058 0.26040116
000010 be 50 32 bf 06 c7 c1 3e a2 b2 bd 3e 06 78 c4 bf
       -0.6965445 0.37847155 0.3705035 -1.5349128
000020 0a 95 0f 3f 03 6f e1 be 41 e2 e2 be d1 11 86 bf
       0.5608679 -0.44030008 -0.44313243 -1.0474187
000030 49 59 74 be 17 ae 3c 3e fe 76 b2 be c2 8c 33 3f
       -0.23862185 0.18425785 -0.3485641 0.70136654
000040 19 18 ca 3d 7d 40 3d 3f d0 ed d5 be b0 66 76 3f
       0.098678775 0.73926526 -0.41783 0.9625044
000050 e5 95 bf bf dc b2 e0 3c 04 98 d8 3e f4 67 12 3f
       -1.4967619 0.027429037 0.4230348 0.5718987
000060 26 77 a0 3e 11 4d 9b 3e 32 05 5e be 7b e1 b7 3f
       0.31340903 0.30332235 -0.2168167 1.4365686
000070 6c c8 bf be a1 77 95 3d b2 aa 92 be f0 0a 29 bf
       -0.37457597 0.07298208 -0.28645855 -0.66032314
000080 2f ab 2d be 17 2b da 3e da 10 48 bc a3 92 72 3e
       -0.16959833 0.42611 -0.012211049 0.2368875
000090 ae 4a 67 be 5f 84 0c bf e5 c5 1e bf 73 40 df 3c
       -0.22587082 -0.5488948 -0.62020713 0.027252411
0000a0 b7 17 58 be 95 62 c7 3d d4 61 85 be a0 9c 92 bd
       -0.21102796 0.097356 -0.260512 -0.0715878
0000b0 8e d5 85 be de 51 f9 be 4d 37 00 3f e8 d4 c3 3f
       -0.26139492 -0.48695272 0.5008438 1.5299349
0000c0 e0 b6 4d bf 33 ed 83 3f 1c bd 3c bd 20 1f 2c bf
       -0.8035717 1.0306762 -0.046078786 -0.67234993
0000d0 f4 fa 9f be d5 50 f2 3e 15 fb 2f c0 a3 b9 83 3f
       -0.3124615 0.47327295 -2.7496998 1.0291027
0000e0 f0 0a 72 bf 25 e2 ff 3e c2 cc 60 3f ef 6e 81 be
       -0.9454794 0.49977222 0.87812436 -0.25279948
0000f0 75 53 9f be 60 bb d3 be 07 d9 fd 3d aa 95 29 3f
       -0.3111836 -0.41353893 0.1239491 0.66243994
000100 91 fe 36 be 91 26 5f 3f bc a6 32 3f ec 39 14 bf
       -0.17870547 0.8716822 0.69785666 -0.5790088
000110 ea 97 8f bf eb 2d 38 bf 11 94 1a bf aa 89 8c be
       -1.1218235 -0.71945065 -0.6038218 -0.2744878
000120 1d 3e 1b bf 0c 51 50 3f 3e 18 b7 be 75 47 a6 be
       -0.6064165 0.8137367 -0.35760683 -0.32476392
000130 fa 62 f7 be ca 9a 35 3f 29 05 55 bf 4f 44 85 bf
       -0.483177 0.70939314 -0.83211 -1.0411471
000140 e7 05 5a bf 97 7c 49 3d 3f 1b 90 be cc 98 17 3e
       -0.85165256 0.049191084 -0.28145787 0.14804381
000150 1f 88 18 bc c3 f8 11 bf c1 3b 8b 3e 34 8c ba 3f
       -0.009309798 -0.57020205 0.27194026 1.4574037
000160 ca 55 a8 3f 71 c7 96 3e b8 f1 de be 1b c9 eb be
       1.3151181 0.29449037 -0.43543792 -0.4605187
000170 3e ac 17 bf b3 0a da be f1 e9 55 3f b6 96 45 3e
       -0.59247196 -0.42586288 0.8356009 0.19295773
000180 57 07 ca be 13 ff 4a 3f de 08 a3 bf 53 df 4b 3f
       -0.39458725 0.7929546 -1.2737081 0.7963764
000190 91 ab 09 bd 7c 24 0a 3f e3 71 a9 be 63 9d 05 3e
       -0.033610884 0.5396192 -0.330947 0.1304832
0001a0 54 fc 93 3f 13 22 ed be 4c 8f cd 3f e3 e8 b9 bf
       1.156138 -0.4631506 1.6059356 -1.4524196
0001b0 4b 57 01 be 7c ea 2b bf dc aa 0c 40 81 df 2b bf
       -0.12630956 -0.6715467 2.1979284 -0.67137915
0001c0 eb fc ca 3e 8e bd 90 bf 3b 80 0a 3f e7 77 82 bf
       0.39646086 -1.1307847 0.54101914 -1.0192841
0001d0 62 d5 80 be de 05 00 3f a8 2e 4c 3e f0 65 b2 3d
       -0.25162798 0.5000895 0.19939673 0.08710849
0001e0 de 92 d2 be 6a aa bf bf c0 12 e8 bc aa a7 b3 3e
       -0.41127676 -1.4973881 -0.028329253 0.35088855
0001f0 e2 65 e5 be b6 c7 ab 3e 5a 3c 28 c0 b7 90 60 be
       -0.44804293 0.33550805 -2.6286836 -0.21930204
000200 0c b1 53 bf 8b 6b b8 bf 1e 04 da be ae 2b 21 3e
       -0.8269203 -1.440782 -0.42581266 0.15739319
000210 4c 3d 72 bd 69 5d 48 3f 8e 01 8b 3f ab f5 97 be
       -0.05914049 0.7826753 1.085985 -0.29679617
000220 6d 35 b9 be a6 b0 f7 be 61 c6 fb 3f de ff 54 3e
       -0.36173573 -0.4837696 1.9669915 0.2080073
000230 16 07 45 3e 37 6a 80 bf 46 98 88 bf 3a 1b 2d bf
       0.19240984 -1.0032414 -1.067147 -0.6761967
000240 16 f3 2b 3f 6b 8c 87 be 48 f2 18 3f 53 05 ba 3d
       0.67167795 -0.26474318 0.5974469 0.09083047
000250 6f c4 f9 be 1c 3d aa 3f bd df 0b 40 b5 f3 22 3d
       -0.4878268 1.3299899 2.185531 0.0397832
000260 21 3f 2a 3f 9a a2 2c bf 51 11 01 3f a7 45 29 3f
       0.6650258 -0.6743561 0.5041705 0.66121906
000270 95 31 1a be 3d ad b0 bc 07 28 bb be 50 a6 33 3e
       -0.15057977 -0.021566981 -0.36553976 0.17543912
000280 11 4a 9e 3e 05 bf 11 3e 32 79 d9 bc ea 97 7d bf
       0.30915883 0.14233024 -0.026547048 -0.9905993
000290 39 3a 0e bf 4b 63 b6 3f fc 18 ea 3e 88 b6 4c 3e
       -0.5555759 1.4249052 0.45722187 0.19991505
0002a0 26 55 aa bf 62 c8 2c bf ab 30 68 bf 88 0f 13 bf
       -1.3307235 -0.6749326 -0.9069926 -0.57445574
0002b0 68 14 88 3d 23 d3 85 3e f4 2b a2 bd e9 86 63 3f
       0.06644517 0.26137647 -0.0791854 0.8887773
0002c0 d3 7b 89 be e8 a7 4d 3f 35 b1 17 3f b1 53 1d 3f
       -0.26852283 0.8033433 0.5925477 0.6145583
0002d0 f4 f7 46 bf 55 d0 22 3f 96 ef 3d be 32 bb 05 3f
       -0.77722096 0.6359914 -0.18548426 0.5223876
0002e0 57 8d 68 3c cf 4e 8f 3e 7e dc 03 3f 97 3e a6 bd
       0.014193854 0.27989814 0.5150832 -0.08117407
0002f0 57 89 80 bf 94 e9 83 3e 7b 40 d7 bd eb da dd 3e
       -1.0041913 0.25764143 -0.105103455 0.43331084
000300 1e 24 ca 3e 69 06 c8 3e 3f 79 61 3f 4e dc 61 3e
       0.3948068 0.3906739 0.8807563 0.22056696
000310 60 57 6f 3f d2 e2 8f be 12 f2 07 bf 75 75 c9 bd
       0.934927 -0.28102738 -0.53103745 -0.09836856
000320 aa a6 d6 3e 46 93 7d 3f c6 24 df be 32 26 05 be
       0.4192403 0.99052846 -0.43582743 -0.13002852
000330 27 9c e8 be 3f de 6c 3f 45 14 85 3e f2 8d c1 3e
       -0.45431635 0.9252662 0.25992027 0.37803608
000340 ef fc 5f 3e 07 36 20 3f 9a e8 8d bf 45 cb 25 bd
       0.2187383 0.6258244 -1.1086609 -0.040477056
000350 f0 f7 d1 be 78 d4 6a bf b6 e5 06 bc 2f 9a 64 bf
       -0.41009474 -0.9173045 -0.008233478 -0.89297765
000360 d9 31 a1 3e aa af 22 be c1 50 15 3f 37 8b 61 be
       0.31483343 -0.15887323 0.58326346 -0.22025762
000370 e9 50 72 3d a7 34 cc be 8b e0 0e c0 34 d6 54 3f
       0.059159193 -0.3988392 -2.232455 0.8313935
000380 8d d0 b3 bf bd b7 5c 3f 55 fe 7b 3f f6 1b 42 3e
       -1.404802 0.8621786 0.98434955 0.18955979
000390 22 96 20 3f 03 9a 07 40 63 98 15 3f 73 0d 89 3f
       0.62729084 2.1187751 0.5843565 1.0707229
0003a0 06 f5 61 bf c4 0c 15 3c 1c 50 ca be f1 c8 8e 3f
       -0.882645 0.009097282 -0.39514244 1.1155072
0003b0 d9 79 a5 3d 28 2a 54 3e 1b 0d fd bf 07 fc b0 bf
       0.08079881 0.20719206 -1.9769624 -1.3826913
0003c0 74 fe 59 3e 54 03 da 3e 49 01 a4 3e 9c 75 a9 bd
       0.21288472 0.42580664 0.3203223 -0.08274385
0003d0 c3 7f 69 bc b3 c9 f2 be 63 36 09 3e 67 32 83 bf
       -0.014251652 -0.4741951 0.13399653 -1.0249757
0003e0 ac 36 f2 3e d0 ee 92 bf 4d d2 30 bf 88 8f c8 3d
       0.47307336 -1.147913 -0.69070894 0.097930014
0003f0 32 43 f6 bf 0b c2 2b bf 55 9c ff 3d e4 7f 90 be
       -1.9239256 -0.6709296 0.1248099 -0.28222573
