course3-rnns/lab1/gru.pt (torch, 11557 bytes, 5 tensors)

weight_ih_l0 f4 [75, 1]
000000 fb 70 e1 be da 2d 5c 3e 6e 84 c8 3d 80 46 b2 3d
       -0.4403151 0.21501866 0.09790884 0.08704853
000010 9c 00 8f bf ec d7 a8 be 8d 46 2b bf 25 b0 7f 3c
       -1.1172061 -0.32977235 -0.66904527 0.015605961
000020 53 4f 70 be 4d 7a 60 3e 25 f8 c4 3d 16 ad 95 3e
       -0.2346776 0.21921654 0.09617642 0.29233617
000030 ed d4 1a 3f b4 0a af 3e b2 3a 80 3e 95 ac 41 be
       0.6048115 0.34187853 0.2504478 -0.18913491
000040 4a 2b 0d 3e 04 27 19 be 70 6d a2 3f 0b c3 73 3e
       0.13786045 -0.1495629 1.2689648 0.23804872
000050 7c aa 58 3e 7f 55 e8 bf ab df bf 3c 81 53 d8 3d
       0.21158785 -1.8151091 0.023422083 0.10562802
000060 77 4d 8f be 0a 53 db be 31 80 79 be df 18 91 3e
       -0.27988788 -0.4283679 -0.24365307 0.28339288
000070 38 cf c7 bd 24 f5 68 bf 42 0a 87 be 53 18 5d bf
       -0.09756321 -0.90999055 -0.26375014 -0.8636524
000080 52 9a c7 bd 05 96 64 3f 86 c8 98 3e 75 b3 b3 3e
       -0.09746231 0.8929141 0.29840487 0.35097852
000090 fa e8 9d be c3 11 3f bf 55 ac ff be 48 88 71 3e
       -0.3084181 -0.7463648 -0.49936166 0.23587143
0000a0 80 34 4f be f2 0d 9c 3e 82 0c 0b 3f 9f 2f b2 3d
       -0.20234871 0.3047939 0.5431596 0.08700489
0000b0 a6 95 cd be bd 69 23 bf 95 20 20 bf 38 e5 cc bc
       -0.40153235 -0.6383322 -0.62549716 -0.025011644
0000c0 cb 1a 19 3f 14 26 ca be 2f 97 df 3e 72 e2 a1 be
       0.5980651 -0.39482176 0.4367003 -0.31618077
0000d0 1e 92 8b bc ff b6 a5 be 79 f2 52 3e 7e 87 dd be
       -0.017037448 -0.32366177 0.20600308 -0.43267435
0000e0 93 f7 d5 3e 22 aa cb be 80 24 fe 3e b6 89 61 be
       0.41790447 -0.3977824 0.49637222 -0.22025189
0000f0 d5 e1 f8 bd 4b 2f 9d be 25 c2 44 3e 82 50 97 3e
       -0.12152449 -0.30700144 0.19214685 0.2955361
000100 ac e4 8d 3e 4e 0f ac be 87 3e 58 3d d8 ad 43 bc
       0.27713525 -0.33605427 0.052794006 -0.011943303
000110 a5 e0 97 be e0 2b c0 be 03 84 89 bd ee 09 5f bf
       -0.29663578 -0.37533474 -0.06714632 -0.87124527
000120 bd 0d 31 3e 5f f8 15 3e 61 3d 31 3d
       0.17290397 0.14645527 0.043271426

weight_hh_l0 f4 [75, 25]
000000 1c 2d 90 be 66 09 87 be ea b5 50 be 9c 84 f3 3c
       -0.28159416 -0.26374358 -0.20381895 0.029726319
000010 cb 62 fb 3c 90 f4 c1 3d a1 55 84 be 7b 5b 60 3e
       0.030686757 0.09470475 -0.2584658 0.21909897
000020 88 c9 96 3e 64 e0 84 be e1 76 97 3e 4f 51 d7 3c
       0.2945063 -0.25952446 0.29582885 0.026283888
000030 72 a3 24 3d b7 9b d3 3d a2 e1 de bd 32 ca 77 3c
       0.040194936 0.103324346 -0.1088288 0.015123891
000040 23 41 e2 3e 76 54 4a 39 24 44 b5 be 84 50 ad 3e
       0.4419032 0.00019295685 -0.3540355 0.3385049
000050 a9 a1 0e be 0a a1 0f 3e 7b ca 41 3e 86 7d a8 3e
       -0.13928856 0.14026275 0.18924896 0.32908267
000060 3d bb ea 3e b8 e0 8e 3d 43 a0 b8 3e 7d 37 4b bd
       0.45845976 0.069764555 0.3605977 -0.049613465
000070 ce 19 44 bd 63 82 9e be 0f c5 37 bd 87 d5 e6 3e
       -0.04787617 -0.30958852 -0.044865664 0.45084783
000080 c0 9d b4 bd da 08 c7 be f3 d5 a3 3e aa a5 31 be
       -0.08819151 -0.3887394 0.31999168 -0.17348352
000090 84 1d 7d be 10 8b ea 3e 1e 90 7c be 52 99 29 3e
       -0.2471829 0.4580922 -0.24664351 0.16562393
0000a0 a7 20 7b be 01 3a 25 be e2 bb 08 bf 2d 8b 19 be
       -0.24524175 -0.16135408 -0.53411686 -0.14994498
0000b0 71 a2 06 3d 8d 75 11 3e d0 b8 9e be 40 63 ac 3e
       0.03286976 0.14204998 -0.31000376 0.33669472
0000c0 47 7f ae be 58 54 9f 3d b7 7b 1b be dd e0 73 bd
       -0.3408148 0.07779759 -0.15183912 -0.05954062
0000d0 a9 54 d6 3e a3 f0 d7 be 0f 69 89 3e 83 fb 0f 3f
       0.41861466 -0.4217578 0.26837966 0.5624315
0000e0 87 9a b4 be 7b 74 6f 3d a0 33 3c 3e 0f a3 1b be
       -0.35274145 0.058460694 0.18379068 -0.1519892
0000f0 d9 92 fb 3f 6d 43 76 3f e1 66 5a bf 73 ac 75 be
       1.9654189 0.96196634 -0.8531323 -0.23991565
000100 58 08 ca bc a9 2e 04 3f 57 75 e8 3e fa 61 02 3f
       -0.024662182 0.516337 0.45402023 0.5093075
000110 d9 23 c4 bd bd a6 01 3f ff d9 9c ba 0e 5a 28 3f
       -0.0957715 0.5064505 -0.0011966823 0.6576241
000120 55 3d 55 be 2b 7f 3a 3f a6 bb 16 3e f4 2c 4c be
       -0.20824178 0.7285029 0.1472002 -0.19939023
000130 1c a8 cc be 8d 40 fa 3d de 10 78 bf de b8 f7 3e
       -0.39972007 0.12219343 -0.9690074 0.4838323
000140 71 56 e9 3e e5 21 98 3e df a1 a6 be ab 7d d5 bc
       0.45573762 0.2971336 -0.32545373 -0.0260609
000150 ad dd a5 be b5 22 34 3e 9b 54 94 3d 14 bd 66 be
       -0.32395688 0.17591365 0.072427 -0.22533065
000160 18 64 96 3e 5e 2a 13 3f 43 37 8e 3d f1 9b 1b 3f
       0.2937324 0.5748652 0.06944134 0.6078482
000170 1f 44 d2 3e a4 bc 1e be 2d 1e c6 3d 2c 38 b9 be
       0.41067597 -0.15501648 0.09673724 -0.36175668
000180 9f ca b9 be c1 e7 12 bf 66 9d 6d 3d 5f 19 c6 3e
       -0.362874 -0.5738488 0.058011435 0.38691232
000190 d2 b4 3a bd 4e 5d ac 3e c1 09 8d bd 94 27 83 3f
       -0.0455826 0.33664936 -0.06886626 1.0246453
0001a0 ea 7a 41 bc 21 fb 1f 3f bf 7a fd be 8b f5 45 3f
       -0.01180909 0.6249257 -0.4950771 0.77327794
0001b0 1b 81 51 be 8c bc 35 3e fb 5c b6 3e 7f 21 0b 3f
       -0.20459406 0.17747706 0.35617813 0.54347986
0001c0 83 11 a5 be 58 e8 fd be d4 72 41 bf fc f1 ba 3d
       -0.32239923 -0.49591327 -0.7556584 0.09128186
0001d0 6d 7e 05 3e 8c 6d c0 3e 2d 5a 18 bf 8e 2c 3f 3e
       0.13036509 0.37583578 -0.595126 0.1866934
0001e0 a7 08 bd 3e bf c1 b2 bc 5a 70 21 3e 4e 6f 1f be
       0.36920664 -0.021820901 0.15765515 -0.15569803
0001f0 0f 10 c7 be fd 5b 02 3f 0b 51 3d 3e 24 68 0e 3d
       -0.3887944 0.5092161 0.18487947 0.034767285
000200 2c ca 9f 3e 57 d2 ec 3e 0c 52 4a 3e 1e fd cf 3e
       0.31208932 0.46254227 0.19757861 0.406228
000210 ac 4d 0d 3d d7 eb eb be 95 25 26 3d 05 f9 64 be
       0.0344979 -0.4607837 0.040563185 -0.22360618
000220 8d 0d 5d 3d a6 24 01 3f 9b 80 aa bc 95 4d a2 3d
       0.053968 0.50446546 -0.020813277 0.07924954
000230 01 f5 51 3d 44 f8 9f be 8a 4e ec be 1c 9e 13 bf
       0.051259045 -0.312441 -0.4615367 -0.5766313
000240 5c 1e 91 bd 52 8f 2c 3f 1d 78 0e bf 9d 3e 8b 3f
       -0.07085869 0.6740619 -0.5565203 1.0878483
000250 d4 e7 a0 bd 9e 2d e5 3e 1e f1 03 be 05 59 c6 bd
       -0.07856718 0.44761366 -0.12884948 -0.09684948
000260 4f ee 01 be a4 52 16 3f 42 49 07 3e d8 65 2c 3f
       -0.12688564 0.5871985 0.1321154 0.673429
000270 3e 52 0b bf 6d 53 15 3e 15 3a a5 3d e1 0f 43 3c
       -0.54422367 0.14582606 0.08067719 0.011905641
000280 7e 1f 2e 3f d2 48 41 3f 68 b4 6f be 35 fb 4b be
       0.68016803 0.7550174 -0.23408663 -0.19920047
000290 fb 9e 99 be 32 6c f4 3e 38 a7 cd 3e 6f d4 d2 3d
       -0.30004105 0.47738796 0.4016664 0.10294425
0002a0 55 1e 83 be 81 9b 70 3e a3 8e fb bd e3 5f 98 3e
       -0.2560908 0.2349682 -0.12283065 0.29760656
0002b0 10 9c 76 3f b9 a8 33 3e 09 9c 3d 3f 47 34 8c 3a
       0.9633188 0.17544831 0.74066216 0.0010696732
0002c0 24 f9 36 3e f7 f4 37 3f 5f 94 48 be fd 84 1f 3e
       0.17868477 0.7185816 -0.19587849 0.15578075
0002d0 70 fd 54 3d 90 30 ae 3e 0f 0c 84 bc 3b 63 fa be
       0.05199951 0.34021425 -0.016119031 -0.48903832
0002e0 47 e2 9a bd 36 6c 01 3e 7f b4 1e be 83 e0 4f 3f
       -0.0756269 0.12638935 -0.15498541 0.8120195
0002f0 e8 d9 65 3e 61 50 c6 3e 51 31 77 bd 8b 47 db 3d
       0.22446406 0.387332 -0.060349766 0.10707005
000300 96 22 be bd 80 e6 28 be e6 c7 2d 3d 60 7c 47 3e
       -0.092839405 -0.16494179 0.042426966 0.19481039
000310 d0 60 f6 be 1e 84 70 3f 03 97 ac 3e d9 9f 92 3e
       -0.48120737 0.93951595 0.33708963 0.2863758
000320 9b 9c ce be ff 24 c8 bd c3 dd 94 bd f6 56 2f 3f
       -0.40353855 -0.097726814 -0.0726886 0.68492067
000330 24 02 f8 3d 85 f5 6e 3e 64 0f ae be f8 9e be 3d
       0.12109783 0.23335846 -0.33996117 0.09307665
000340 1a 5a 61 3e 09 cd 8e be 11 f5 74 3e 24 f0 47 3d
       0.22007027 -0.27890804 0.2392161 0.048813
000350 2d bd ae be e4 5e ab 3e 99 f2 56 be 8f 64 79 3e
       -0.34128705 0.33470833 -0.20990981 0.24354766
000360 ae 19 0a 3d 0e c6 b8 3e af 28 63 be ff a3 98 3e
       0.033715896 0.36088604 -0.22183488 0.2981262
000370 ee 08 8b be e7 00 88 3e 71 a6 48 be 3b 8f b0 be
       -0.2715525 0.26563188 -0.19594742 -0.34484276
000380 05 38 8d 3f 3b a1 ca bd a1 a3 9b be 88 55 47 3e
       1.1032721 -0.098940335 -0.30398276 0.19466221
000390 dd 35 c4 3e 9d cd 3c 3f 66 1e 75 3f c5 d4 1d be
       0.38322344 0.7375124 0.9574951 -0.15413196
0003a0 6a e3 1a 3d fc f6 cf 3c ee f1 98 bd e2 25 4e 3f
       0.037814535 0.025386326 -0.074680194 0.80526555
0003b0 eb 89 e4 3e e3 75 15 bf 4e 69 36 3e f3 30 97 3d
       0.44636473 -0.58383006 0.17813608 0.07382383
0003c0 45 67 bf 3e b8 69 9e 3e 2d 07 2d 3f 2b 6e 50 bc
       0.37383476 0.30940032 0.67589074 -0.012721579
0003d0 75 52 85 3d fc dd 92 bc 1f df e1 3e 32 83 69 bf
       0.06509868 -0.017928116 0.4411554 -0.91215813
0003e0 48 a0 84 3e 06 89 fb 3e 58 bc 7b 3e 42 ae 21 bd
       0.25903535 0.49127978 0.24583566 -0.039472826
0003f0 ac 66 99 bf ad 20 36 bf 50 b0 f7 3e 74 74 02 3f
       -1.1984458 -0.7114361 0.48376703 0.50958943

bias_ih_l0 f4 [75]
000000 6e ac 53 3d f3 fb 75 be fb ca 8a 3e 30 20 bd 3d
       0.051678114 -0.24021892 0.27107987 0.09234655
000010 91 e4 c4 bd fb 03 d0 3d 48 68 c3 3e 7d c7 af 3b
       -0.09613908 0.10157009 0.38165498 0.005364357
000020 9b ed 38 3d a1 cc 52 3e 3c fa 33 bd a8 1a 2a 3e
       0.045148473 0.20585872 -0.043939814 0.16611731
000030 4d ab 24 be 73 95 c9 bb 23 c1 96 3d d0 c3 ea bd
       -0.16080971 -0.006151849 0.07361057 -0.114631295
000040 22 43 95 3c b0 07 f0 3e 58 0d a9 bd 3e 2d 0a bf
       0.018220488 0.46880865 -0.08254498 -0.53975284
000050 e5 ea c2 3e dc 7c d2 3e e8 b8 de 3d 43 a3 75 bd
       0.38069835 0.41110885 0.10875112 -0.05997015
000060 5c 10 14 3e 12 f8 39 be ea c9 ee bd f8 27 75 3e
       0.14459366 -0.18161038 -0.11659606 0.23941028
000070 02 37 11 be 6e 0f f4 be 41 e8 8e be ff 5b 9f be
       -0.1418114 -0.47668022 -0.2791157 -0.31124875
000080 42 b2 13 be 1b b3 cd 3e 74 4f 6d bd 74 d3 47 be
       -0.14423469 0.4017571 -0.0579371 -0.19514257
000090 92 a0 bf bd fa 38 d5 be 8f 0a 41 be 5d 00 b4 be
       -0.09356798 -0.41645032 -0.18851684 -0.35156527
0000a0 68 6a f9 bd e0 a7 d4 3e 41 4c 83 3d 98 03 9e be
       -0.121784985 0.41534328 0.06411029 -0.30862117
0000b0 f9 c6 ca be 00 b3 71 3e 57 14 aa be a6 79 11 3e
       -0.3960493 0.2360344 -0.33218643 0.14206561
0000c0 82 ba ca 3e 69 25 dd 3d b6 28 16 3e 7b 42 0d be
       0.3959542 0.10798151 0.14663967 -0.13794892
0000d0 ff f0 9e 3d 65 2c d7 3d cb 67 5c 3d f2 fb 0b 3e
       0.0776081 0.105065145 0.053809922 0.13670328
0000e0 42 0c 3e bd b3 ab ed bd 80 6c 11 3f 3e b4 be bd
       -0.04639841 -0.11605015 0.5680618 -0.09311722
0000f0 11 c2 00 be fb 25 30 3e 13 04 15 be 3e 5d 50 bc
       -0.1257403 0.17201988 -0.14552335 -0.012717543
000100 77 5c e3 bd 32 7f dc 3c 9f b3 19 3e 0e a2 55 3d
       -0.11101621 0.02691612 0.15009926 0.0521565
000110 d6 90 7b be 7b 7f e2 3d c6 f9 4b be d5 b0 1e 3d
       -0.2456697 0.11059471 -0.199195 0.03874286
000120 46 76 3f 3d 97 74 82 3e b4 30 35 3d
       0.046743654 0.25479576 0.0442359

bias_hh_l0 f4 [75]
000000 9d 9c 68 3e 41 46 b2 be 5e 50 99 3e 2a f8 88 3e
       0.22715993 -0.34819224 0.29944128 0.26751834
000010 e1 32 55 bc f1 90 d6 3d e8 96 bc 3d 3b 26 be bd
       -0.013012619 0.10476864 0.092084706 -0.09284636
000020 27 59 a7 3d 85 74 af 3d 4c fe 52 3e 61 ba b6 bd
       0.08171301 0.08567146 0.20604819 -0.08922268
000030 c4 3b 1a be 6e 05 81 bc b7 2e 42 3e b1 a5 2f be
       -0.15061861 -0.01574966 0.18963133 -0.1715305
000040 3a 3f 86 3e 0a 03 d1 3e 26 d9 7b 3d 81 3e da be
       0.26220113 0.4082263 0.061486386 -0.42625812
000050 99 03 bb 3d 7c 4d c7 3e 7a ae 34 3e dc e1 6a 3e
       0.091315456 0.38926303 0.17644683 0.22937721
000060 00 d8 ec 3e 65 bf b3 be 83 e5 bf bd 07 4e 99 3d
       0.46258545 -0.3510696 -0.09369948 0.07485586
000070 e0 39 04 bd 64 89 92 be 5b 5d 70 be 72 b7 1f bd
       -0.032281756 -0.28620446 -0.23473112 -0.038993306
000080 73 bd 60 be 37 a3 07 3f 0b 95 f8 bd b5 c7 2b be
       -0.21947269 0.5298342 -0.12137803 -0.16775401
000090 72 26 0e be 34 7d 16 be bb 12 c6 bd 89 b5 8e be
       -0.13881853 -0.14696199 -0.09671541 -0.27872875
0000a0 b3 dd d1 be 72 02 3a 3f ec e5 78 3e 2f dd cb be
       -0.40989456 0.7265998 0.24306458 -0.39817187
0000b0 48 51 15 be a5 c2 d4 3e 29 48 07 bf 9a b6 b6 3e
       -0.14581788 0.41554752 -0.5284448 0.3568619
0000c0 cc 16 2e 3f a5 24 3d 3e 91 33 46 3e 56 01 c9 bc
       0.68003535 0.1847101 0.19355609 -0.02453677
0000d0 b9 60 90 bb c4 a2 08 be f0 5a 72 bd fc 61 a2 3e
       -0.0044060615 -0.1334334 -0.059168756 0.3171538
0000e0 2a cf c1 3b 8e d9 c1 bc ee ac bd 3e ef 1f 94 be
       0.0059145885 -0.023663308 0.37045997 -0.28930613
0000f0 85 18 fc 3d ba 8f ba 3d 23 d2 0f 3d 87 04 66 3e
       0.12309364 0.09109445 0.03511251 0.22462665
000100 64 9d 17 3e 04 81 60 3c 45 fd 8a 3e 64 8c d7 3d
       0.14806134 0.013702635 0.27146354 0.10524824
000110 82 c1 f0 bd 29 ec d2 bd 45 48 0b be 8f e2 6d 3e
       -0.11755659 -0.1029895 -0.13601787 0.23230956
000120 0e 63 7d 3e ce e1 5f 3e 8f b5 16 be
       0.24744818 0.21863481 -0.14717697

weight f4 [1, 25]
000000 e5 34 a9 3e 37 13 bc be 3b 3f 3c bd 7d d9 c4 bd
       0.33048168 -0.3673341 -0.04595874 -0.09611795
000010 e9 df f7 3d 29 b9 45 be e2 2e 99 3e 2a 1a 40 be
       0.12103254 -0.19308914 0.2991858 -0.18759981
000020 8a d5 e5 3e 14 cb e8 be 40 81 88 be 88 26 cb be
       0.4488948 -0.45467436 -0.2666111 -0.39677835
000030 61 22 58 3e 18 ed c4 3e 86 4a 6b 3e 69 ff 20 be
       0.21106865 0.38462138 0.22977647 -0.15722431
000040 1c e6 28 bd 92 cf 14 bc ea 92 86 be 23 b3 49 be
       -0.041235074 -0.009082692 -0.26283962 -0.19697241
000050 ea 24 19 be 25 96 da be f5 10 ad 3e 04 cf 6b 3e
       -0.14955488 -0.42692676 0.33802 0.23028189
000060 81 17 66 3c
       0.01404369
