course3-rnns/lab1/lstm.pt (torch, 14437 bytes, 5 tensors)

weight_ih_l0 f4 [100, 1]
000000 50 0f c2 3e 4a e9 c0 bd 37 8a d5 3e 02 8a 3a be
       0.37902308 -0.09419496 0.41707012 -0.18216708
000010 e1 8d ca 3e 2b b0 64 3e c3 47 8f 3c 70 6f dd 3e
       0.3956137 0.22332828 0.017490273 0.43249083
000020 d5 3d 2f be bc d3 ae bd b0 53 c9 bc 2b 0a da 3e
       -0.17113431 -0.08536479 -0.024576038 0.42585883
000030 6d f4 7e bd 79 4f 30 3f 97 7b a4 bd 71 ea 0e bd
       -0.06224482 0.68871266 -0.080313854 -0.03489155
000040 e6 0b 47 be 25 44 fa bd 2f 1e fa bd 9e e7 83 3e
       -0.19438133 -0.12220029 -0.12212788 0.25762647
000050 93 48 51 3e af 1e 38 bf c2 48 49 bf b4 0e c9 3e
       0.20437841 -0.7192182 -0.78626645 0.3926903
000060 6b be 0b bd 02 83 ee 3e b3 87 b2 bd 0f 32 a4 3e
       -0.034117144 0.46584326 -0.08717289 0.32069442
000070 8e b7 20 bf db 20 59 3e dd ab 98 3e 40 42 df 3d
       -0.6278008 0.2120394 0.2981862 0.10901308
000080 0e cb ba 3e 21 59 67 be c2 aa f1 3c 06 07 16 3e
       0.36483043 -0.22592594 0.029500369 0.14651117
000090 7c 68 45 3e 03 07 84 3e dc 9c 84 be ce e8 e4 be
       0.19278139 0.257866 -0.25900924 -0.44708866
0000a0 9f 9f 7d be 32 bf 29 bf 5e f2 4d bd 0f ae 3d be
       -0.24767922 -0.66307366 -0.050279967 -0.1852343
0000b0 24 63 89 3e 24 b9 96 3e 23 2c 18 bf 03 dd 6b be
       0.2683345 0.29438126 -0.5944235 -0.23033528
0000c0 d7 4c d4 3e 95 69 45 bf fd b6 cd be 27 c9 e0 3e
       0.41464874 -0.7711423 -0.4017867 0.43903467
0000d0 11 60 bf 3e 72 2d 00 3f 34 8c 31 bf 07 a9 55 3e
       0.3737798 0.50069344 -0.6935456 0.2086526
0000e0 0f 2b ea be fe 2a 1d 3f c6 0b 8c bd 2c 36 23 3f
       -0.45735976 0.61393726 -0.06838183 0.63754535
0000f0 9a 72 9c 3e 5b 50 63 be a2 b8 b4 be 27 7b ed 3e
       0.30556184 -0.22198622 -0.35297114 0.4638302
000100 77 e9 47 3b de 6b d5 be 2b e8 9a 3e 0e a0 e1 3e
       0.0030504146 -0.4168386 0.30255255 0.44067425
000110 53 8c a0 bd c5 cf 17 3d 3c 27 94 bc 53 3a a3 3e
       -0.07839265 0.03706338 -0.018085115 0.31880435
000120 eb ad a6 be 77 d6 1f 3f 3c 76 8b 3f e7 3b 80 3e
       -0.32554564 0.6243662 1.0895457 0.25045702
000130 ff 4f 8a bd 0f ac 6b 3e c8 4a 14 bf fe 9a bd 3e
       -0.06753539 0.23014854 -0.5792661 0.37032312
000140 e4 bd 16 3f d7 fc 8b 3c 6b 21 b7 3e e7 d9 d6 be
       0.588835 0.017088337 0.35767683 -0.4196312
000150 e4 3b a5 be 34 7d e5 3d 15 4d 0e 3f 48 37 8f 3e
       -0.32272255 0.11205521 0.5558637 0.27971864
000160 9c 5b 88 3e 3d af d0 be 4d a2 a1 be 51 dd 7a 3e
       0.26632392 -0.40758696 -0.31569138 0.24498488
000170 c2 19 11 be a8 2f 01 bf 0d 2e 90 be da d8 5b 3e
       -0.14169982 -0.5046334 -0.28160134 0.21469441
000180 32 77 2f bf b1 b5 82 bf 49 38 d2 3e eb d5 d5 be
       -0.6854125 -1.0211698 0.41058567 -0.4176477

weight_hh_l0 f4 [100, 25]
000000 ae 20 e5 bd 1b e6 43 ba 0d 5c 19 bd 9d bc 46 be
       -0.11187874 -0.0007472948 -0.037441302 -0.19407888
000010 12 9b ad bd d5 5f 69 3b d7 20 b7 be 47 45 e0 3d
       -0.08476843 0.00356101 -0.35767242 0.109507136
000020 61 0a a3 3d 00 62 98 be 46 89 f4 3d 7e 87 f1 bd
       0.07960964 -0.29762268 0.11940245 -0.11793421
000030 4a 01 92 3c b6 9f 9c be 6a 06 9e 3e a2 07 22 3e
       0.01782288 -0.305906 0.3086427 0.15823224
000040 ef 0c 01 be 9c 6b 18 be 9c 0e a4 3e ff a1 15 be
       -0.1260259 -0.148848 0.32042396 -0.14612578
000050 82 ac e2 bc 05 79 d2 3d c3 29 d2 3e 4a 90 28 be
       -0.027670149 0.10276989 0.41047487 -0.16461292
000060 89 fc 71 bc e2 88 b0 be ec 52 4f be 5f ef 19 be
       -0.014769682 -0.34479433 -0.20246476 -0.15032719
000070 f1 ed 0b be 96 35 61 3e b4 49 a4 3d d0 07 15 3f
       -0.13664986 0.21993098 0.0802187 0.58215046
000080 ef 43 7f 3f aa f0 61 be 0c d5 f3 be 07 18 79 3e
       0.99713033 -0.22064462 -0.4762348 0.24325572
000090 55 41 b3 bd 80 e0 38 3f b8 d5 95 bd 6c d5 fa 3d
       -0.087526955 0.7221756 -0.07316154 0.12247738
0000a0 f8 7e 34 3e f3 c8 2d 3f f3 41 3f bf c1 01 2f be
       0.1762656 0.6788475 -0.74710006 -0.17090513
0000b0 7e a2 a6 3e 28 8f 45 bd 04 80 3a be 75 eb 73 3e
       0.32545847 -0.048232228 -0.18212897 0.23820288
0000c0 1b 7b cd be c2 5e a2 3e 12 4b ea 3e 5d fe 5d 3d
       -0.40132985 0.3171292 0.457604 0.054197658
0000d0 5d 21 f9 bd b1 ab b6 be 1c 32 07 be 6a 4d e4 3c
       -0.12164567 -0.35677865 -0.13202709 0.027868945
0000e0 84 0a 54 3e 1f cb a2 bc 71 41 67 bd 46 5e bf bc
       0.20707136 -0.019872246 -0.056458894 -0.023360383
0000f0 10 ad 65 3e 0e e1 1b 3d f2 42 72 3e 02 56 e0 be
       0.224293 0.038056426 0.2365835 -0.4381562
000100 31 50 99 3c f6 38 e4 3d 20 8f 95 3d e4 c8 62 bc
       0.018714996 0.11143677 0.073026896 -0.013841841
000110 41 c8 7f 3d 40 49 c8 bd b0 7e fe 3e 2e 26 3e be
       0.062446836 -0.09779596 0.4970603 -0.18569252
000120 e5 1f b5 3c 20 8d f2 bd d8 c2 63 3a f9 82 b8 be
       0.022109935 -0.11843324 0.0008688397 -0.36037424
000130 97 62 29 be 97 7e 9b 3e 21 e5 59 be d6 af d7 be
       -0.16541515 0.30370018 -0.21278812 -0.4212634
000140 54 99 9b 3e 9c ab ef 3d fa 23 df 3e 3f e5 1d bf
       0.30390418 0.11702654 0.43582135 -0.61677927
000150 bb be 02 bf 16 13 37 3e 17 7d 62 be 7a f4 11 bf
       -0.5107228 0.17878374 -0.2211803 -0.57013667
000160 7b 31 50 3e 5e 36 16 3f 4a b8 72 3e 3a 6e 53 3e
       0.20331375 0.5867671 0.23703113 0.20647517
000170 49 0d 77 3e 56 5d 42 3e f9 b8 e6 3d 95 00 d9 3d
       0.24126162 0.18980917 0.112657495 0.10595814
000180 90 57 08 bf a4 59 25 3e 66 27 8a 3d f2 9a 07 3e
       -0.5325861 0.16147476 0.06745796 0.132427
000190 9d f2 ea be e5 88 82 be e8 6d d1 3e e4 64 e5 be
       -0.45888224 -0.25495067 0.40904164 -0.44803536
0001a0 c6 27 26 be ab 98 bd 3e 6c 26 ef be 38 32 fd 3e
       -0.1622611 0.3703054 -0.46709 0.49452376
0001b0 53 74 19 bf 2a 62 ec be 36 23 00 3f 22 7a da be
       -0.5994312 -0.46168643 0.5005373 -0.42671305
0001c0 f1 1c f6 3d b3 a2 4d 3e b8 f1 fa 3e 98 b5 d2 3d
       0.12017239 0.20081596 0.49012542 0.102885425
0001d0 2d 85 05 bf ef aa 4a be be eb 2f bc 8c b5 f8 3e
       -0.52156335 -0.19791768 -0.010737358 0.4857601
0001e0 1c 05 96 be 23 46 2b bf 51 24 aa 3e f6 de 74 3e
       -0.29300773 -0.66903895 0.33230832 0.23913178
0001f0 a1 dd 17 be 66 33 73 bd 9d b2 c9 bc af d0 03 3e
       -0.14830638 -0.05937519 -0.024621302 0.12872575
000200 da ee 69 3c 6e 17 da bd ac 74 f9 bd e3 ba 96 be
       0.014278138 -0.10649 -0.121804565 -0.29439458
000210 69 2b 05 3b d7 6b ce bd 6b 11 ec bd 9f be 12 be
       0.0020320064 -0.100791626 -0.1152676 -0.14330529
000220 1c 17 aa 3d ce 98 e2 be 28 2c 1f 3e 60 02 a5 bc
       0.08305189 -0.44257206 0.15544188 -0.020142734
000230 ac 7f 39 be 25 db 90 be 82 81 aa bc 11 cc 46 3d
       -0.18115109 -0.28292194 -0.020813707 0.048534457
000240 3c 4f 2d 3d 30 cb 89 3e eb 0d 26 bd 09 78 a3 3e
       0.042311892 0.26912832 -0.040540617 0.31927517
000250 4c 40 b6 3d 12 74 42 3d e4 21 87 3c ee 92 f4 be
       0.088989824 0.047473975 0.016495652 -0.47768348
000260 e9 af 59 3e 2a 72 b6 3e 3e 07 12 bf d9 cd 53 3e
       0.2125851 0.35633975 -0.570423 0.20683993
000270 b4 a4 cc bd 93 56 b0 3e bc 26 94 bf 54 74 3c be
       -0.09992352 0.3444105 -1.1574321 -0.1840375
000280 c4 d2 59 3e 85 fd e3 be 1e 72 bb be 06 7f 9b 3e
       0.21271807 -0.44529358 -0.36610502 0.3037035
000290 5e 9e 83 3d 99 9d fe 3e c6 c7 47 3e c2 30 4b 3e
       0.064266905 0.49729612 0.19509801 0.19842818
0002a0 f6 98 83 3c 5f 46 26 3e 2e 56 49 3f 9a 7a d8 3c
       0.016064148 0.16237782 0.78647125 0.026425648
0002b0 7c 50 ba 3e 9c c5 f9 3d 2a fb d4 3d 27 2e 98 be
       0.3638953 0.12195894 0.10399468 -0.2972271
0002c0 69 72 3f be 3a 0a 7c 3e ae 77 b5 3e 51 a0 be be
       -0.18695988 0.24613276 0.3544287 -0.37231687
0002d0 1c 55 0a 3e 94 04 86 bf fb 8c d3 3e 54 ce 38 3d
       0.13509029 -1.0470147 0.41318497 0.045118645
0002e0 3a b1 2f be 6a 7e f3 3c b3 3b 04 bf 4d e0 23 bf
       -0.1715745 0.029723365 -0.51653594 -0.6401413
0002f0 f9 a7 02 3f 94 68 df 3e 92 c9 78 be ad 6b 5e be
       0.51037556 0.43634474 -0.24295643 -0.21720763
000300 22 25 80 3e 25 5c ca 3e f1 0f 08 3e 3d 4e f7 3d
       0.2502833 0.39523426 0.13287331 0.1207547
000310 16 8f 04 3e 95 56 c1 3e c7 a4 88 3e 7a 22 a3 bb
       0.12945208 0.3776137 0.26688215 -0.004978475
000320 d3 16 46 be 15 b1 85 be 11 e0 5a be 3e 57 14 bf
       -0.19344644 -0.26111665 -0.21374537 -0.5794562
000330 ac d4 47 3f 35 04 ef be e7 18 d2 3e b3 07 f2 3e
       0.78058887 -0.46682897 0.41034624 0.472715
000340 85 89 ce 3e 07 f2 32 be ca 29 7b bd 72 84 98 3e
       0.40339294 -0.17475139 -0.06131915 0.29788548
000350 49 22 43 be 03 46 74 be f3 3b 25 3e b9 72 cd 3c
       -0.19056047 -0.23854832 0.1613615 0.025079118
000360 cd fe c1 3e 84 ca fd be c0 5f 3b bf 46 8b 2a bf
       0.3788971 -0.4956857 -0.7319298 -0.66618764
000370 77 89 48 bf 29 6b 18 3f 9e 63 f2 3e ff 6e 79 bf
       -0.78334755 0.59538513 0.47341627 -0.9743499
000380 39 af 57 3e 5e fe 3b bd 60 c9 93 be d3 ff 00 3f
       0.21062936 -0.04589688 -0.28864574 0.50390357
000390 55 f2 36 bf 0e fb b0 3e 84 9c 6b 3e a7 63 24 3d
       -0.7146352 0.3456654 0.23008925 0.0401341
0003a0 00 74 f3 bd fa a8 56 bd c8 80 ba bc 29 a7 6b 3e
       -0.118873596 -0.052407242 -0.022766486 0.23012985
0003b0 0c 88 5c be e2 0d 26 be 8e 41 12 bf fc 28 d5 3e
       -0.21536273 -0.16216233 -0.5713128 0.4163283
0003c0 da d4 e1 3e 74 9a d9 be dc 11 04 be 53 2f 38 3f
       0.44107705 -0.4250065 -0.12897438 0.7194721
0003d0 1f 5a ac 3e 73 21 38 3e 3d 1c 50 be 07 6e 0b 3e
       0.33662507 0.1798151 -0.20323272 0.13616191
0003e0 ff 94 9b 3e 6f 6e a2 be 14 bb 75 3d 0c 45 d5 3e
       0.30387112 -0.3172488 0.059992865 0.4165424
0003f0 cf 6d f1 3c ee 79 b7 be 8f 0c 47 3e 83 6e bf bd
       0.029471306 -0.35835212 0.19438384 -0.0934725

bias_ih_l0 f4 [100]
000000 57 a8 13 3e 75 15 37 3e 6e 46 5c be 6b 90 ca 3e
       0.14419685 0.17879279 -0.21511242 0.39563307
000010 36 a7 46 3e 4c 41 47 bd 9c a9 62 3c d6 33 87 3e
       0.19399723 -0.048646256 0.013834383 0.26406735
000020 c3 24 f0 be e0 d0 2d 3e bd c7 55 be f2 c8 9c 3d
       -0.46903047 0.1697421 -0.20876975 0.07655515
000030 07 28 ee 3d f1 0f a5 3e 60 40 08 3d 30 54 2b 3e
       0.11628728 0.32238725 0.033264518 0.16731334
000040 46 9e b6 3d 46 25 71 3e 70 3e 92 bd 9e 4a 37 bd
       0.08916907 0.23549375 -0.07140815 -0.044748895
000050 d8 bf b9 be b0 62 14 3e 17 38 c3 3d 6d 2e 53 3d
       -0.36279178 0.14490771 0.09532183 0.051557947
000060 24 08 ef 3d 7a f6 27 3e 20 b1 a8 3e 52 cf 0f 3d
       0.116714746 0.16402617 0.32947636 0.035109825
000070 69 ea 44 3e 31 ae d9 3d 3c 36 b6 3d ac b2 4a 3e
       0.19230045 0.106289275 0.08897063 0.1979472
000080 7f 7a 1e bd 16 f2 2c 3f f6 f7 ba bd 3b d1 f1 3e
       -0.03869104 0.67556894 -0.09129326 0.47229943
000090 98 8f 95 3d 43 1d fa bd 9d e9 88 3d 12 eb bf 3d
       0.07302779 -0.122126125 0.06685183 0.09371008
0000a0 d7 e3 82 3e e9 ce d8 3d f3 ad b9 3e f3 c7 1c 3e
       0.25564453 0.1058634 0.36265525 0.1531065
0000b0 fd 27 94 3d 47 f8 71 3e 8d c8 9e 3d d6 08 67 bd
       0.0723419 0.23629867 0.07753096 -0.05640491
0000c0 89 f5 67 bd e1 83 b0 3e be 45 52 be 73 5c 2b be
       -0.056630645 0.34475616 -0.20534417 -0.16734485
0000d0 2e 0e b9 3c 25 3f 3e 3e 05 b4 14 3e 70 ff a6 3d
       0.02258977 0.18578775 0.14521797 0.081541896
0000e0 19 c7 b3 3c ec a9 e8 bb af c4 c8 3c 6d 4e ec 3d
       0.021945523 -0.0071003344 0.024507849 0.11538396
0000f0 0a 01 ca 3d 88 4e 68 be ab ea cf bd eb 5e a8 bd
       0.098634794 -0.22686207 -0.10152181 -0.08221229
000100 15 8b 34 3d ec 44 23 3e a3 b6 a7 be ec 83 e1 3d
       0.04407795 0.1594426 -0.32756528 0.1101149
000110 de 04 ee bd 1c 38 e9 3d 60 55 8b bd 14 31 0e bd
       -0.11622022 0.11387655 -0.06803393 -0.034714773
000120 3e 83 6f be 6b cb a5 3e de b4 87 be 90 b0 a3 3e
       -0.23389909 0.32381758 -0.26505178 0.31970644
000130 52 10 ca 3e 51 cd 86 3e 92 6d fd 3e 5f ea 8a 3e
       0.39465576 0.2632852 0.49497658 0.27131936
000140 07 6c 8a be 30 83 47 3e 07 55 b7 3e c9 9b 73 3e
       -0.27035543 0.19483638 0.35807058 0.23789896
000150 04 4f 8a 3e e2 d0 ac 3e 57 0c c5 3d e8 e8 86 bd
       0.2701341 0.33753115 0.09621494 -0.06587392
000160 7a 86 a4 3d 08 dd 25 be e2 2c d8 bc 25 2e 85 3e
       0.08033462 -0.16197598 -0.02638859 0.26011768
000170 d6 d6 8e 3e 7c 6f d0 bd 23 72 1f 3e d4 74 13 3e
       0.27898282 -0.10177514 0.15570883 0.14400035
000180 bd e9 50 3e 99 b3 ad 3d 16 3d 58 3e 62 d9 94 3e
       0.20401664 0.08481521 0.21117052 0.290721

bias_hh_l0 f4 [100]
000000 33 0b 0b 3e bf 7f 01 3e 74 5d 09 be 10 68 58 3e
       0.13578491 0.12646388 -0.13414556 0.21133447
000010 31 14 af 3d a2 3f 87 3d 33 5b 9a 3e 5d a8 3f 3e
       0.08548773 0.06603934 0.30147704 0.18716569
000020 30 39 07 bf 31 3c 3f 3d fb 27 70 be 8b f0 df 3d
       -0.52821636 0.046688262 -0.23452751 0.10934552
000030 b0 cf b3 3d 9c 2e ac 3e 34 e3 c4 bd dd ed 47 3e
       0.087798476 0.3362931 -0.09613648 0.19524331
000040 49 1f c1 3d 4d 53 43 3e e9 f5 b0 be 54 f4 d9 bd
       0.09429795 0.19074745 -0.34562615 -0.10642305
000050 78 10 56 be 98 44 10 3e d6 13 9a 3e 82 b2 07 3e
       -0.2090472 0.14088666 0.3009326 0.13251689
000060 dc 0a db 3e 98 ee 2d be 18 7f a4 3e cb f7 a0 3e
       0.42781723 -0.16985548 0.32128215 0.3143905
000070 40 40 7f 3e 8c 06 4f 3b 85 47 64 3e bb c4 97 3e
       0.24926853 0.0031589596 0.22292908 0.2964228
000080 2f 71 6f 3d da 22 23 3f 6b b8 c4 bd 62 25 ca 3e
       0.05845755 0.63725054 -0.096054874 0.39481646
000090 c8 54 a3 bd 78 1e 88 bd 82 61 04 3e aa a6 1e 3e
       -0.07975155 -0.066464365 0.12927821 0.15493265
0000a0 b1 52 16 3e 89 6a c3 bb 45 26 82 3e ba 47 59 3e
       0.14679982 -0.0059636277 0.25419822 0.21218768
0000b0 39 3a 5a 3e 4c 7b cd 3e 54 dc 16 be b4 fd a8 bd
       0.21311273 0.4013313 -0.14732486 -0.08251515
0000c0 27 ad cf 3d b2 4c 56 3d 9a bc 3b be e3 4b da bd
       0.10140448 0.052319236 -0.18333665 -0.106590055
0000d0 db 09 43 3e 86 bf c3 3c cf e3 c3 bd 59 d1 55 3e
       0.19046728 0.023895036 -0.095649354 0.20880641
0000e0 c7 e0 00 bd 21 45 1f 3e 96 bf e6 bd 61 d3 60 3d
       -0.031464364 0.15553714 -0.11267011 0.054889087
0000f0 20 a5 a1 3d bf f6 fa bd bb 58 8d 3d 50 a3 ee 3c
       0.07892823 -0.12254094 0.069016896 0.029130608
000100 42 2b 56 3d 42 ee 47 3e 6b d0 93 bd d1 6a 01 3e
       0.052287348 0.19524482 -0.07217487 0.12638403
000110 dc 9c 62 3e 07 cd 95 3e 1b fd ab 3c 45 a4 73 be
       0.2213015 0.29257986 0.020994714 -0.23793133
000120 53 88 9f be 30 60 b1 3c 54 b4 e8 be a4 76 22 3e
       -0.31158695 0.021652311 -0.4545008 0.1586557
000130 49 3b 93 3e 12 07 8c 3e 2a 25 f4 3e 92 a3 77 3e
       0.28756168 0.27349144 0.47684604 0.24183491
000140 1e dd 91 be de 83 48 3e 91 e1 e1 3d ca 15 4c 3e
       -0.28489012 0.19581553 0.110293515 0.19930187
000150 b7 95 87 3d ba f6 3d bd 85 b5 4e be c2 22 4b bd
       0.06620353 -0.046377875 -0.20186432 -0.049593695
000160 11 89 a3 3e 3a 96 22 be 41 b3 9b 3e ee 46 22 3c
       0.3194051 -0.1587762 0.30410197 0.009904606
000170 f6 46 ad 3e d7 ed 98 bd 82 26 9a 3a e9 07 ea bd
       0.338432 -0.07467239 0.0011760744 -0.1142729
000180 2c 58 8f 3e 58 7c 54 3e 57 5f a0 3e 94 76 a2 3e
       0.27996957 0.20750558 0.3132274 0.31731093

weight f4 [1, 25]
000000 25 3d cd be cc 93 cc 3e 60 d2 53 3d 14 c8 a9 3e
       -0.40085712 0.3995651 0.0517143 0.3316046
000010 20 2f ce be aa a8 ef 3e cc cd c3 be 0b d3 e1 3e
       -0.4027033 0.46808368 -0.38242948 0.44106326
000020 d6 48 52 3e a6 93 01 3f c5 31 c1 3e 63 6e e4 be
       0.20535597 0.5061592 0.37733284 -0.44615468
000030 98 a8 38 be 14 73 d7 3e 8e dd 91 be 9a 98 a4 be
       -0.18033063 0.42079985 -0.28489345 -0.32147676
000040 ee 1d d8 3e b2 2a f1 3e ec c1 47 bd 39 52 1f 3e
       0.42210335 0.47102886 -0.048768923 0.15558709
000050 de c3 9f bd 89 b1 a8 3e 09 4c 04 bf a5 42 b3 3e
       -0.078010306 0.3294795 -0.5167852 0.35011783
000060 e7 13 f7 3e
       0.48257372
