course3-rnns/lab1/model.pt (torch, 5989 bytes, 5 tensors)

weight_ih_l0 f4 [25, 1]
000000 b0 8a f2 be 2a 33 a3 be be 98 9d be e3 f5 46 3e
       -0.47371435 -0.31874973 -0.30780596 0.19429736
000010 fd 90 9c 3d 19 26 d0 3e 4b ab 75 be 5e a2 02 be
       0.07644842 0.40654066 -0.23991124 -0.1275725
000020 55 78 d5 3e d4 a5 de be 1a 5b f1 3e ab 9a e0 3e
       0.4169337 -0.43485892 0.47139817 0.43868002
000030 6b 65 b1 3e 3a b2 27 3e 02 4a 67 3d 61 ea 8d be
       0.34647688 0.16376582 0.056467064 -0.2771788
000040 14 35 49 bf f1 6a 04 be 60 c5 15 3e 91 bc 9f be
       -0.78596616 -0.1293142 0.14626074 -0.31198552
000050 28 e3 d7 3e 3c 3b b3 bc 56 88 60 ba f2 a9 12 3f
       0.42165494 -0.021878831 -0.00085652375 0.57290566
000060 02 df 80 3e
       0.2517014

weight_hh_l0 f4 [25, 25]
000000 6d 94 f3 bd 39 e5 f8 bd 08 f6 cd bd 2a 22 0c be
       -0.11893544 -0.12153096 -0.10056692 -0.13684908
000010 b2 f9 29 bc 94 35 29 be 73 a6 4e bd d2 79 5d be
       -0.010374473 -0.16524345 -0.050451707 -0.21628502
000020 30 5c 4c be 01 69 5d 3d 88 64 14 ba 1c 10 f8 3d
       -0.19957042 0.054055218 -0.0005660732 0.121124476
000030 89 a2 85 3e 47 75 21 3e 3c 72 04 bc 52 a0 43 be
       0.26100567 0.15767394 -0.008083876 -0.19104126
000040 27 ff 83 bd 8a 2b 75 3d 32 9f 4c be 82 19 f4 3d
       -0.06445151 0.059855975 -0.19982603 0.11918928
000050 38 4f 19 be 0c 2c 61 bc 92 ac 0c 3e 23 86 7d be
       -0.14971626 -0.013743412 0.13737705 -0.247582
000060 20 a9 10 3e db 30 77 3e c0 10 46 be b9 79 95 bd
       0.14127016 0.2413973 -0.19342327 -0.072986074
000070 13 79 67 3c 9a 69 b3 3d b4 21 38 3e 98 cc a8 ba
       0.014127987 0.08760376 0.17981607 -0.0012878357
000080 67 bc 28 3d 53 49 67 bd e6 d5 5b 3e b1 04 e8 bd
       0.0411953 -0.05646641 0.21468315 -0.1132902
000090 60 ba 13 bd e9 19 43 3c a9 d9 07 3c 82 9c 49 be
       -0.036066413 0.011908033 0.00829164 -0.19688609
0000a0 bd 08 3f be 50 df 85 be 80 c9 0c 3e 23 42 93 3d
       -0.18655677 -0.26146936 0.13748741 0.07190349
0000b0 0d 3c d2 bc b0 87 14 bd a1 45 b8 be ad 41 fe 3c
       -0.0256634 -0.036262214 -0.35990623 0.031037176
0000c0 97 45 1f be 37 c6 12 be 81 65 26 3c 62 83 91 3d
       -0.1555389 -0.14333425 0.010156036 0.071051374
0000d0 4e e6 22 3d ac fb 37 3e 13 e4 0e 3e 58 a2 1f bd
       0.039770417 0.17967099 0.13954191 -0.038973182
0000e0 64 71 df 3b bc d1 47 be 25 13 6e 3e 6b 16 fa bd
       0.006818937 -0.19513601 0.2324949 -0.12211307
0000f0 9a 74 fe bc 75 c4 87 bd 7a 91 b4 3e dc c2 6d 3e
       -0.03106146 -0.06629268 0.3526724 0.23218864
000100 68 1d 5f bd 5f ba 57 be 43 55 40 3d b1 e9 3a 3e
       -0.054471403 -0.21067189 0.046956312 0.18253209
000110 3d f4 68 be af 4f a9 3e a6 4c 57 bd 5f c9 c6 bc
       -0.2274942 0.33068606 -0.052563332 -0.024265943
000120 b8 e4 cf bc 47 ee 63 3e 27 35 ed bd ea 00 1d be
       -0.025377616 0.22258864 -0.11582404 -0.1533238
000130 e7 de 81 3d 5d a2 bc 3d 3c 1d 20 be c9 80 d2 3d
       0.063413434 0.09210656 -0.15636152 0.1027847
000140 9a 41 7d 3e 2d a7 af bc 0f db dc 3d e7 77 43 3d
       0.24732056 -0.02144202 0.107839696 0.04772177
000150 34 4d 2e be d4 d5 70 bd de 03 d1 3d d5 dc 1e bb
       -0.17021638 -0.058797672 0.10205816 -0.0024240513
000160 81 ca 2d 3d 5c b1 05 3e f6 f5 74 bd af 4d 3c 3e
       0.04242945 0.13055938 -0.05980488 0.18389009
000170 e1 cb 5a 3e 71 0b 9b 3e fa 67 64 bd ff d0 07 be
       0.21366836 0.30282167 -0.055763222 -0.1326332
000180 4c 6e 92 3d 4e c2 c7 3e 3d e1 01 3e 61 71 49 bd
       0.07149944 0.3901543 0.12683578 -0.049180392
000190 c2 15 14 be 72 eb e6 bb 8f 64 0c be 9d e7 6d 3d
       -0.14461425 -0.0070471102 -0.13710235 0.05808221
0001a0 8c 2e 84 be ca 8d 3b be ab 01 8b 3d 4d 96 83 3e
       -0.25816762 -0.18315807 0.067874275 0.25700608
0001b0 4c 3f be 3d 68 29 46 bb ee 7a 8e 3c ee 25 38 3e
       0.09289417 -0.0030237082 0.017392602 0.17983219
0001c0 0a 32 39 3d b9 56 7d 3b 61 1c fc 3d 3b b4 fc bc
       0.045213737 0.0038656427 0.123101 -0.03084766
0001d0 8a b4 0a bf 52 08 c9 3d ee be 88 be 14 88 9f 3e
       -0.5418173 0.0981604 -0.26708168 0.31158507
0001e0 d6 34 3c 3d 9a 00 8a bc 57 b0 5e 3d b6 76 8d bd
       0.045948826 -0.01684599 0.05436739 -0.06907408
0001f0 a6 ed 1d bd db c3 9e bd 03 2b 74 3e 00 b0 3b be
       -0.038556717 -0.077522 0.23844533 -0.18328857
000200 fa 23 9f bd 7f f9 b0 bd 28 0d a6 bd 4e 45 2b bc
       -0.07770534 -0.086413376 -0.08107978 -0.010453535
000210 f9 c1 50 3e 93 d3 ae 3c 45 24 af 3c 3c 6f 45 be
       0.20386495 0.02134112 0.0213796 -0.19280714
000220 14 58 45 3e 0b 9d 12 be 3e 6b f4 3d 79 e7 c2 bd
       0.1927188 -0.1431772 0.11934517 -0.09516806
000230 c3 df 05 be 96 92 8d 3d db ca 44 bd 39 10 81 bd
       -0.1307364 0.06912725 -0.04804502 -0.06301922
000240 82 83 69 be 1e d1 45 3e 3e 5e c8 3d 8a 7a 0c 3e
       -0.22804072 0.19318053 0.097836 0.1371862
000250 82 e7 29 3e 1b eb 5f 3b 80 67 07 3e c7 b5 1a be
       0.1659222 0.0034167233 0.13223076 -0.15108405
000260 00 d1 63 be 6b 13 9d be 26 c2 b5 3e c1 8c 8d be
       -0.22247696 -0.30678877 0.35499686 -0.2764645
000270 92 af 33 bd ca a4 64 bc cb be a4 be d1 f8 07 be
       -0.04386861 -0.013955304 -0.32176813 -0.1327851
000280 ce 0e 55 be 4c c8 17 3d dd c2 8b 3c 53 5f a9 be
       -0.20806429 0.037056252 0.017060691 -0.3308054
000290 6f cb 39 3e 5f 16 89 3d 2f b2 e4 be 70 8a 10 be
       0.1814401 0.0669372 -0.44667193 -0.1411531
0002a0 be 97 5f 3e 23 95 c9 be bd e5 62 be d8 77 5f 3d
       0.21835229 -0.39371595 -0.2215795 0.05455765
0002b0 7e a1 81 3e c1 13 78 be 77 89 8d be db 47 50 3e
       0.2531852 -0.24226286 -0.2764394 0.2033991
0002c0 bc 1d 78 3e 96 cf e7 bd 3a df 3b be 44 e1 2d 3d
       0.24230093 -0.11318891 -0.18346873 0.04245116
0002d0 8c 52 61 be 30 f4 b2 bd df c2 af 3c 2b 22 a3 3d
       -0.22004145 -0.08737981 0.021455226 0.079655014
0002e0 a8 55 c8 3e 24 68 d8 bd c9 56 56 bb e3 47 15 bd
       0.3912785 -0.10566738 -0.0032705537 -0.03644551
0002f0 8a 2e 31 be b3 d7 a4 be c6 76 20 3c d6 2a fe be
       -0.1730291 -0.32195815 0.009793943 -0.49642056
000300 6c ef f0 3e ed b8 db 3e 8f 45 04 bf 14 58 c0 3d
       0.47057664 0.42914525 -0.5166864 0.093917996
000310 59 ba 41 bd 91 38 a5 3e 66 ab 91 3b ed 42 ec bd
       -0.047296856 0.3226972 0.004445481 -0.115362026
000320 e8 e4 3a bd 23 d8 d5 3d 39 32 91 be a0 a7 03 3e
       -0.04562846 0.104416154 -0.2835863 0.12856913
000330 05 41 ed bd 14 9f 40 3e b4 01 cd 3d a1 14 c7 3d
       -0.11584667 0.18810683 0.100100905 0.097207315
000340 1e 3f 46 3e a4 26 23 3d 71 13 ff 3d 99 4b c3 3c
       0.19360015 0.039831772 0.1245488 0.023839759
000350 e6 09 d6 bc c9 eb 7c bc 2b 7a fa bd d0 34 28 be
       -0.026127767 -0.015437075 -0.12230333 -0.16426396
000360 00 f0 5c bd 9b 45 ed 3d c1 ae 38 bd 66 2b 0b be
       -0.05393982 0.11585542 -0.045088533 -0.13590774
000370 85 fd a9 bd ba 2d 89 3d 0c f0 5b be 28 61 b6 bc
       -0.08300308 0.06698175 -0.2147829 -0.022263125
000380 e4 4b 0a 3e b0 00 1d 3e 60 bb 23 bd 50 27 2b 3c
       0.13505512 0.15332294 -0.039973617 0.010446385
000390 6e 07 4b be 61 59 80 3e 8c 65 36 bd 52 33 79 3d
       -0.19827053 0.2506819 -0.044530436 0.06083996
0003a0 4d 82 2b 3e f6 01 d8 bd 96 1d 15 3e 50 49 bd 3d
       0.16748925 -0.10547249 0.14562067 0.09242499
0003b0 d8 a5 5e be 9b c6 36 3d 03 85 23 be a0 b5 90 bd
       -0.21742952 0.044623 -0.15968709 -0.07065892
0003c0 ef 1f c6 bd aa 0a 7f be 1b d6 09 3e ec d3 03 3d
       -0.096740596 -0.24906412 0.13460581 0.032184526
0003d0 2e 06 89 bd 71 d3 a5 bd 12 c1 46 bd 61 21 f6 3d
       -0.06690632 -0.0809697 -0.04852397 0.12018085
0003e0 b2 98 30 bd 54 7f 8b bc 8a 52 28 be 82 81 2f be
       -0.04311437 -0.017028488 -0.16437736 -0.17139247
0003f0 42 a6 11 be e0 da 73 be 22 96 b7 bd 14 de 01 bc
       -0.14223579 -0.23813963 -0.089641824 -0.007926483

bias_ih_l0 f4 [25]
000000 e1 5b c7 3c 19 45 82 bd 88 7b 14 3b 1e 4f 20 be
       0.024335803 -0.063608356 0.0022656638 -0.15655181
000010 5a a3 be bd ea 8f 04 bd 9c 47 0a be 48 83 a3 3d
       -0.093085006 -0.03236381 -0.1350388 0.07984024
000020 c9 fa 3b 3d 15 5e 3d be 9d e8 84 3d 16 38 8b bd
       0.045893464 -0.1849292 0.0648968 -0.06797807
000030 43 80 ba 3d 49 26 53 3d ac e2 0d 3c 23 05 0f 3e
       0.09106495 0.051550183 0.00866 0.13966803
000040 26 7b 4f bd be 01 07 bd 17 64 33 bd 58 dd da bd
       -0.050654553 -0.032960646 -0.043796625 -0.10686749
000050 19 e1 fd 3d 27 25 6f bd 94 d1 0b 3c 58 bd 66 3d
       0.123964496 -0.05838504 0.008533854 0.056332916
000060 1f 5d 8e bd
       -0.06951355

bias_hh_l0 f4 [25]
000000 2c d1 56 bd 83 e9 4d 3d cc 07 14 3e 94 68 fa 3d
       -0.052445576 0.050271522 0.144561 0.12226978
000010 0d ce e6 3d c9 df f6 3d aa 9d 0e bd 0e f2 15 bd
       0.1126977 0.120544024 -0.03481833 -0.036607794
000020 13 29 07 3d c1 bc 12 3e 53 93 88 bc eb 61 ac 3d
       0.032998156 0.14329816 -0.016671812 0.08417114
000030 26 06 0e 3d 29 e0 13 3d 52 8c 31 3e 92 de 32 3d
       0.034673832 0.036102448 0.17338684 0.04366929
000040 86 2f c4 3d 15 fb 88 3d 3d 4c 3e 3d 38 9a 6e 3d
       0.09579377 0.06688515 0.046459425 0.058252543
000050 e5 77 cf 3d b3 c9 dc 3c b1 4a c2 bc 8e 02 0b be
       0.1013029 0.026951646 -0.023717256 -0.13575193
000060 7f 2b 20 bc
       -0.009775995

weight f4 [1, 25]
000000 9c 92 98 be c8 82 93 be ff 9e d8 3d d9 23 6a 3d
       -0.29799354 -0.28810716 0.10577201 0.057163093
000010 10 d4 1f 3f 29 bc 95 3e e5 75 9a be ca 5e c8 be
       0.62432957 0.29245117 -0.3016807 -0.39134818
000020 ef d9 e9 3e ed 70 de be e5 2c e1 3e 45 f3 69 3e
       0.45674083 -0.4344553 0.43979564 0.22846706
000030 8d c0 3c 3e 8c 51 d2 3c 90 25 85 3e da cb ce be
       0.18432827 0.02567365 0.2600522 -0.403899
000040 2e 26 2d 3f 29 0a 83 be b6 9f 4b be 48 57 e8 3e
       0.6763638 -0.2559369 -0.19885144 0.4537909
000050 2d 69 bd 3e 76 2b 8f be e0 5f 44 3e 3e 02 53 3e
       0.36994305 -0.27962846 0.19177198 0.20606324
000060 f9 c4 a7 3e
       0.32767466
